model_training/ball_motion_model.pth (torch, 138457 bytes, 8 tensors)

encoder.0.weight f4 [64, 3]
-0.28326166 0.56883883 -0.672849 -0.38590246 0.3281762 -0.44332254 -0.06070566 -0.13210198
0.43493032 -0.44624195 0.34084058 -0.1021296 0.09290239 0.13452934 0.38302782 -0.39742577
-0.28365168 -0.12806135 -0.5467314 0.4477583 -0.584891 0.2825882 -0.04261092 -0.11129446
-0.05183557 0.002230022 -0.6320928 -0.34692377 0.12337926 -0.4151423 -0.069299445 0.20660326
-0.4869095 -0.22326013 -0.04743302 -0.31592494 -0.19418506 0.062295284 -0.4461213 0.08350987
0.43050125 0.29777214 0.052564375 0.123367675 -0.4731914 0.17517667 0.37186477 0.09236201
-0.4558137 -0.1854277 -0.1135577 -0.1210337 0.5485709 -0.106751285 0.35705236 -0.014802006
-0.3615436 0.54517233 -0.399006 -0.3112678 -0.47264826 -0.15852883 0.38840383 0.5352944
0.4401463 0.40962273 -0.02412219 0.52585036 -0.13593471 0.058065116 -0.5611005 0.10364109
-0.16814665 0.22774224 0.39053124 0.23507956 0.31275848 -0.30272618 -0.008296405 0.4345137
-0.5085255 0.11069757 0.18973011 0.43074787 -0.0013846636 0.204752 -0.2363499 -0.09857297
0.01786416 -0.4407883 0.31640399 0.2838709 -0.2352152 0.11849019 0.5429122 -0.3450508
0.4383689 -0.114771366 -0.1548866 -0.21108428 0.19841781 0.50857854 0.5542995 -0.055712953
0.31011105 -0.31316844 0.18546985 0.3392919 -0.28839305 0.18634187 0.5507798 -0.24596514
0.51496106 0.26337472 0.025280375 0.18434685 0.28228474 -0.54573196 0.13090484 -0.08962172
0.3982972 -0.32224277 -0.2966626 0.5473197 0.44324574 -0.35282588 -0.34388062 -0.022859376
-0.16298187 0.5438723 -0.026879653 0.6563931 -0.3628432 0.23250122 0.43506753 -0.4986058
0.13721116 -0.05783135 0.023322873 0.2569198 -0.29341292 0.2310366 0.018455975 0.6065127
0.118533164 -0.064482085 0.10778203 -0.049301337 0.41311055 0.18125728 -0.074791074 -0.10933146
-0.54233915 -0.18767834 0.55082405 0.5184551 0.4331993 -0.4212454 -0.5511114 -0.40614384
0.42154685 0.34617278 -0.12520814 -0.5286551 0.56029546 -0.5573846 0.5702733 -0.16352654
-0.29235762 0.120922185 0.48060873 0.3324464 -0.36249682 0.1343044 0.31874272 0.5484174
-0.4651232 0.13169199 -0.46015844 0.19362134 0.4484706 -0.47993484 -0.22702515 -0.305181
0.0075161876 0.33293948 0.5185744 -0.117618196 0.36701953 0.37189433 0.33120397 0.48325822
00000000: ac07 91be 6c9f 113f d53f 2cbf 0295 c5be
00000010: b606 a83e 2cfb e2be 80a6 78bd be45 07be
00000020: 30af de3e d379 e4be a882 ae3e 5329 d1bd
00000030: 9c43 be3d 0fc2 093e 391c c43e 647b cbbe
00000040: cb3a 91be 8422 03be 97f6 0bbf 9340 e53e
00000050: 6bbb 15bf 67af 903e ca88 2ebd 5aee e3bd
00000060: 8951 54bd 9025 123b d5d0 21bf fe9f b1be
00000070: 44ae fc3d 888d d4be deec 8dbd ce8f 533e
00000080: 344c f9be 4e9e 64be 2049 42bd eac0 a1be
00000090: 73d8 46be 5729 7f3d 036a e4be 3907 ab3d
000000a0: a96a dc3e 9775 983e be4d 573d 31a8 fc3d
000000b0: 2546 f2be 8361 333e 0f65 be3e 4b28 bd3d
000000c0: 6a60 e9be c2e0 3dbe f090 e8bd 84e0 f7bd
000000d0: 246f 0c3f 6ba0 dabd 91cf b63e 1d84 72bc
000000e0: 3e1c b9be 6a90 0b3f 844a ccbe 7e5e 9fbe
000000f0: f4fe f1be 6255 22be dedc c63e 0e09 093f
00000100: db5a e13e 12ba d13e e69b c5bc 219e 063f
00000110: 7832 0bbe b0d5 6d3d 48a4 0fbf c841 d43d
00000120: a32e 2cbe 4335 693e b6f3 c73e b2b8 703e
00000130: e121 a03e edfe 9abe a5ed 07bc 9478 de3e
00000140: ba2e 02bf 68b5 e23d 9c48 423e fc8a dc3e
00000150: 9a7d b5ba 82aa 513e b505 72be a0e0 c9bd
00000160: dc57 923c 01af e1be b4ff a13e 8757 913e
00000170: 41dc 70be fcaa f23d 4bfc 0a3f 80aa b0be
00000180: e371 e03e 400d ebbd 989a 1ebe 7a26 58be
00000190: 0a2e 4b3e 3432 023f 92e6 0d3f 4433 64bd
000001a0: e0c6 9e3e 9d57 a0be cfeb 3d3e abb7 ad3e
000001b0: 41a8 93be 67d0 3e3e e8ff 0c3f 49de 7bbe
000001c0: 7dd4 033f 0dd9 863e ca18 cf3c 6cc5 3c3e
000001d0: a087 903e 17b5 0bbf eb0b 063e 988b b7bd
000001e0: 9ced cb3e 01fd a4be 29e4 97be 251d 0c3f
000001f0: 1bf1 e23e 98a5 b4be 1f11 b0be 9643 bbbc
00000200: b8e4 26be 373b 0b3f b832 dcbc 6109 283f
00000210: 95c6 b9be cd14 6e3e 2cc1 de3e 4249 ffbe
00000220: 1581 0c3e 91e0 6cbd 9c0f bf3c fe8a 833e
00000230: 383a 96be dc94 6c3e fc30 973c 6b44 1b3f
00000240: 84c1 f23d 2f0f 84bd d3bc dc3d 33f0 49bd
00000250: 3a83 d33e 829b 393e 102c 99bd 2ce9 dfbd
00000260: bdd6 0abf c02e 40be ce02 0d3f 79b9 043f
00000270: 4ccc dd3e 7aad d7be a315 0dbf 16f2 cfbe
00000280: fdd4 d73e 8f3d b13e 9036 00be f155 07bf
00000290: 866f 0f3f c2b0 0ebf 6efd 113f 8073 27be
000002a0: e6af 95be 0da6 f73d 5912 f63e 6a36 aa3e
000002b0: 2f99 b9be 1887 093e 3f32 a33e 1565 0c3f
000002c0: a124 eebe 44da 063e e399 ebbe ac44 463e
000002d0: f09d e53e 05ba f5be 4879 68be af40 9cbe
000002e0: 5a4a f63b 0b77 aa3e 4bc1 043f cfe1 f0bd
000002f0: fce9 bb3e ef68 be3e 9193 a93e 9f6d f73e

encoder.0.bias f4 [64]
0.10350697 -0.0721531 0.4158398 0.5088631 -0.1908241 -0.5325519 0.33791932 -0.01317973
0.5673672 0.11456417 0.42740116 0.4858842 -0.5458201 0.103784196 0.06458835 -0.4769648
0.22884959 -0.05057017 0.2147147 0.4779756 0.3307733 -0.23135112 -0.14773054 -0.1759057
-0.51115614 0.15498698 -0.05938375 0.0052323113 0.21109104 0.39228225 -0.3732445 0.52375597
-0.5429025 0.105546884 0.24123304 0.3605138 -0.55172944 -0.35372514 0.46619242 0.44256085
-0.53970903 0.016923586 0.42549035 -0.5170271 0.060707647 -0.19936226 -0.15978575 -0.48258728
0.2805566 -0.10625486 -0.0523901 0.08399905 -0.4708963 -0.4451387 0.44007897 0.27974996
-0.11297065 -0.08700755 -0.20406865 0.26583636 -0.514924 -0.20257913 -0.37913215 -0.062712416
00000000: 76fb d33d 01c5 93bd f4e8 d43e da44 023f
00000010: 6567 43be 5255 08bf c303 ad3e cbef 57bc
00000020: fa3e 113f 9fa0 ea3d 53d4 da3e d0c5 f83e
00000030: deba 0bbf cf8c d43d e646 843d bb34 f4be
00000040: 8c57 6a3e ab22 4fbd 2cde 5b3e 38b9 f43e
00000050: 1e5b a93e 4fe7 6cbe ad46 17be a020 34be
00000060: 21db 02bf e8b4 1e3e 603c 73bd cf73 ab3b
00000070: 4028 583e 38d9 c83e e719 bfbe df14 063f
00000080: a9fb 0abf f728 d83d cb05 773e 4495 b83e
00000090: 243e 0dbf 761b b5be c6b0 ee3e 5697 e23e
000000a0: 5f2a 0abf 55a3 8a3c dfd9 d93e e35b 04bf
000000b0: 95a8 783d 9f25 4cbe e09e 23be ae15 f7be
000000c0: 1da5 8f3e 269c d9bd 0097 56bd b207 ac3d
000000d0: 5219 f1be 38e9 e3be 0852 e13e 633b 8f3e
000000e0: 285d e7bd 0431 b2bd 5ff7 50be b41b 883e
000000f0: 0fd2 03bf e770 4fbe 9c1d c2be 5e6f 80bd

decoder_lstm.weight_ih_l0 f4 [256, 64]
-0.13619415 -0.010507522 0.08421689 0.034325216 -0.06292623 0.06480813 -0.01358773 0.052909423
0.017007168 -0.04288447 -0.13016829 -0.059155867 0.102112934 0.08054262 0.00167645 -0.0050762673
-0.109661624 -0.08888699 0.069705956 -0.09837003 0.07758857 0.095857315 -0.09691279 0.071422026
-0.09205702 0.055559546 -0.026372261 -0.11440445 -0.037917804 0.12029801 0.061832212 -0.021342348
0.0031701878 0.0712362 -0.16054174 -0.06196856 0.07194908 -0.06347603 -0.14307222 0.027785271
-0.01806447 0.05050326 0.07352009 0.00023167429 -0.12221877 0.050592612 0.061216366 -0.14025949
-0.06467893 0.047054693 0.021805823 -0.0030745405 -0.070055306 0.019367825 -0.00068223476 0.092481256
0.07264639 -0.08294204 0.04438201 0.045727655 -0.09414616 -0.11612553 0.03859959 -0.04333716
0.05500665 0.12073262 -0.008012623 0.10839419 0.12122411 -0.003386587 0.040421855 -0.08491185
0.06268053 0.0061564334 0.0026025039 -0.0117043555 -0.08840187 -0.08690799 0.06770566 0.122957245
-0.007532835 -0.053694498 0.09226624 -0.011103883 0.073553845 -0.093654506 0.10860071 -0.10439941
0.11744412 -0.09304261 0.08365199 -0.026546733 -0.06001784 0.15318368 -0.012508554 0.10524226
0.054952543 0.12444067 0.12884364 -0.051645253 0.09173196 0.081755295 -0.09339923 0.06782704
-0.1070323 -0.07923047 -0.08148952 0.05922537 0.007132043 0.055047266 -0.089455165 0.062162384
0.029948315 -0.00574241 0.035375327 -0.038070414 -0.044647053 0.03445811 0.089522734 0.06876771
0.070524774 -0.009050399 0.026661523 -0.109515175 0.104553014 0.03854329 0.06951957 -0.006758234
-0.02645552 -0.09661588 -0.034660786 -0.056998026 -0.048958316 -0.112794 0.0045183585 -0.13941638
-0.021382038 0.015867036 0.12113157 0.04137598 0.0018420662 -0.013883534 -0.09208436 -0.017817572
0.011300787 -0.08008193 0.048732672 -0.059786946 0.05644259 -0.034634013 0.030549789 0.08562
0.107838444 -0.04995233 0.08117907 0.07696236 -0.0051676813 -0.03223859 -0.04219707 0.06325509
-0.13046236 0.048593313 0.006309521 -0.10525156 -0.07161198 -0.12215728 0.019317772 -0.082143314
0.02988568 -0.0032151404 0.066829905 0.12167208 -0.027549133 -0.05513019 0.11734757 0.010626101
-0.10635249 0.005099377 0.10963106 0.066425934 0.032848224 0.11967481 -0.009647384 0.085965365
0.09709975 0.050668955 -0.004157021 -0.025592968 0.09709036 0.06483645 0.06715347 -0.029934604
0.06078629 0.055489454 0.065048754 0.067383826 -0.10913966 -0.09972732 -0.02958581 -0.13739908
0.04921683 0.05059405 -0.03467241 0.11741285 -0.050389223 -0.10987095 -0.06779578 -0.081737444
0.10162136 0.008436589 -0.06450823 -0.04800628 -0.047350332 0.070057586 -0.08494137 0.06103252
-0.13285652 -0.018902812 -0.011204892 0.039277654 0.04142799 -0.028390676 0.002204171 0.08813159
0.08639451 -0.052296694 0.051283248 -0.009641279 -0.041230872 0.05490674 -0.12216641 0.06782263
0.07431534 0.05820508 -0.14086954 -0.00645683 -0.1320567 -0.1294444 -0.07816881 0.014443677
-0.13455829 0.07078577 -0.047973022 -0.03653166 0.016513482 -0.091493815 0.08718015 0.06334948
0.023314964 -0.024339184 0.020373248 0.018365547 0.046132565 0.10626227 -0.09082835 -0.0035467416
00000000: 7b76 0bbe be27 2cbc e879 ac3d 9998 0c3d
00000010: 78df 80bd 20ba 843d 129f 5ebc 8db7 583d
00000020: 9e52 8b3c a0a7 2fbd d64a 05be 6c4d 72bd
00000030: 9620 d13d 87f3 a43d 54bc db3a d156 a6bb
00000040: 4696 e0bd 620a b6bd ffc1 8e3d 3a76 c9bd
00000050: c2e6 9e3d d750 c43d 367a c6bd b645 923d
00000060: 6488 bcbd 6892 633d a40a d8bc e14c eabd
00000070: b34f 1bbd ce5e f63d c643 7d3d 26d6 aebc
00000080: edc2 4f3b 49e4 913d 0e65 24be bfd2 7dbd
00000090: 0a5a 933d b9ff 81bd 8681 12be f09d e33c
000000a0: f0fb 93bc 82dc 4e3d b391 963d 98ed 7239
000000b0: d64d fabd 333a 4f3d 03be 7a3d 2fa0 0fbe
000000c0: 6376 84bd 6cbc 403d 20a2 b23c 3b7e 49bb
000000d0: 2879 8fbd 46a9 9e3c 00d8 32ba d066 bd3d
000000e0: a1c7 943d 84dd a9bd e9c9 353d ec4c 3b3d
000000f0: b4cf c0bd 39d3 edbd 9b1a 1e3d 4e82 31bd
00000100: a74e 613d aa42 f73d 6047 03bc c6fd dd3d
00000110: 5944 f83d 80f1 5dbb 6391 253d 44e6 adbd
00000120: a65e 803d e8bb c93b c58e 2a3b a0c3 3fbc
00000130: 0a0c b5bd d1fc b1bd 44a9 8a3d 02d1 fb3d
00000140: 00d6 f6bb c3ee 5bbd 15f6 bc3d 10ed 35bc
00000150: 66a3 963d efcd bfbd 0d6a de3d 5ccf d5bd
00000160: 8b86 f03d 208d bebd bc51 ab3d 8978 d9bc
00000170: 44d5 75bd 2fdc 1c3e aef0 4cbc 4189 d73d
00000180: eb15 613d c0da fe3d 96ef 033e f989 53bd
00000190: f7dd bb3d 526f a73d 1848 bfbd e7e8 8a3d
000001a0: c033 dbbd 9643 a2bd fae3 a6bd 4d96 723d
000001b0: eab3 e93b 3e79 613d 4534 b7bd fc9d 7e3d
000001c0: 2b56 f53c d42a bcbb b8e5 103d b9ef 1bbd
000001d0: d4df 36bd f223 0d3d b257 b73d 16d6 8c3d
000001e0: 4b6f 903d 2048 14bc 4469 da3c 7e49 e0bd
000001f0: e41f d63d 92df 1d3d 4760 8e3d 2d74 ddbb
00000200: 3fb9 d8bc 8cde c5bd 78f8 0dbd c376 69bd
00000210: 8488 48bd 8a00 e7bd bd0e 943b 2bc3 0ebe
00000220: 6229 afbc 96fb 813c d413 f83d dc79 293d
00000230: 7c71 f13a c377 63bc ba96 bcbd 28f6 91bc
00000240: f026 393c ff01 a4bd e99b 473d 28e3 74bd
00000250: 5830 673d 65dc 0dbd 8d43 fa3c 8a59 af3d
00000260: 67da dc3d d09a 4cbd 3641 a63d 719e 9d3d
00000270: a755 a9bb 9d0c 04bd d6d6 2cbd e28b 813d
00000280: ed97 05be c809 473d 19c0 ce3b 218e d7bd
00000290: 4da9 92bd 992d fabd 4e40 9e3c c13a a8bd
000002a0: d0d2 f43c 1bb5 52bb 1ede 883d 362f f93d
000002b0: b8ae e1bc 32d0 61bd ec53 f03d 1919 2e3c
000002c0: 56cf d9bd ad18 a73b 4086 e03d 520a 883d
000002d0: dc8b 063d 1118 f53d 1010 1ebc 9c0e b03d
000002e0: 3cdc c63d 408a 4f3d 9f37 88bb 58a8 d1bc
000002f0: 50d7 c63d f9c8 843d c287 893d 6a39 f5bc
00000300: 0bfb 783d e948 633d 4838 853d 8800 8a3d
00000310: 9d84 dfbd d63d ccbd f15d f2bc 58b2 0cbe
00000320: 9697 493d b53b 4f3d a804 0ebd 2676 f03d
00000330: ee64 4ebd 0504 e1bd 84d8 8abd f665 a7bd
00000340: dc1e d03d 9e39 0a3c e41c 84bd 3ca2 44bd
00000350: 6cf2 41bd 5a7a 8f3d bef5 adbd 3cfd 793d
00000360: 8a0b 08be 12da 9abc b994 37bc 9be1 203d
00000370: 65b0 293d 9093 e8bc da73 103b 567e b43d
00000380: 9bef b03d 0f35 56bd 620e 523d 74f6 1dbc
00000390: b4e1 28bd e4e5 603d 6232 fabd 97e6 8a3d
000003a0: a432 983d 7368 6e3d 1b40 10be d193 d3bb
000003b0: df39 07be 138d 04be f816 a0bd 2ca5 6c3c
000003c0: a6c9 09be 21f8 903d 5c7f 44bd 39a2 15bd
000003d0: 4847 873c 1c61 bbbd 828b b23d 5fbd 813d
000003e0: 06ff be3c f862 c7bc cce5 a63c 5873 963c
000003f0: 80f5 3c3d 08a0 d93d 3704 babd 7370 68bb

decoder_lstm.weight_hh_l0 f4 [256, 64]
0.0056988937 0.018969687 -0.104926504 -0.039688606 -0.08280353 0.009334388 -0.062174104 0.094236985
0.107991934 -0.063432544 0.09534445 0.086295575 0.010424966 -0.11054505 -0.06909972 0.12668969
0.017186237 -0.023595363 -0.007835518 -0.009731922 -0.010798917 -0.06254819 0.10788221 0.00085949537
0.011750447 0.12699302 -0.10480551 0.060334913 -0.019425552 -0.025153026 0.07892232 -0.09938251
0.042185616 0.09234214 0.14749755 0.07510845 -0.07210052 -0.042538162 0.017682355 0.023198046
-0.046599165 -0.0684954 0.07345079 -0.00017371979 -0.017551847 -0.12831447 -0.016089834 -0.10238452
-0.0046480093 0.0054940106 0.10837953 -0.013332922 0.087625146 0.1028383 0.084449925 0.12708408
0.11918794 -0.10367799 0.057065826 0.08298738 -0.069603965 -0.058298174 0.0062224776 0.08145079
-0.017212354 -0.09856984 -0.07347836 0.0018416753 -0.14129193 0.0761413 0.1423732 0.010173267
-0.09207904 0.08271205 -0.12765257 -0.09257212 -0.045704976 0.08871139 -0.01104455 0.03394615
-0.066813864 -0.061575916 -0.012290568 0.08629282 -0.021001248 -0.068565175 -0.0129497005 0.06806685
-0.07767184 -0.11796387 0.055888306 -0.026094373 -0.12387529 0.118355304 -0.08135066 0.014135341
0.09749368 -0.029530618 -0.06627851 0.07907852 -0.002024632 0.10949558 -0.05396757 -0.055215802
0.012054416 0.08948277 -0.07347798 0.011847668 0.056419406 0.090092905 0.05949746 -0.07391008
-0.018504545 -0.018083435 -0.08179488 -0.014735554 0.09282413 -0.17485084 0.018885825 0.07505228
-0.06905981 0.13206081 0.013688443 0.009883987 -0.120952934 0.09833477 -0.06414813 0.044706583
-0.040506635 0.07901151 -0.051226314 -0.00067832053 0.14034171 -0.099549815 -0.0063501108 -0.044166792
0.068840936 0.046092443 0.07347091 0.041921895 -0.050915927 0.090927646 -0.0015061364 0.07123336
0.08069471 0.10858768 0.051482383 0.03192153 -0.082352646 0.01278156 -0.11970161 0.08678864
0.036789395 0.036095805 -0.050253402 0.01952915 0.05260833 0.06258005 0.08433843 0.12489311
-0.11971908 0.07118636 -0.09749916 0.11979681 -0.00061534205 0.066730596 -0.08445021 -0.041622125
0.080572225 0.048528686 0.07757177 -0.06296464 -0.08274425 0.12150262 0.022340486 0.11214506
-0.09409685 0.0004250299 0.066544615 0.10827645 -0.1116482 0.10381786 -0.1149958 0.08903696
0.10229348 0.055803858 -0.13843161 0.075153925 -0.04915298 -0.06319614 0.100350566 -0.01790572
-0.08919842 -0.09516434 -0.12667261 -0.0016078232 0.020664962 -0.014666202 0.009666175 0.05167392
0.12555249 -0.035458762 0.12038213 -0.07807162 -0.07151485 -0.16409953 -0.12384367 0.14129911
0.057410084 0.07022806 -0.006255831 0.10767039 0.040390674 0.08033737 0.06306579 0.021906124
0.0518018 0.13636406 0.11268478 -0.11224057 0.06727616 0.07964872 0.07517096 0.039834015
-0.05192775 0.15902026 0.052414056 -0.08674348 -0.014124295 -0.045362987 0.14514346 0.04476028
-0.07710004 0.09574598 0.07552104 0.100780666 -0.09573103 -0.0793435 0.12429334 0.09775048
-0.06390717 0.121044196 0.069715776 0.064229846 0.0056835175 0.10275033 0.033044685 -0.07183363
0.12181253 0.0038719373 -0.1275034 -0.0726151 0.03870187 -0.008642104 0.09570291 0.0069386954
00000000: c9bd ba3b 5166 9b3c b5e3 d6bd 8590 22bd
00000010: e694 a9bd 43ef 183c 46aa 7ebd 52ff c03d
00000020: e02a dd3d ece8 81bd f343 c33d bcbb b03d
00000030: 7acd 2a3c 7165 e2bd 2784 8dbd f1ba 013e
00000040: 27ca 8c3c 104b c1bc 8b60 00bc a472 1fbc
00000050: f1ed 30bc 4419 80bd 59f1 dc3d c24f 613a
00000060: f284 403c 750a 023e 45a4 d6bd be21 773d
00000070: 5622 9fbc b80d cebc 06a2 a13d 0f89 cbbd
00000080: d3ca 2c3d e01d bd3d 9909 173e 76d2 993d
00000090: 70a9 93bd 7f3c 2ebd 96da 903c d409 be3c
000000a0: c4de 3ebd 5147 8cbd 5e6d 963d 8d28 36b9
000000b0: e4c8 8fbc de64 03be d4ce 83bc faae d1bd
000000c0: 544e 98bb 1a07 b43b 16f6 dd3d 5472 5abc
000000d0: d074 b33d e39c d23d 15f4 ac3d 5422 023e
000000e0: cf18 f43d 2055 d4bd dbbd 693d 4af5 a93d
000000f0: 868c 8ebd 11ca 6ebd ede5 cb3b accf a63d
00000100: ec00 8dbc fcde c9bd d37b 96bd 5e64 f13a
00000110: d5ae 10be f8ef 9b3d 48ca 113e c6ad 263c
00000120: f093 bcbd ef64 a93d 5bb7 02be 7496 bdbd
00000130: 2435 3bbd 51ae b53d 33f4 34bc 1e0b 0b3d
00000140: b5d5 88bd 0737 7cbd 615e 49bc 4aba b03d
00000150: cf0a acbc e66b 8cbd fb2a 54bc a266 8b3d
00000160: 6a12 9fbd 0b97 f1bd 23eb 643d dec3 d5bc
00000170: 54b2 fdbd 4464 f23d 2d9b a6bd eb97 673c
00000180: c4aa c73d 32ea f1bc 07bd 87bd ebf3 a13d
00000190: b0af 04bb 383f e03d 190d 5dbd f729 62bd
000001a0: e37f 453c be42 b73d a07b 96bd b91c 423c
000001b0: 0918 673d a182 b83d 9cb3 733d 2b5e 97bd
000001c0: d896 97bc b623 94bc 1384 a7bd 656d 71bc
000001d0: 941a be3d 190c 33be 72b6 9a3c 03b5 993d
000001e0: 3b6f 8dbd f33a 073e 7e45 603c 72f0 213c
000001f0: 2cb6 f7bd bd63 c93d 1860 83bd 401e 373d
00000200: 49ea 25bd c9d0 a13d afd2 51bd 52d1 31ba
00000210: bdb5 0f3e c6e0 cbbd 9714 d0bb 3de8 34bd
00000220: 7afc 8c3d 6ecb 3c3d eb77 963d 4bb6 2b3d
00000230: 388d 50bd 4638 ba3d 8d69 c5ba cce2 913d
00000240: 4543 a53d 3863 de3d 31df 523d 26c0 023d
00000250: 81a8 a8bd c069 513c 1e26 f5bd 3ebe b13d
00000260: 7ab0 163d 32d9 133d 83d6 4dbd 99fb 9f3c
00000270: d57b 573d f829 803d a0b9 ac3d f5c7 ff3d
00000280: 472f f5bd 28ca 913d a4ad c7bd 0858 f53d
00000290: e84e 21ba 0daa 883d 3bf4 acbd f67b 2abd
000002a0: 0d03 a53d 04c6 463d f3dd 9e3d 9bf3 80bd
000002b0: d175 a9bd 5ed6 f83d 6503 b73c 4fac e53d
000002c0: d9b5 c0bd 8cd6 de39 8b48 883d 0bc0 dd3d
000002d0: d0a7 e4bd 759e d43d eb82 ebbd 0259 b63d
000002e0: 3e7f d13d 9692 643d 04c1 0dbe 4dea 993d
000002f0: a354 49bd fa6c 81bd 9984 cd3d 04af 92bc
00000300: a9ad b6bd 86e5 c2bd 77b6 01be 98bd d2ba
00000310: 9149 a93c 824a 70bc e05e 1e3c 08a8 533d
00000320: d590 003e 353d 11bd e88a f63d 03e4 9fbd
00000330: 6176 92bd b509 28be c0a1 fdbd b7b0 103e
00000340: d626 6b3d bbd3 8f3d b7fd ccbb 4b82 dc3d
00000350: b170 253d eb87 a43d a328 813d 7974 b33c
00000360: 202e 543d 05a3 0b3e 47c7 e63d 62de e5bd
00000370: 15c8 893d de1e a33d 3bf3 993d fe28 233d
00000380: 31b2 54bd 35d6 223e 1fb0 563d 91a6 b1bd
00000390: 9669 67bc 8ace 39bd 7da0 143e 8e56 373d
000003a0: a0e6 9dbd 7816 c43d c6aa 9a3d 1866 ce3d
000003b0: a10e c4bd d87e a2bd 828d fe3d 6731 c83d
000003c0: c3e1 82bd 05e6 f73d 25c7 8e3d f08a 833d
000003d0: cd3c ba3b c46e d23d dd59 073d 831d 93bd
000003e0: d978 f93d 54c0 7d3b 4090 02be 3ab7 94bd
000003f0: da85 1e3d 9d97 0dbc e3ff c33d ff5d e33b

decoder_lstm.bias_ih_l0 f4 [256]
-0.08819608 -0.06615314 -0.112282686 -0.024528308 -0.0721159 0.042225376 -0.029857138 0.039353807
-0.08406193 0.015768023 -0.11529916 0.0285158 -0.038612142 0.10311462 -0.1297177 -0.05667555
-0.04318967 -0.066693075 0.071531765 0.06211329 -0.046238363 0.08108399 -0.11061766 0.0075152973
0.050772473 0.011381203 -0.020621076 -0.0683666 -0.063842505 -0.072003245 -0.023266405 0.1169903
-0.027595896 0.0917894 0.07828756 -0.047023 0.061614882 0.04989506 -0.011076661 -0.011377429
-0.0021346305 0.014210107 0.04333636 -0.094736606 0.0024631682 0.033193696 -0.043952562 -0.032798234
-0.08951459 0.140774 0.029293595 -0.06579751 -0.042924896 -0.11095092 0.08621484 -0.10810007
-0.08690712 -0.013592715 -0.06932075 -0.018174777 -0.012871254 -0.0025312451 0.030614054 -0.080673404
0.03278717 -0.029700074 -0.07071785 -0.108945414 -0.09201709 0.028741617 -0.06777113 -0.08865298
0.10198713 -0.097318344 -0.028533703 -0.06678489 0.05169505 -0.030803228 0.039842207 0.10576425
-0.051619563 -0.021833917 -0.07920148 0.08630101 -0.12650439 -0.03730781 -0.12589514 -0.11497728
0.011520364 0.036761455 0.07532173 -0.0058306656 0.0146465525 -0.07029589 -0.043355633 0.02044112
0.102466516 0.095501415 -0.047972057 0.1040172 0.08787598 0.100705914 -0.08463708 0.0445708
0.12391834 0.0338448 -0.09351054 -0.06858533 0.11774244 0.033765543 0.08137815 0.073754445
-0.0062063592 0.11558221 0.03903915 0.076569594 0.13364185 0.121763766 -0.04728632 0.030142138
-0.021794872 -0.09532111 0.056433655 -0.042098522 0.08453395 0.0723499 0.117770754 0.003397216
0.08340196 0.10113732 0.07037489 -0.017869398 0.08961414 -0.055906236 0.043528225 -0.03635314
-0.050601244 0.048324995 -0.13389587 -0.05972578 -0.0165273 0.014234323 -0.06163694 0.07898084
-0.09698757 -0.11355018 -0.07622089 0.06130592 0.0005988492 -0.028419226 0.00045546435 0.071109116
0.1368319 -0.014320359 -0.10925619 0.13041435 -0.104094006 -0.08152825 0.048064873 0.026145771
0.04076977 0.042870577 0.024599323 0.053713467 -0.005255099 -0.07270441 -0.12972006 0.0138685135
-0.09039575 0.044155445 0.07566287 -0.040409878 -0.039798 0.035832074 -0.0010933417 0.05235196
-0.051567037 0.06795934 0.11442203 0.10658381 -0.10033043 -0.0007087085 -0.0975003 -0.08027205
-0.08866751 0.13648237 -0.051001783 0.060752615 -0.066704586 0.08872453 -0.06277277 -0.091114715
-0.002745544 0.042015377 0.15577146 -0.005819148 0.13998228 0.10834381 -0.106419295 0.1044876
-0.099249855 -0.009051971 0.026830986 0.08281129 -0.053802364 -0.060046684 0.054617304 -0.095757134
0.037922166 0.141088 0.037651632 0.079894945 0.05809651 -0.028102508 -0.104529336 -0.0704672
-0.020147761 -0.028170506 -0.03298674 -0.035413075 0.13910216 -0.069506966 -0.112466335 -0.013891505
-0.055919714 -0.091627166 0.13526852 0.1414415 -0.074444205 0.08282078 0.046744384 0.013503229
-0.016821058 -0.02999312 0.12215173 0.07855846 -0.062357564 0.026237262 -0.0024130028 0.044882033
0.034051042 -0.07169324 0.088683575 -0.07520982 0.07531001 -0.079051554 0.0015740357 0.068701155
-0.10521718 -0.08044401 0.13926569 0.029341988 0.019003918 0.05189379 -0.053786293 -0.09091279
00000000: 25a0 b4bd 4c7b 87bd 77f4 e5bd 97ef c8bc
00000010: 80b1 93bd 84f4 2c3d f596 f4bc 7531 213d
00000020: a928 acbd f12b 813c f721 ecbd f899 e93c
00000030: c427 1ebd c22d d33d b7d4 04be 9f24 68bd
00000040: a7e7 30bd 6196 88bd 3f7f 923d 816a 7e3d
00000050: 7064 3dbd 5d0f a63d 838b e2bd e242 f63b
00000060: ccf6 4f3d 3a78 3a3c 88ed a8bc ca03 8cbd
00000070: dcbf 82bd 7076 93bd 3099 bebc 9c98 ef3d
00000080: ca10 e2bc 15fc bb3d 3a55 a03d 309b 40bd
00000090: e35f 7c3d c35e 4c3d e27a 35bc 6568 3abc
000000a0: 28e5 0bbb 82d1 683c 7881 313d 4405 c2bd
000000b0: 1b6d 213b 1df6 073d 9a07 34bd 7157 06bd
000000c0: 6d53 b7bd 0f27 103e 1ff9 ef3c d8c0 86bd
000000d0: 04d2 2fbd 3c3a e3bd 6891 b03d 9263 ddbd
000000e0: 5cfc b1bd fbb3 5ebc 0af8 8dbd 45e3 94bc
000000f0: f4e1 52bc 3fe3 25bb 53ca fa3c 1938 a5bd
00000100: d74b 063d 924d f3bc 85d4 90bd c61e dfbd
00000110: 7573 bcbd 8a73 eb3c 97cb 8abd b28f b5bd
00000120: a1de d03d d74e c7bd 83bf e9bc 84c6 88bd
00000130: 30be 533d 0d57 fcbc 9531 233d ed9a d83d
00000140: 096f 53bd 0bdd b2bc 6334 a2bd 95be b03d
00000150: 5e8a 01be 13d0 18bd a8ea 00be 3579 ebbd
00000160: e9bf 3c3c 2e93 163d 4742 9a3d 2b0f bfbb
00000170: 18f8 6f3c 4bf7 8fbd ad95 31bd 2374 a73c
00000180: f7d9 d13d 3f96 c33d 597e 44bd f806 d53d
00000190: 52f8 b33d e73e ce3d 3556 adbd df8f 363d
000001a0: e6c8 fd3d d8a0 0a3d 7482 bfbd 7776 8cbd
000001b0: f322 f13d bd4d 0a3d 96a9 a63d 920c 973d
000001c0: b75e cbbb 5eb6 ec3d 84e7 1f3d 85d0 9c3d
000001d0: 69d9 083e 485f f93d 4daf 41bd a5ec f63c
000001e0: 298b b2bc b737 c3bd fa26 673d 806f 2cbd
000001f0: 2320 ad3d 2f2c 943d cb31 f13d d4a3 5e3b
00000200: a6ce aa3d 1521 cf3d b620 903d d862 92bc
00000210: 9e87 b73d f0fd 64bd a74a 323d 08e7 14bd
00000220: 4043 4fbd 6ef0 453d 001c 09be 05a3 74bd
00000230: 4364 87bc 1437 693c 0477 7cbd b5c0 a13d
00000240: 6ba1 c6bd ff8c e8bd b319 9cbd eb1b 7b3d
00000250: 17fc 1c3a 70cf e8bc 64cb ee39 a8a1 913d
00000260: a91d 0c3e f09f 6abc b6c1 dfbd 578b 053e
00000270: 3d2f d5bd 48f8 a6bd acdf 443d a82f d63c
00000280: 34fe 263d 0f99 2f3d 8584 c93c a702 5c3d
00000290: f732 acbb 0de6 94bd 56d5 04be c338 633c
000002a0: 6821 b9bd 57dc 343d 23f5 9a3d d484 25bd
000002b0: 3a03 23bd a7c4 123d 764e 8fba 026f 563d
000002c0: f537 53bd 442e 8b3d 1956 ea3d 9d48 da3d
000002d0: 0a7a cdbd 9fc8 39ba 3dae c7bd ac65 a4bd
000002e0: 5097 b5bd 09c2 0b3e 3fe7 50bd bcd7 783d
000002f0: 6a9c 88bd 35b5 b53d 038f 80bd 5a9a babd
00000300: 96ee 33bb 5118 2c3d 8e82 1f3e 8dae bebb
00000310: 8457 0f3e 5ce3 dd3d 5cf2 d9bd 98fd d53d
00000320: 8243 cbbd b84e 14bc a8cc db3c f798 a93d
00000330: de5f 5cbd 83f3 75bd 65b6 5f3d 511c c4bd
00000340: 4654 1b3d 5f79 103e 9938 1a3d f69f a33d
00000350: 9bf6 6d3d 3b37 e6bc 7a13 d6bd 1b51 90bd
00000360: eb0c a5bc d5c5 e6bc 1b1d 07bd 4d0d 11bd
00000370: cc70 0e3e ab59 8ebd c054 e6bd 3299 63bc
00000380: 120c 65bd 06a7 bbbd d583 0a3e 0ad6 103e
00000390: 3476 98bd f19d a93d 0a77 3f3d a63c 5d3c
000003a0: 51cc 89bc 22b4 f5bc b02a fa3d 42e3 a03d
000003b0: a56a 7fbd 87ef d63c 7823 1ebb 39d6 373d
000003c0: 1b79 0b3d e8d3 92bd bc9f b53d 9b07 9abd
000003d0: 223c 9a3d c8e5 a1bd e04f ce3a 31b3 8c3d
000003e0: 1b7c d7bd d4bf a4bd aa9b 0e3e 9c5e f03c
000003f0: 1bae 9b3c 958e 543d 044f 5cbd 7c30 babd

decoder_lstm.bias_hh_l0 f4 [256]
-0.06416489 0.13953851 -0.11734957 -0.13467285 -0.08002096 0.08340973 -0.041392393 0.053084332
-0.10285027 0.11105544 0.110774286 0.026269378 0.015199076 0.08355405 -0.10900428 -0.028708927
-0.06390548 0.011314429 -0.056326315 -0.08549449 -0.10592542 -0.06704346 0.036033228 -0.13242681
0.04219722 -0.0035980532 0.052253433 -0.050769243 -0.03876667 -0.10010548 0.012309995 -0.072365806
-0.029637847 0.048000954 0.10850896 -0.00408896 0.14441729 0.026252823 0.13517013 -0.04407268
0.05857014 -0.10477973 0.12468303 -0.04738225 -0.095080085 -0.046100985 -0.07752689 0.0679003
-0.094209634 -0.054511916 -0.058597397 0.035261974 -0.13526171 0.011562814 0.014216239 -0.021779003
-0.12821959 -0.02870557 -0.11220112 -0.06697345 0.0099714855 -0.018682465 -0.042944532 0.10918366
0.08888516 -0.08487236 -0.029807895 -0.003958307 -0.047485117 0.139611 0.09696684 0.0675223
-0.06823356 -0.03607252 0.12188798 0.035822615 0.03502405 0.06474015 0.008757879 0.031568527
0.067954585 0.010535471 0.088167034 -0.0545602 -0.089927964 0.05921078 0.052400775 -0.06146077
0.05439437 -0.052180387 0.051250607 0.044434592 0.022461202 0.021014176 0.09150999 -0.064755395
-0.09606592 -0.08538463 0.1120655 -0.06378696 0.023446899 -0.055734158 0.040235724 -0.039433755
0.13477717 -0.026250053 0.035364497 -0.036721498 0.011518435 0.0369986 -0.053469468 0.08413969
0.05714991 0.009393602 -0.01628186 0.10837858 0.030082919 -0.008991833 -0.07504428 -0.024608696
0.08171474 0.08049656 0.10994828 -0.023518227 -0.10194176 -0.11930526 -0.09277957 -0.08951439
-0.0017583653 0.030055434 -0.011364627 0.06569309 -0.04707587 -0.002372976 -0.012064872 -0.07923371
-0.029886138 0.06175557 -0.11200747 0.0016645308 -0.09793847 -0.046897523 0.08722429 -0.0038343177
0.094817616 0.079669826 0.0532751 -0.09040427 -0.1702916 -0.043498855 0.055573385 0.0006257708
0.13467307 0.108248904 -0.12748118 0.16549987 0.03660847 0.05450135 0.10718804 -0.12720078
-0.021044046 -0.10243391 0.06854127 -0.038258273 0.06740217 -0.03492135 0.05514055 0.06789574
-0.007851715 0.050759 0.14297977 -0.11204048 0.057787657 0.047468137 0.023858469 -0.07402522
-0.045128066 0.045568507 0.00017931875 0.030660186 -0.10578096 0.08433724 0.08169616 -0.11623354
0.10175164 0.034043085 0.061719876 0.053110823 -0.04060458 -0.10422311 -0.0084691765 0.04762225
0.06945149 0.0146996 0.09704558 0.070204966 -0.037217785 0.12273185 -0.11497857 0.09853253
0.0710327 -0.05522634 -0.085094035 -0.023244534 0.07282501 -0.047573853 0.057765298 0.0073389322
0.0072504035 0.07701857 0.0028362158 -0.017064689 0.1109359 0.14273897 -0.08319187 -0.10015874
0.11587703 -0.11848123 0.034672316 -0.0019274765 -0.026751036 0.09535519 -0.070482716 0.12497518
0.1029921 -0.037230242 0.10714423 0.0077727037 -0.047510732 -0.02394128 0.096172415 -0.057721168
0.05293772 0.030449018 0.11265418 -0.11778755 0.13166614 -0.060367905 0.04948029 0.056678668
-0.026517546 -0.042330835 0.06825942 -0.05618209 0.009174785 0.111842066 0.074942775 0.07524679
-0.059554342 -0.015902856 -0.077555075 -0.080297485 -0.14331312 0.13622464 -0.09084378 0.0006089182
00000000: e268 83bd 2fe3 0e3e f954 f0bd aee7 09be
00000010: 07e2 a3bd b8d2 aa3d 128b 29bd f56e 593d
00000020: 2aa3 d2bd 0971 e33d a1dd e23d e132 d73c
00000030: 8c05 793c 631e ab3d a33d dfbd fc2e ebbc
00000040: e0e0 82bd 2860 393c 6cb6 66bd bc17 afbd
00000050: 6def d8bd 154e 89bd 9497 133d e59a 07be
00000060: fed6 2c3d 51cd 6bbb b207 563d 69f3 4fbd
00000070: cdc9 1ebd 1a04 cdbd dcaf 493c 8634 94bd
00000080: 12cb f2bc a69c 443d f239 de3d affc 85bb
00000090: 20e2 133e 2910 d73c 0a6a 0a3e 8e85 34bd
000000a0: 3ee7 6f3d c196 d6bd d159 ff3d e413 42bd
000000b0: 59b9 c2bd 63d4 3cbd 6bc6 9ebd 500f 8b3d
000000c0: fbf0 c0bd e347 5fbd d303 70bd dc6e 103d
000000d0: 0c82 0abe f571 3d3c 3aeb 683c e169 b2bc
000000e0: ff4b 03be f227 ebbc b3c9 e5bd 6029 89bd
000000f0: 715f 233c f80b 99bc 9be6 2fbd af9b df3d
00000100: 6c09 b63d 8fd1 adbd b02f f4bc b0b4 81bb
00000110: c17f 42bd 30f6 0e3e 8d96 c63d 2249 8a3d
00000120: 09be 8bbd c7c0 13bd 68a0 f93d bcba 123d
00000130: 6175 0f3d 7c96 843d 357d 0f3c 004e 013d
00000140: c62b 8b3d f89c 2c3c eb90 b43d 847a 5fbd
00000150: 272c b8bd 0187 723d 32a2 563d 4abe 7bbd
00000160: a2cc 5e3d 1abb 55bd 28ec 513d 0c01 363d
00000170: 8e00 b83c ec25 ac3c 9769 bb3d 7a9e 84bd
00000180: 36be c4bd 23de aebd 9982 e53d bda2 82bd
00000190: b613 c03c 8049 64bd 37ce 243d 4a85 21bd
000001a0: 0703 0a3e 5a0a d7bc 5dda 103d 4869 16bd
000001b0: d1b7 3c3c d88b 173d cd02 5bbd 6e51 ac3d
000001c0: 0616 6a3d 9fe7 193c 8961 85bc 97f5 dd3d
000001d0: 7470 f63c 7b52 13bc d1b0 99bd 2d98 c9bc
000001e0: 0f5a a73d 61db a43d 902c e13d 4ca9 c0bc
000001f0: d7c6 d0bd 5156 f4bd 3703 bebd 5253 b7bd
00000200: f378 e6ba d036 f63c b332 3abc 198a 863d
00000210: a1d2 40bd ee83 1bbb beab 45bc 4945 a2bd
00000220: c6d3 f4bc 69f3 7c3d 2c64 e5bd 632c da3a
00000230: f793 c8bd 9e17 40bd a6a2 b23d 2d49 7bbb
00000240: bd2f c23d ef29 a33d fe36 5a3d e025 b9bd
00000250: ec60 2ebe db2b 32bd eba0 633d c40a 243a
00000260: bde7 093e 9ab1 dd3d 6d8a 02be cc78 293e
00000270: c3f2 153d cf3c 5f3d 6785 db3d ec40 02be
00000280: 9064 acbc dfc8 d1bd 5e5f 8c3d b5b4 1cbd
00000290: 260a 8a3d b109 0fbd 0fdb 613d ec0c 8b3d
000002a0: 7ba4 00bc abe8 4f3d 4a69 123e 7b75 e5bd
000002b0: c0b2 6c3d f36d 423d d672 c33c 899a 97bd
000002c0: 35d8 38bd 0ba6 3a3d 8307 3c39 122b fb3c
000002d0: b0a3 d8bd 01b9 ac3d 5150 a73d da0b eebd
000002e0: 2a63 d03d c370 0b3d fbcd 7c3d bc8a 593d
000002f0: fd50 26bd ed72 d5bd 4dc2 0abc 8c0f 433d
00000300: 953c 8e3d 97d6 703c d5bf c63d 9fc7 8f3d
00000310: ad71 18bd d65a fb3d e279 ebbd 6ccb c93d
00000320: 9879 913d 0435 62bd c845 aebd 526b bebc
00000330: 4725 953d cddc 42bd 4e9b 6c3d 6d7b f03b
00000340: cb94 ed3b e9bb 9d3d cedf 393b 3fcb 8bbc
00000350: 5c32 e33d 2a2a 123e 8060 aabd 0720 cdbd
00000360: f050 ed3d 4aa6 f2bd 8f04 0e3d 61a3 fcba
00000370: fd24 dbbc 9549 c33d 3e59 90bd fdf2 ff3d
00000380: 86ed d23d bd7e 18bd 6f6e db3d 2ab2 fe3b
00000390: 9d9a 42bd 8120 c4bc 0bf6 c43d 086d 6cbd
000003a0: 39d5 583d 3870 f93c 3cb7 e63d 993a f1bd
000003b0: 7dd3 063e 5644 77bd d8ab 4a3d e427 683d
000003c0: 533b d9bc 1963 2dbd 98cb 8b3d 311f 66bd
000003d0: d651 163c 740d e53d 997b 993d fd1a 9a3d
000003e0: 41ef 73bd b546 82bc 32d5 9ebd 0273 a4bd
000003f0: adc0 12be 797e 0b3e 4e0c babd cf9f 1f3a

output_layer.weight f4 [2, 64]
-0.0065165237 -0.21820314 -0.2442396 -0.02579152 0.14252995 -0.14493668 -0.10104465 0.14205875
-0.20125934 -0.06484946 0.20643556 0.15609376 -0.20370336 0.11416225 0.16651791 0.18339135
0.21922065 -0.062729485 -0.046720177 -0.2024152 0.028376495 -0.10914929 0.1632594 -0.04492412
-0.23332325 -0.10153923 0.1558718 -0.013122345 0.16217265 0.18666677 -0.111235194 0.14691822
-0.16949868 0.13869895 0.16103631 -0.19114335 0.10070953 0.07936557 -0.047872387 0.19909847
0.09572312 0.036671095 -0.07721311 0.16792905 -0.049333267 -0.12739031 -0.2069543 0.14156383
-0.18424906 0.12729752 -0.11581316 0.13518064 -0.16022258 0.11615578 0.080392934 0.18502754
-0.12737522 -0.12812069 -0.15041709 -0.053426117 0.016834872 -0.17241797 0.18703032 -0.16670436
0.082375005 0.10775501 0.0152066285 -0.083301954 -0.12609501 0.1322408 0.02043134 -0.016308995
0.14499557 -0.048537128 -0.01724129 -0.07184932 0.15150318 0.13688838 0.024593767 -0.023535285
-0.063329026 0.045377545 0.14487725 -0.06074784 -0.09148748 0.071794935 -0.094252355 0.06129648
0.07025071 -0.035389736 -0.10445518 0.041536465 -0.07347884 0.07891115 -0.093944326 -0.027636245
0.15099645 -0.017621383 -0.038973995 -0.003996109 -0.012623722 0.08539153 -0.1270152 -0.071434714
0.0818083 0.05460477 0.06916151 -0.13045228 0.111209035 0.0009934106 -0.0127111375 -0.10945239
0.1302381 -0.037769206 0.02004462 -0.11202784 -0.016608918 -0.088449515 0.15096945 -0.018659439
-0.07590121 0.13083643 0.08873055 0.07215476 0.084632635 0.033816647 -0.03422443 0.029640568
00000000: 9088 d5bb a570 5fbe f219 7abe bd48 d3bc
00000010: 5ff3 113e 486a 14be 7ff0 cebd d977 113e
00000020: ee16 4ebe cbcf 84bd d863 533e 0bd7 1f3e
00000030: 9d97 50be e6cd e93d ac83 2a3e f1ca 3b3e
00000040: 617b 603e 5178 80bd a85d 3fbd ee45 4fbe
00000050: d375 e83c aa89 dfbd 792d 273e 5b02 38bd
00000060: 4aec 6ebe cdf3 cfbd db9c 1f3e 1bff 56bc
00000070: 9610 263e 9325 3f3e 47cf e3bd bb71 163e
00000080: 1091 2dbe 1907 0e3e b4e6 243e 15bb 43be
00000090: cc40 ce3d 6a8a a23d d615 44bd 78e0 4b3e
000000a0: 7c0a c43d 6e34 163d e821 9ebd 98f5 2b3e
000000b0: ae11 4abd 9b72 02be d4eb 53be 1cf6 103e
000000c0: c9ab 3cbe 485a 023e 732f edbd cb6c 0a3e
000000d0: 6311 24be 15e3 ed3d 0da5 a43d dc77 3d3e
000000e0: a66e 02be 1232 03be f006 1abe 58d5 5abd
000000f0: 49e9 893c 568e 30be e084 3f3e 8cb4 2abe
00000100: 3ab4 a83d a9ae dc3d 3925 793c 379a aabd
00000110: 0d1f 01be 226a 073e a05f a73c 719a 85bc
00000120: b879 143e dece 46bd 9b3d 8dbc bc25 93bd
00000130: a623 1b3e 782c 0c3e de78 c93c 12cd c0bc
00000140: a6b2 81bd cedd 393d b45a 143e bad2 78bd
00000150: ca5d bbbd 3909 933d 6107 c1bd 0512 7b3d
00000160: 9bdf 8f3d d4f4 10bd 99ec d5bd 2422 2a3d
00000170: 137c 96bd 2b9c a13d e265 c0bd 6865 e2bc
00000180: d09e 1a3e b85a 90bc 32a3 1fbd cbf1 82bb
00000190: bad3 4ebc c1e1 ae3d 4610 02be 5d4c 92bd
000001a0: 1c8b a73d 40a9 5f3d 8da4 8d3d 4895 05be
000001b0: 90c1 e33d 5435 823a 6042 50bc 9328 e0bd
000001c0: 235d 053e e2b3 1abd 9d34 a43c da6e e5bd
000001d0: 6d0f 88bc 0525 b5bd bc97 1a3e aedb 98bc
000001e0: 1872 9bbd fcf9 053e 5db8 b53d e0c5 933d
000001f0: e053 ad3d 5383 0a3d ea2e 0cbd c7d0 f23c

output_layer.bias f4 [2]
0.04859294 -0.07507402
00000000: 6409 473d 68c0 99bd
