model_training/ball_motion_model.pth (torch, 138201 bytes, 7 tensors)

encoder.0.weight f4 [64, 3]
00000000: 2525 a0be 433a aabe b03b 8abd aa6e b13e
00000010: 24b9 a63e 71fe da3e 1ee0 df3e dfbf 063f
00000020: 0c81 de3e 133f 8c3e 239d 0e3e 2841 bc3e
00000030: 7fda debe 8ed2 b93e 7872 a03e 8398 88be
00000040: 50e5 f53e 560a ec3c 95c3 d03d 78db e93e
00000050: e433 87be 4012 8b3c d2a8 1cbe 180f ccbe
00000060: 06bd a83e d8c9 24be 6d75 0fbf 1e0e c73e
00000070: e7b2 9fbe 4cd4 0b3e b43a b9be a442 58be
00000080: 7216 9d3e 330e aebe 53c3 c53e 554b 823c
00000090: 4082 34bc e2e3 dcbe a01b 65be 9b37 efbe
000000a0: 3bb0 113f 4b81 c23e be08 0dbf 4c43 efbe
000000b0: 4b24 ffbe 22d0 1abe b44c b0be 518d 9abe
000000c0: 20a1 9ebe 2fe6 ec3e 6777 aebe b3a3 a8be
000000d0: 0c05 f7be c0f3 4cbe 0425 ed3e ce8b 76be
000000e0: 7f97 0ebf c027 fbbd 50c3 03bf 80d2 57bc
000000f0: c330 c0be 69fe 953e 5435 8db9 c020 ddbc
00000100: 2e12 dabe 7b2a 80be ba9d babe cd4d a03d
00000110: 04ba a23e 941d 2c3e 7a87 133e 5833 d9be
00000120: 15db c83d 235b cc3e 37eb 083c d8ff 223e
00000130: 3cf7 b2bd 2244 95be 2024 93bd 687d e6be
00000140: e9b6 0ebf 9059 cc3d e861 e0bd e0ad 173e
00000150: 0037 c83e 803d 92be 22d3 043f f51b 33be
00000160: 58f6 dd3e 3ab1 aebe 8e1b 973e d575 b8bc
00000170: b685 9bbe 21d4 e53e 4e07 ff3e 9b3c 2b3d
00000180: b3d2 89be 8714 3b3e 2c5c 743c fc6a 013f
00000190: 0474 16be d1e3 20be ef52 073f d8f5 a53e
000001a0: 8698 d7be 2188 0e3f 336d e43d 7179 b43e
000001b0: 71a0 a7bd 63b2 e73d eeb4 8abd f984 f03e
000001c0: 628f 1d3e d62c 2f3e 27c0 e83e b2a1 0a3f
000001d0: 679b 87be 82bb 28be 387d d0be bca4 10be
000001e0: 5809 eb3e a4b3 cdbe 8ebb 05be 16dc e03e
000001f0: 55d1 063f aa11 09bf 3997 9cbc c01d 613e
00000200: 8ece 493c e8f7 a03e 72d8 45be 88c5 873e
00000210: 0a40 893e 1c04 663e 8c1c 1d3f bdba b3bd
00000220: e37e 0d3f c423 ff3d 9004 303e a96e 87be
00000230: e0d4 023e 800b 00bf 46a0 aabe 34e4 e0be
00000240: d2e9 59be 95d0 063e a3c6 493d b75c 853e
00000250: adb2 7a3e 2820 fe3e 5d65 b83d 72f7 013f
00000260: b42e c0be a0d6 3abd 8064 c3be a4e2 cf3e
00000270: d616 873e f91c b9be bcf0 b93e 06f1 d73e
00000280: 5fd5 a83e 364a 1bbe c09e 9a3c 1835 73be
00000290: a0ab e7bd 9052 5c3e 51db 00bf 4540 83be
000002a0: 1b28 babe 27c7 a8be e00c bdbc 4f09 d9be
000002b0: e39e c73e a3e1 08be 45a8 5b3e a258 033f
000002c0: 5f09 dabe ac7e 913e cc93 dabe d056 41be
000002d0: 2733 f33d 2cf1 b0bc 61e6 a83e 4d1d e73e
000002e0: 6b4e b7bd 9649 ebbe 0e23 913d f1b9 6e3e
000002f0: 556b 57be 9449 e03d 570f 933e cb04 e0be
-0.3127834 -0.33247575 -0.06749666 0.34654742 0.32563126 0.42772248 0.43725675 0.5263652
0.4345783 0.27391872 0.1392713 0.3676846 -0.43526074 0.36293453 0.31337333 -0.26678857
0.48026514 0.028813522 0.10193554 0.45675254 -0.26406777 0.016976476 -0.15298775 -0.39855266
0.32956713 -0.16092622 -0.5603855 0.38877958 -0.3119118 0.13655204 -0.361776 -0.21119171
0.30681187 -0.33995208 0.38625583 0.015905062 -0.011017382 -0.4314261 -0.2237382 -0.4672211
0.5690953 0.37989268 -0.55091465 -0.4673103 -0.49832377 -0.15118459 -0.3443352 -0.3018594
-0.30982304 0.46269366 -0.34075472 -0.32937393 -0.48246038 -0.20014858 0.46317303 -0.24076769
-0.55699915 -0.12263441 -0.514699 -0.013172746 -0.37537202 0.29295662 -0.00026933348 -0.026993155
-0.42591995 -0.2503241 -0.3644846 0.07827339 0.31782544 0.16808158 0.14407149 -0.42421985
0.098074116 0.39913282 0.008356861 0.15917909 -0.087385625 -0.29153544 -0.07184625 -0.45017552
-0.5574785 0.0997802 -0.10956174 0.14812422 0.39104462 -0.28562546 0.51884663 -0.17491134
0.43352008 -0.34119588 0.2951321 -0.022517124 -0.3037545 0.44888404 0.4981026 0.041805845
-0.26918563 0.1826955 0.014914554 0.5055387 -0.14692694 -0.15711905 0.5286092 0.32414126
-0.42108554 0.55676466 0.111536406 0.35248902 -0.08184899 0.113133214 -0.06772791 0.4697645
0.15386727 0.17106947 0.454591 0.5415298 -0.2648575 -0.16477779 -0.40720534 -0.14125341
0.45905566 -0.40176117 -0.13059828 0.43917912 0.52663165 -0.5354258 -0.019115077 0.21984005
0.012317313 0.31439137 -0.19320849 0.26517892 0.2680667 0.22462505 0.61371684 -0.08775852
0.5527174 0.124579936 0.1718924 -0.26451614 0.12776518 -0.5001755 -0.33325404 -0.43924105
-0.21280602 0.13165505 0.0492617 0.26047298 0.24482222 0.49633908 0.090037085 0.50768197
-0.37535632 -0.04561484 -0.38162613 0.406026 0.2638461 -0.36154917 0.36316478 0.42176074
0.3297529 -0.15165028 0.018874526 -0.23750722 -0.11312032 0.2151587 -0.5033465 -0.2563497
-0.36358723 -0.3296444 -0.023077428 -0.42389914 0.38988408 -0.13367324 0.21450908 0.5130712
-0.42585275 0.28416955 -0.42690885 -0.18880773 0.11874991 -0.021599375 0.32988265 0.45139542
-0.08950504 -0.4595458 0.07086764 0.23313119 -0.21037038 0.10951534 0.2872264 -0.43753657

encoder.0.bias f4 [64]
00000000: 6bb1 81be 8413 90be 9ea4 0abf 7ab8 36bc
00000010: d5c6 acbe 4ab4 98be 1968 733c b2ce 64be
00000020: 70ca 813d 7895 bfbe 288c 513e a106 013e
00000030: 98d8 8f3e 4e7e b53e a8e3 de3d 9084 55bd
00000040: 9cd4 033b 60e0 a2bd 848e e0bd 3c6a 863e
00000050: 82d4 803e b8c3 983e 4710 b23e c23e f73c
00000060: 3c74 023f e41e c0be 9749 a0be d168 d8be
00000070: bc35 eabe da41 e2be 6dfc 203e e87c d83e
00000080: a72a ccbe b9d5 ef3e 968b cf3e b92d e83e
00000090: 0adf d2be 8459 b9be 9915 4d3e 2a8d d03e
000000a0: 2003 75bd 22db 7e3e 4578 e33e fe18 64be
000000b0: 8d4f c13d 2fea 72be 545b e33e e617 d53e
000000c0: 9955 993e c2c7 4abe 610f 4cbe f474 6dbe
000000d0: e602 23be 49ea edbd 5c56 453e f033 833e
000000e0: c0a7 293c 6a2b bb3e 589c abbe c04c 713e
000000f0: ad4c 0dbf 51af 05bf fa2e 0f3f be73 e9be
-0.25330672 -0.2813989 -0.54157436 -0.011152381 -0.33745447 -0.2982505 0.014856362 -0.22344473
0.0633744 -0.37418723 0.20463622 0.12600185 0.28094935 0.35447925 0.10883266 -0.052128375
0.0020115739 -0.079529524 -0.10964683 0.26252925 0.2516213 0.29836822 0.34778044 0.030181292
0.5095861 -0.37523568 -0.31306145 -0.4226747 -0.4574412 -0.44190866 0.15721293 0.42282796
-0.3987629 0.46842745 0.40536183 0.45347384 -0.4118579 -0.36201108 0.2002777 0.407327
-0.059817433 0.2488828 0.44427696 -0.22275159 0.09439001 -0.23722146 0.44405615 0.41619796
0.29948118 -0.19802764 -0.19927742 -0.23189145 -0.15919074 -0.11616952 0.19271225 0.25625563
0.010354936 0.3655656 -0.33517718 0.23564434 -0.5519512 -0.52220637 0.55931056 -0.45596117

decoder_lstm.weight_ih_l0 f4 [256, 64]
00000000: e8c6 abbd 98ea acbd fc32 e0bd 743e aa3d
00000010: 936e 62bc 2827 a73d ac32 60bd c8e0 8e3d
00000020: 108f 6b3d bc0f 2dbd 282d b1bd c334 673c
00000030: 8023 243c ff5a 8cbd 6e7d a7bd bcf0 ce3d
00000040: 5582 09bd 5c4d 8bbd 20ba a03d b04d e43c
00000050: f9dd b8bd c012 72bb b10c 6f3d 04d0 d83b
00000060: b47c 6dbd 18ea 95bd fc6f 36bd c0e9 df3c
00000070: 86f9 b93d 2f1c 07bd 35c2 a13b e1e7 c03d
00000080: a4f1 c9bd 5095 61bd 192f 883d 3fc7 32bc
00000090: 297d 1cbd f40b dbbd 3f9c bebd 7a94 fdbd
000000a0: f272 ca3d 2017 f43d debe 93bc 00eb ca3d
000000b0: 2426 103d 1754 1abc bea0 fdbd 3064 803c
000000c0: 4a90 b03d f2fa bb3d b119 8dbd 9c85 bb3d
000000d0: 0874 72bd 4b8f 053c 4012 313d 0eb1 a5bd
000000e0: bc43 34bd 2108 583b b363 803c 185f a33d
000000f0: 0b7e b0bd 94ac af3a 67ff f8bc be1f 64bd
00000100: 244b 09bd c707 a83d cf9d cfbd 3491 26bd
00000110: b21a 953d c1d7 b13d f104 85bc e26b c6bd
00000120: 9eae c23d 60c7 9cbd 98ea 08bd 96d6 32bd
00000130: 125d 813d 7ec1 63ba 1e53 c53d 08b6 793d
00000140: f0af 3d3c 7c63 e73d d679 933d 0c80 8a3d
00000150: 95a0 fd3d 08ed e43d 9194 12bd a1eb e2bd
00000160: 907f a13d 80a3 99bd 045e f5bd 4a41 ee3d
00000170: 847c d6bd 5264 cfbd 9118 9e3c 28a0 1dbd
00000180: ed39 3b3d 14ce 81bd 3f12 b83d 1536 5e3c
00000190: 50ad 24bc 9423 e2bd 7aca 603b 4472 85bd
000001a0: e03b a63b ff0a a1bd 823e 9a3d 2602 fd3d
000001b0: 6a91 15bd 0c0e 683d 3cd7 273d c09a acbc
000001c0: d3ea f93d 45d7 10bc fe42 a0bd eed8 b6bd
000001d0: bc67 4e3d e208 f23d 1c8e 093d 9cd7 7abd
000001e0: f4b7 11bd 5849 b9bb 01aa b9bd 70a4 84bd
000001f0: 9367 9ebd 30a6 7e3d 5059 91bd 0a5e f73c
00000200: c41b fdbd a434 f4bd 823c 983d 89cc 7b3d
00000210: cd92 b1bd f913 db3d 4eda dd3d a631 993d
00000220: ba96 bfbd f21f b73d 208f 663c 7e99 da3c
00000230: e43b 51bd 0e83 243d d040 40bc 4819 e7bc
00000240: daf3 eebd 3c71 6ebd 74f6 43bd 9837 f13c
00000250: f94e 8d3c 4853 8e3d f0a9 8c3d 086a b13d
00000260: b46e da3d f24a dbbd f00e 90bc 74a3 21bd
00000270: 0059 9abc 1161 d83d b3e8 20be ce85 b53d
00000280: 74f5 1cbd f48a 3fbc 2016 e3bd f3a5 adbd
00000290: 862f dbbd 9e13 013d 8566 05bc 56d4 8f3d
000002a0: a8f6 0d3d a22d 473d 003a 7f3d 0c57 f73d
000002b0: 0edc af3a e680 ac3c 00f0 0a3d c8f9 4fbd
000002c0: f235 f33d 5494 83bd 017d 2b3b 107e dc3d
000002d0: 5034 3e3c f7c1 d9bc f240 b8bd e637 e93d
000002e0: 90a2 fe3c 0cb8 cc3d 2ae0 203d f20a 8f3d
000002f0: f80d 37bd 3b88 1a3d 4894 f1bd fcfb cbbd
00000300: fc88 41bd e4cc 03bd f67d 90bd a0c2 14bd
00000310: 726d a7bd dff8 853d 765b 93bd 784f 7f3d
00000320: 6299 fdbd 58d4 83bd 283b 7e3d 95c9 0cbb
00000330: bc7e f5bd 7720 183e b80a ff3c 44a6 033d
00000340: 49d1 333d 60b5 793d a0ad 063d e013 ac3b
00000350: 097a dc3d aa9d cd3d a434 39bd d79b 083e
00000360: 3e0d a3bd 88b6 d5bd 4015 cd3c a4bc ed3d
00000370: a0cd b2bb 7c38 14bd aa23 e0bb d5d5 9abd
00000380: d3ce 9ebd c647 babd 8768 5cbb 99a0 103e
00000390: 974f b93d c82f 933d ff97 0c3e b04d d5bd
000003a0: 002d 2d3c 0f9d ca3c 065f 7abd ec78 4f3d
000003b0: 8b0e 68bc 3580 a0bd 4800 8bbc eab6 c3bd
000003c0: cf0d 873d eded bbbd 045b f13d dc28 0ebd
000003d0: 900f 46bd 59b8 c5bc b6f2 d73d c0c0 a2bc
000003e0: 24f9 413d ce9b 9fbd e5f0 97bd fc63 49bd
000003f0: fd65 c23b a8eb 943d b1ac e93d cfa9 8a3d
-0.08387548 -0.08443183 -0.109472245 0.08312693 -0.013820308 0.08161765 -0.054735824 0.06976467
0.057509482 -0.042251334 -0.08651191 0.0141117005 0.0100182295 -0.06853294 -0.08178221 0.1010451
-0.03357156 -0.068018645 0.078480005 0.027869076 -0.09026713 -0.0036937445 0.058361713 0.0066165943
-0.057980254 -0.073200405 -0.04454039 0.02733314 0.09080796 -0.032985862 0.0049364814 0.094192274
-0.098605424 -0.055074036 0.06649608 -0.010911762 -0.0382053 -0.10695639 -0.09307145 -0.12381835
0.09885205 0.11918473 -0.018035349 0.09908104 0.035192624 -0.009419463 -0.12384175 0.015672773
0.08621271 0.091787234 -0.06889666 0.09156343 -0.059192687 0.0081518395 0.043230295 -0.08090411
-0.04400991 0.003296383 0.01567254 0.07977122 -0.08617791 0.0013402873 -0.030395223 -0.055694334
-0.033518925 0.082046084 -0.101375215 -0.04066582 0.07280482 0.0868373 -0.016237708 -0.09688546
0.09505962 -0.07655215 -0.03342685 -0.043661676 0.0631658 -0.00086881954 0.09634994 0.060964614
0.011577591 0.11298272 0.07200973 0.06762704 0.12384144 0.111780226 -0.035786215 -0.11080099
0.07885659 -0.07501888 -0.11980823 0.11633547 -0.10472968 -0.101265565 0.019298824 -0.038482815
0.04570954 -0.063381344 0.08987855 0.013562699 -0.010051087 -0.11041942 0.0034300373 -0.06515935
0.0050730556 -0.078634255 0.07531454 0.123539254 -0.03651563 0.05665402 0.040976748 -0.021069884
0.12202992 -0.008840387 -0.07825278 -0.08928095 0.050391898 0.118181005 0.03358279 -0.061240777
-0.035575822 -0.005654495 -0.09065629 -0.064766765 -0.07734599 0.062170208 -0.07097113 0.030196209
-0.123588115 -0.11924103 0.07433416 0.061474357 -0.08670578 0.10697169 0.10832654 0.07480173
-0.09354921 0.0894164 0.01407221 0.026684519 -0.051082507 0.040164046 -0.0117342025 -0.028210297
-0.11667605 -0.058213457 -0.047842458 0.029445454 0.017249571 0.069494784 0.068683505 0.08662802
0.10665646 -0.10707654 -0.017585248 -0.03946252 -0.018841267 0.10565389 -0.15713768 0.08863412
-0.03832002 -0.011690844 -0.110882044 -0.08478918 -0.10702424 0.03151285 -0.008142118 0.07022922
0.034659058 0.048627503 0.062311172 0.1207715 0.0013417022 0.021057557 0.033920288 -0.05077532
0.118755236 -0.06424776 0.0026167037 0.10766232 0.011609152 -0.026581747 -0.08996762 0.11387615
0.031083375 0.09996042 0.03927628 0.069845095 -0.044691056 0.037727576 -0.117958605 -0.099601716
-0.04724978 -0.03217782 -0.07055275 -0.03631842 -0.08175172 0.06541609 -0.07195179 0.062331647
-0.12382771 -0.06436986 0.062068135 -0.0021482457 -0.11987063 0.14856134 0.03113304 0.032140985
0.04390076 0.06096399 0.032880425 0.0052513927 0.10765464 0.10039838 -0.045216218 0.13340698
-0.0796151 -0.10435206 0.025034547 0.11608246 -0.0054566413 -0.03618668 -0.006840189 -0.075603165
-0.07754292 -0.09095721 -0.003363164 0.14123763 0.09048384 0.07186848 0.13729857 -0.10415208
0.010569811 0.024733094 -0.061125778 0.05065243 -0.014163624 -0.078369536 -0.016967908 -0.095563725
0.06594431 -0.0917624 0.11784938 -0.034706935 -0.048354685 -0.024135755 0.1054434 -0.019867301
0.04735674 -0.07793389 -0.07418994 -0.04916762 0.005932568 0.0727151 0.114098914 0.0677067

decoder_lstm.weight_hh_l0 f4 [256, 64]
00000000: 67f4 0cbe 73f7 243e dc52 03be 524d 9abd
00000010: aea1 73bd c00d a1bb cdc5 133e 821c bf3d
00000020: 1245 443d ecd3 d73c 323c ba3c bc3e 84bd
00000030: cc61 de3d e7be c03b 0d98 28bc 48b4 2e3d
00000040: 7f49 8dbc 6ee3 a33c df55 f93d 2b90 13be
00000050: 689c 21be 9585 383e 3b3d 54bd fa02 10be
00000060: 6571 8a3d 14f4 873d 18ce 0ebc ff43 1e3e
00000070: 571f 23bd 19e3 21be d3a0 4e3c bdc0 213d
00000080: e7d0 9dbd e7c9 573d 74fd dabc 92e8 edbc
00000090: 1db9 f93d 626b 77bc ac4f 80bd ff95 a0bd
000000a0: 916f 2a3b 0257 95bb c3dd 0bbd 027c 1e3d
000000b0: 29d9 d53c c247 763d d0df 8c3c 1a34 8b3d
000000c0: 6694 cfbd 62fd 8f3d f5e0 693d 0920 12bc
000000d0: 3374 1d3d 20bf 9a3d 8e3f 8539 6441 e63c
000000e0: 3e5a 19bd 3faa 1d3e 7062 88bb ae33 1d3d
000000f0: 94a4 e63d 5feb d23d b65c e53d 22a4 7ab9
00000100: aa6e 13bd 2679 67bc 93c8 863d 68f5 2c3e
00000110: d0f9 6dbd 219d 0b3e e134 24bd 7e5e 2abd
00000120: 6dbb cc3d a746 ba3d ba0b 033e 14db 2bbd
00000130: f0ea 6abd 3740 7fbd 928c bbbd cd93 9f3d
00000140: 0b4a 5e3d 7703 61bd d87f 613d c2ad 77bd
00000150: 0f71 953d e163 36bd 9954 b43a fafb 283d
00000160: bbde 783d c3fd 24bc 6351 753d bfd8 ba3d
00000170: 4465 91bd 7b1a 28ba af14 bbbc 6611 9c3c
00000180: 7a84 563d 0dac 70bd 4ce8 e53c 4502 ecbd
00000190: ee6b ddbc 34b1 c2bc a321 c03d 11ff 8bbb
000001a0: 251b ce3d 8975 89bd cc3a fb3d 260a 0bbe
000001b0: 0288 1bbe dddf 85bd ea72 0a3d 2d13 8fbd
000001c0: f8fc 1f3d 8825 793d db2b f53d 3a31 9bbd
000001d0: 5307 28bd 1e28 c7bd 2b33 5dbd 419b c63d
000001e0: a0ec 09bd a23b 99bd f1f2 283d ff41 4e3d
000001f0: 7c45 07bd b437 bc3d 2384 9dbc 386f 12bd
00000200: 1c35 09ba 7b72 ab3d 2255 d9bd efcd 7e3d
00000210: cb46 d13c 7da5 073e 5765 ccbd d483 97bd
00000220: f09e aebc 8644 963b 1729 dc3c 8eda b3bd
00000230: 0708 553d 07dd 1fbe 637f e4bd a86e 47bd
00000240: 3318 38be 7e90 3b3c b9c0 f0bd 8d01 1abd
00000250: 6d4c 21bc 4827 c9bd 20d5 bf3d 2464 873d
00000260: a3f6 87bd 50f9 c7bc b966 8a3d 413a 0e3d
00000270: a59a 11bd 95c6 0c3d 35e3 083e 4aa5 ac3d
00000280: efda 8bbc 0ef2 bb3c e943 e1bd e070 12be
00000290: 68eb 02bc af3a a43d 6639 db3d 6387 91bd
000002a0: 029b 54bd d57c 6cbd b4d0 ad3d 08b7 1cbd
000002b0: 29e8 9d3d 96fb 5f3d bda7 f53b bc59 8c3a
000002c0: eb04 943d 28d1 de3c 468c f0bc e6a0 2d3d
000002d0: a122 a2bc e4ab 9b3d fda8 88bd 8624 2e3e
000002e0: 881a 10be 515f 033d 11bd da3c 932e 68bc
000002f0: 8202 af3d 592e f3bd e44c c9bd bfcb a63b
00000300: 9359 d33d 019a 133c dc83 7d3d 36ec 953d
00000310: 08a1 c0bd 24f8 f4bd 5eba 64bd e126 ddbc
00000320: 933a fcbd 7d21 e1bc 9e89 9b3c 03de c5bd
00000330: cd53 803d ca43 06be a3db b43b cc48 003e
00000340: 02d6 58bd c645 75bd e810 73bc b542 783d
00000350: 4ee8 89bc 6c09 223d 5f56 b5bc 816b 473d
00000360: d91a 0fbd 3da5 6d3d b489 c13c 0466 3a3d
00000370: efaa 7c3d 38f0 a8bd 8dd5 51bd 0650 dd3d
00000380: 16d0 533d 65a2 f8bd 64e7 a63d 5bf4 27bd
00000390: cc10 f5bd 2da5 69bd 0c50 8a3d e472 f23d
000003a0: c3ee c0bd 5c16 a0bb 6299 533d b507 be3d
000003b0: 6b4d ea3c cf5c 5fbd 7a86 283d 2ccf efbd
000003c0: 41ef 9abd 2b35 c23c 40a3 75bd 0f51 923d
000003d0: 27c2 2abd ce48 bbbd 24d1 19bd 1554 ec3a
000003e0: 8e4e b4bd fae0 eb3c c508 0fbd 9e6d fa3d
000003f0: 9f36 023e f980 22bd 43ce 293d 5bce af3b
-0.13765107 0.1611002 -0.12824577 -0.07534279 -0.05948036 -0.004914969 0.14430924 0.09331609
0.047917433 0.02634617 0.022733781 -0.06457278 0.10858497 0.0058821323 -0.010290158 0.0426524
-0.01724696 0.020005908 0.12174582 -0.14410464 -0.1578232 0.18019708 -0.051816206 -0.14063635
0.067599095 0.06638351 -0.008716129 0.15455626 -0.03982481 -0.15809287 0.012611586 0.03949045
-0.077058606 0.052682783 -0.026732184 -0.029041562 0.12193511 -0.015101286 -0.06265196 -0.078411095
0.002600644 -0.0045574913 -0.034147035 0.03869248 0.026104527 0.060127027 0.017196566 0.06797047
-0.10135727 0.07030751 0.0570993 -0.008918771 0.038440894 0.075559855 0.0002541509 0.028107353
-0.037439577 0.15396975 -0.0041621253 0.038379364 0.112618595 0.102988 0.11199324 -0.00023903002
-0.03599421 -0.014128005 0.06581225 0.1689049 -0.058099568 0.13634159 -0.04008949 -0.04159402
0.09996686 0.09095507 0.12797442 -0.041956976 -0.05735296 -0.0623171 -0.09157671 0.07791863
0.05426983 -0.054934945 0.055053562 -0.060468443 0.07296955 -0.044528846 0.0013758122 0.04125593
0.060759287 -0.010070267 0.05989207 0.09123372 -0.07099393 -0.00064126373 -0.022837011 0.019051265
0.052372433 -0.05875783 0.02806487 -0.115238704 -0.027029004 -0.023766138 0.09381416 -0.0042723496
0.10063771 -0.06711871 0.12267074 -0.1357809 -0.15188602 -0.06536839 0.033800997 -0.06986079
0.03905961 0.06082681 0.119712554 -0.075777486 -0.04102261 -0.097244486 -0.054003876 0.09697581
-0.03367293 -0.07482077 0.041247312 0.050355908 -0.03302525 0.09190312 -0.019228047 -0.035750598
-0.0005234049 0.08371445 -0.10611941 0.062208112 0.025546452 0.13246723 -0.099802665 -0.07398191
-0.021316022 0.0045858053 0.026875062 -0.087819204 0.05200961 -0.15611659 -0.111571096 -0.048689514
-0.17977981 0.011448024 -0.11755509 -0.037599135 -0.0098448815 -0.098219454 0.09366822 0.06610897
-0.06638839 -0.024410874 0.06757874 0.034723524 -0.03554787 0.03436907 0.13367923 0.08429964
-0.01707217 0.02294257 -0.10999281 -0.14300871 -0.007990696 0.080190055 0.10704307 -0.07105901
-0.05190564 -0.057736237 0.084870726 -0.03826049 0.07710297 0.05468329 0.0074968026 0.0010707895
0.072275005 0.027199343 -0.029363763 0.042389773 -0.019791903 0.07601145 -0.06672857 0.1700612
-0.14072621 0.032073323 0.026701482 -0.01417126 0.085454 -0.118740745 -0.09829119 0.0050902064
0.10319819 0.009008885 0.06189333 0.07320444 -0.09405714 -0.119613916 -0.055841796 -0.026996078
-0.1231586 -0.027481789 0.01898652 -0.09661486 0.06265984 -0.13111797 0.005519347 0.1252777
-0.05293847 -0.059880994 -0.014835574 0.06061049 -0.016834404 0.039559767 -0.022135912 0.048686508
-0.034937713 0.05801891 0.023625232 0.045507446 0.061686452 -0.08248943 -0.05122905 0.10806279
0.051712118 -0.12140349 0.08149603 -0.04100452 -0.119660944 -0.05704229 0.06753549 0.1183832
-0.0942054 -0.004885478 0.05165995 0.09278814 0.028601369 -0.05453187 0.04114387 -0.11709437
-0.07565165 0.023706993 -0.05997014 0.07144367 -0.041689064 -0.09144746 -0.037552968 0.001803043
-0.088040456 0.0287938 -0.034920473 0.12227939 0.12716149 -0.03967378 0.041456472 0.0053651757

decoder_lstm.bias_ih_l0 f4 [256]
00000000: 2db2 133d 8b7c 4fbd 7970 babd 7eb7 b03d
00000010: e3cb dcbb c989 013e 8963 31bd 482c 52bd
00000020: 7a8b 163e 9773 bc3d e6d7 0f3e 5147 6d3d
00000030: d347 103e 2f3f 663a 0d22 ae3d c6e9 f33d
00000040: 2fa0 363e 4a92 503d 6229 d6bd f76a 02bd
00000050: 2563 0d3e fa24 b43c 7f5d cabb d11c 6a3b
00000060: 99d5 01be c433 b7bd 1d86 e2bc 6a32 803d
00000070: 42e7 443d b004 00be f21d 2cbd abc0 873d
00000080: 1e5a d4bc 9fc7 93bd e3bb 5cbc bd0d d1bc
00000090: bc84 bb3d 07f2 9c3d 9606 7b3d 617c 89bd
000000a0: 6ccb 57bd 2659 b2bd bd9c c73d 59ca 143e
000000b0: ede2 0a3d bd9d 0dbd d18a e93d 2013 063d
000000c0: 9378 39bd 3dfa 17bd 1ab5 83bc c4ee d7bd
000000d0: 426a aabd ec74 59bd a114 9fbd a995 bcbc
000000e0: 222d a23d a0b1 723b 0b88 98bd 24d4 853c
000000f0: 8b57 81bd 5ba4 3d3d 5cd7 2bbd c978 b1bc
00000100: 21a8 c33b 9ab7 5a3d b9ce 9abd 97f9 173d
00000110: 4da9 5a3c 70ab 48bc 8c1b 5fbc 8076 313e
00000120: 9624 283e 05da c03d 5ddf 80bd f781 8cbd
00000130: c980 dcbb bdf5 f73d b900 2a3d 0df8 4ebd
00000140: 43ce 64bd e941 ef3d 7dd2 b23c 0a2c 9e3d
00000150: d408 9c3d d85a 3d3d 5352 02be aaf0 d13c
00000160: 93e6 0abe 37ca 59bd 6582 73bd 568e 8ebc
00000170: 527c 0e3e 383c efbc 90fe b63d 2f0f 85bd
00000180: a010 16be ddf1 0d3e fea1 2abd 14c5 14bd
00000190: b2d2 be3d 2a84 de3d a700 84bd d800 a03d
000001a0: 3457 08be 2974 d03d 5dda 2a3d ada6 a23d
000001b0: d361 18be 75ac 8abd d11e 5fbc 8a22 5dbd
000001c0: 2380 dfbd 1592 e3bd 81dd dbbd f7f0 673a
000001d0: e5de 983d c5c3 da3d 4094 67bd abd5 54bd
000001e0: e24b 9f3d d660 e0bd 48c0 6d3d ab3d f3bd
000001f0: 4423 343d fe99 e7bd b548 7e3d 14c6 103e
00000200: 2215 123d 70d4 353c 1009 0e3d 3747 0f3e
00000210: f838 aa3c 668a c4bd d625 aa3d 0651 2c3d
00000220: 1389 933d 47b6 9a3d 79c7 a23d 42c6 b03c
00000230: bd38 70bd 85c2 94bd 3d4d a5bc 5751 853d
00000240: 163b 153d 167d c8bd e660 2d3d 5626 8f3a
00000250: d233 c73d cf19 a43d 8655 be3d f6db 86bd
00000260: c251 eabb d92f 973d 46f8 92bd 1c14 8fbd
00000270: 0bb6 0ebe 8800 afbc d67a 053e 64b8 2bbc
00000280: 181b 19bc 1439 e1bd bdb8 943d 4469 293d
00000290: 0678 9f3d f49b a53d cae7 2b3c fdfe 043e
000002a0: a378 f4bb c9eb ffbc 0d01 56bd daf1 ed3b
000002b0: f74f b63c e3e5 803d 8d8b c0bd b386 7cbd
000002c0: 543b 0abe 507e 843d 36f4 193e 8630 ad3d
000002d0: 3cd1 c7bd a41d 0b3d 4d58 3cbd 77e0 2fbd
000002e0: e7f8 a83d 8273 97bd 02d1 aabd 40a4 c63d
000002f0: 73eb cdbc f72a 3ebd c20f 183e 6cc6 a23d
00000300: 3445 a03d 429c 7cbd c92d c8bd 1cc3 7ebd
00000310: cc0c fe3d 527e d9bc 30ca 52bb 6cde cd3d
00000320: 4e72 093e 5a22 78bd fa79 91bd cf12 f73c
00000330: d258 153e 29cf 003e e9cd d13d 9174 b23c
00000340: 7d00 a3bc e17e a83c 57b2 3f3d ff6b febc
00000350: 277c 12bd 2af0 163e 5a44 4dbd 22bf b3bc
00000360: 6555 a53d 87e3 cb3c 3a25 893c 0144 e03d
00000370: 8cfc e23c 7279 05bd 3e62 e83c 1b52 c23a
00000380: 476f 82bd 0937 c33d 3a75 b9bd decd 873d
00000390: 48f7 443d 07eb 3cbd d906 1abd 300f 023c
000003a0: ebae f43d a21d ae3c 09a2 a33d cb34 af3d
000003b0: 77d2 bc3d 3201 98bd 4cac 17be e519 3dbd
000003c0: 0b60 663d 8c53 d33d ff22 973d aed4 e23d
000003d0: a928 ec3d 6620 c2bd 03e9 103e ea0d 203e
000003e0: 1bfc 46bc ea7f 12bc e8c7 5bbd 4636 a43d
000003f0: 6a01 aebd 8c52 90bd 4556 863c 8602 a3bc
0.036058594 -0.050655883 -0.09103484 0.08628748 -0.0067381724 0.12650217 -0.043307815 -0.05131176
0.14701644 0.092017345 0.14047202 0.05792934 0.14089899 0.0008783219 0.085025884 0.11909823
0.17834543 0.050920762 -0.10457112 -0.03184029 0.13807352 0.021990288 -0.0061756964 0.0035722742
-0.12679137 -0.089454204 -0.02765184 0.06259616 0.048072107 -0.12501788 -0.042020746 0.066285454
-0.025921877 -0.07215809 -0.01347253 -0.025519246 0.091561764 0.076633506 0.061285578 -0.067131765
-0.052684233 -0.0870841 0.09746692 0.14530315 0.03390782 -0.03457426 0.1140343 0.032733083
-0.045281004 -0.03710388 -0.016077567 -0.10543588 -0.08321048 -0.05309002 -0.077676065 -0.023020582
0.07918765 0.0037032142 -0.07447823 0.016336508 -0.063155256 0.04629932 -0.04195343 -0.02166404
0.0059709703 0.053397752 -0.075589605 0.03710326 0.0133460285 -0.012247905 -0.0136174075 0.1733036
0.16420206 0.09416584 -0.06292603 -0.06860726 -0.0067292196 0.12107418 0.041504595 -0.05052953
-0.05586077 0.11682493 0.021828884 0.077232435 0.07618871 0.046229213 -0.12726717 0.025627453
-0.1356452 -0.053171363 -0.059450526 -0.017401855 0.13914612 -0.02920352 0.08935273 -0.06497037
-0.1465478 0.13861795 -0.041658394 -0.03632076 0.09317531 0.10865052 -0.06445437 0.07812661
-0.13314515 0.10178406 0.041712154 0.07941947 -0.14881067 -0.06771175 -0.013618187 -0.053988017
-0.10913112 -0.11111847 -0.10735608 0.0008847857 0.07464389 0.10681871 -0.056537867 -0.051961582
0.077781454 -0.1095597 0.0580447 -0.118769966 0.043978944 -0.113086686 0.062081058 0.14138061
0.035664685 0.011098012 0.03467661 0.1399201 0.020779118 -0.0959671 0.08307998 0.042069457
0.07203879 0.07554298 0.07948203 0.021578912 -0.05864786 -0.07263664 -0.020178432 0.06509655
0.036433302 -0.09789483 0.042328738 0.0010921459 0.09726681 0.08012735 0.09293656 -0.06584923
-0.0071508596 0.07382173 -0.07176261 -0.069862574 -0.13936631 -0.021362558 0.1303514 -0.010480974
-0.009344839 -0.10997215 0.072617985 0.041360155 0.077865645 0.08086386 0.010492275 0.12987895
-0.00746067 -0.03124036 -0.052247096 0.007261497 0.022254927 0.062938474 -0.09401617 -0.061651897
-0.13499194 0.06469405 0.15034565 0.08456521 -0.09756705 0.033963814 -0.045982648 -0.042938676
0.08250599 -0.07395078 -0.08340646 0.09699297 -0.025136685 -0.046427693 0.14849761 0.07948002
0.078256994 -0.061672457 -0.09774358 -0.06219779 0.124047846 -0.026549492 -0.003216397 0.10052189
0.1342251 -0.060579635 -0.07103343 0.030160336 0.14584664 0.12579025 0.10244352 0.021784099
-0.019897694 0.020568313 0.046800938 -0.031057356 -0.035762932 0.14740053 -0.050114013 -0.021941725
0.08072928 0.024888767 0.016741384 0.10950471 0.027708314 -0.032586522 0.028367158 0.0014825495
-0.06368881 0.095319815 -0.09055562 0.06631063 0.04808739 -0.046122577 -0.037604187 0.007938191
0.119474255 0.021254364 0.0798989 0.08554991 0.092198305 -0.07422103 -0.1481182 -0.046167273
0.056243937 0.1031867 0.07379722 0.11075722 0.11531193 -0.09478836 0.14151387 0.15630308
-0.012145068 -0.00894163 -0.053657442 0.08018164 -0.084963635 -0.070469946 0.016398558 -0.019898664

decoder_lstm.bias_hh_l0 f4 [256]
00000000: 7129 2dbd fee4 a9bd 8989 86bd 98fb bdbd
00000010: a111 793d 0f1a 8fbd c2f6 d53d 4b7d 003e
00000020: cc73 ce3c 7695 643c f04a 8fbd f4c2 753c
00000030: 6421 943d 9c2f ea3d 456f c03d f4e3 2cbd
00000040: 0c76 f93d 3c62 ce3d b6b8 cbbc 4f91 babd
00000050: 0dbf 8cbd 3eed 593c 22fe febd b87e 15be
00000060: 309b 803d f449 a23d 7dec 1f3d 2e67 9b3b
00000070: d2d4 a43c bd43 aa3d df7f 06bd 53f7 1b3e
00000080: f5c1 2dbe 201a a03d 8449 7d3d f745 38bd
00000090: e56f abbd 0935 073d c1e2 d5bd 9b93 453c
000000a0: e343 53bc 1eee 9bbd 2e5c be3c 2be3 533c
000000b0: c21e 863c adeb 6cbd d97b b1bd 0ec3 e5bd
000000c0: b17b 0dbe eb3c cc3d 49c5 23bd 68cd b9bd
000000d0: f9d9 0a3d 5c9b 96bd 07fe c53d c02b a5bd
000000e0: c4f1 93bd 6d32 b73d 1478 2bbe 18cd cb3d
000000f0: 0b70 ffbd c8b2 a8bc f325 b3bd 08d8 3d3d
00000100: 4d5e 103e 8d9e d93d 58f5 74bd 08dd ebbd
00000110: e4f1 863c 491b b6bd 32b8 ffbc bc7f 783d
00000120: 127b 3c3d 02a8 293d 546a 7f3d 0521 943d
00000130: b13e e63d c41b 1d3e ecae ea3c fcb4 783d
00000140: 0c39 913d d221 873d 6e54 4fbd b927 083e
00000150: 6509 f3bc 1ecb aa3d 017b c03c 2702 123e
00000160: dcb5 813d 28bf d83d 2271 2938 214f 5d3d
00000170: 2407 3cbd 6a32 c63d 5a83 b4bd 7795 703c
00000180: 9fa9 3f3d b442 723d 4695 0bbc b802 37bd
00000190: a442 953a 2e07 db3d 456c f0bc 6ddd a9bb
000001a0: f168 2abd 3c9e 0abc 2744 eb3d 057d d33d
000001b0: be1d 2cbd 111a eb3d 61a7 d93b e203 dfbb
000001c0: 6756 c6bd 0043 18bd 497b 5e3d a09d 8e3d
000001d0: 83d4 02bd 0bbd 013e a28c 10bd 6ef4 5f3d
000001e0: 9200 f43d e09e b93d ac78 0fbd e10a 92bb
000001f0: 798b c73d f053 d13d b5ea 97bc 2f51 7dbd
00000200: 67a4 c3bc 6eb8 38bd 660e 1abc 7eed 57bd
00000210: 24df d83d 1558 b23c eca8 383d 8a0e 0d3e
00000220: 058c 19be 6775 b33d 501b 10bd 4236 88bd
00000230: bf34 22bd 0581 cb3d 9ff0 f83d 2fff 0c3d
00000240: 7722 9d3c cde9 723d 3e80 ebbb f089 7d3d
00000250: aabb 6dbc 9df4 e43d 565b 9bbd 0410 bb3d
00000260: 0ab9 94bb ea3f 0b3e 635d cdbd ffb0 6f3b
00000270: fcfa 233d 772d ec3b 2f69 a93c 4f99 443d
00000280: cc7a 283c 56ab 153d a875 75bd 5433 273c
00000290: 3ba4 4ebc 543c 8cbd ead0 193e b337 4fbd
000002a0: e50e c13c f28d 313c 5885 bb3d 6f89 803c
000002b0: b7d2 32be 7c8f 023e b608 2bbb 87d2 55bd
000002c0: f7f0 ffbd 49df 65bd 9468 bf3d e7b9 083c
000002d0: b0db 393d 1c81 163e a52f 8abd 34bf 883d
000002e0: 630d bebd f690 2bbd ae55 353d be3a 77bc
000002f0: 4ff1 683d a145 77bd 4a19 5bbd d4c4 fe3c
00000300: 94ea ae3d 399a 8f3a 1f70 bc3d 2a9e 1d3c
00000310: 3e32 e93d c82d e13c 3119 ce3d 8d9e 153e
00000320: 46f0 753c ba08 f63d 9211 bbbc be2d 00bd
00000330: 6fe2 84bd 7d75 073e 393c 9abd 163c c83d
00000340: 530f 1d3d ffaa c13d 0003 ddbd 04bd c9bd
00000350: cef6 3f3b 3482 3c3d f846 0b3e d39e 113e
00000360: d1d4 6fbd 0023 a53d df81 fe3b 2440 613d
00000370: 72fd bc3c a774 073d a09d c0bd cca0 ec3d
00000380: 9cb0 03bd 0cd3 853d 0460 823d b52a 9a3c
00000390: e4b3 353d 32a8 c9ba db09 aa3d 248a 98bd
000003a0: 586d aa3c 96ef 8e3d dbc4 a43d 379a 1b3e
000003b0: 9a4e 6fbd b7ab 143e 306e 823c 2314 773d
000003c0: 1ecf bdbd e5f0 2e3d 0a48 52bd 02db bcbc
000003d0: c32a c9bd f134 8e3d ca46 e03d bc7d 303e
000003e0: 3137 003e fae9 393d 7e08 763c bedd 0abd
000003f0: e93c a9bc 5996 55bd c558 8cbd db33 953c
-0.04227585 -0.0829563 -0.065692015 -0.09276503 0.060807828 -0.06987392 0.10447456 0.12547795
0.0252017 0.01395165 -0.06996715 0.015000094 0.07232931 0.11434862 0.09396223 -0.04220958
0.12180719 0.100773305 -0.02486835 -0.09109747 -0.068723775 0.013301192 -0.12450816 -0.1459912
0.062796 0.07924262 0.039043892 0.0047425246 0.020121012 0.08313701 -0.03283679 0.15231065
-0.1696852 0.07817483 0.061837688 -0.0449886 -0.083709516 0.033009563 -0.104436405 0.012059118
-0.012894603 -0.076137766 0.023237314 0.012932579 0.016372088 -0.057841945 -0.086662 -0.11218844
-0.13816716 0.09972557 -0.039983068 -0.09072381 0.03389928 -0.07353851 0.096675925 -0.08064985
-0.072238475 0.08945165 -0.16745025 0.09951228 -0.124725424 -0.020593062 -0.087474726 0.0463486
0.14098473 0.10625944 -0.05980429 -0.11516768 0.016472764 -0.08891923 -0.03121576 0.060668692
0.046015806 0.04141999 0.06235726 0.072328605 0.11242426 0.15342623 0.028647862 0.060719475
0.07090959 0.065982476 -0.050617628 0.13296403 -0.029667566 0.08339523 0.023496153 0.14258634
0.06333515 0.10583335 4.0398103e-05 0.05403054 -0.045905247 0.096775845 -0.08814116 0.014684073
0.046792623 0.059145644 -0.008519476 -0.044680327 0.0011387658 0.10694729 -0.029348502 -0.0051838667
-0.041603986 -0.008460578 0.114876084 0.1032658 -0.04202055 0.11479581 0.0066422676 -0.006805883
-0.09684449 -0.03717327 0.054316793 0.06963658 -0.03194095 0.1266977 -0.035290368 0.054676466
0.11914171 0.09063506 -0.03502719 -0.0044568633 0.09743399 0.10221088 -0.018544534 -0.061845
-0.023882104 -0.04509776 -0.009402847 -0.052716725 0.10589436 0.021770516 0.04508297 0.13775077
-0.1499482 0.08762627 -0.035182297 -0.06650974 -0.039601084 0.09936718 0.1215527 0.03442305
0.019181473 0.059305 -0.0071869185 0.061899126 -0.014510075 0.11179469 -0.0758578 0.09133914
-0.00453866 0.135986 -0.10027578 0.0036574004 0.04003428 0.0072075683 0.020680038 0.04799777
0.010283183 0.03654035 -0.05992666 0.010205109 -0.012612398 -0.06847444 0.150211 -0.05059023
0.023566673 0.010837065 0.09156293 0.015690533 -0.17463194 0.12750047 -0.0026097721 -0.052202728
-0.12497132 -0.056121144 0.093461186 0.008345104 0.045375526 0.14697689 -0.06747369 0.06677094
-0.09279897 -0.041886292 0.044271164 -0.015089689 0.056870755 -0.060369138 -0.053490914 0.031099714
0.08540836 0.0010955996 0.09201073 0.009620229 0.11386536 0.02748765 0.10063399 0.14611264
0.015010899 0.12013383 -0.022835527 -0.031293623 -0.06488501 0.13228412 -0.07531018 0.097770855
0.038344692 0.09456443 -0.10791588 -0.09850505 0.0029291394 0.04602261 0.13601291 0.14220743
-0.058552567 0.08063316 0.0077669467 0.05499281 0.02307007 0.033070233 -0.094050646 0.11554107
-0.03215085 0.065343946 0.0636597 0.018819192 0.04436101 -0.0015385209 0.08302661 -0.07448223
0.020804092 0.06979291 0.0804536 0.15195547 -0.05842457 0.14518629 0.015921682 0.06032194
-0.0926802 0.042710204 -0.051338233 -0.02305365 -0.09822609 0.069436915 0.10951002 0.17235464
0.12521054 0.045389153 0.015016673 -0.033902876 -0.020658927 -0.052145336 -0.06852869 0.018213203

output_layer.weight f4 [1, 64]
00000000: 27c8 a33d a14e ec3d c268 1cbe 05f6 47be
00000010: 9ffa 23be 62b2 283e 2482 103e f162 29be
00000020: e806 1c3e 83dc 0c3e be1d 3b3e 624a 083e
00000030: b04e bb3d 207e 07be 6900 dcbd c227 923d
00000040: 0065 5dbe 12b8 083e 5cf9 44bd 474d 2abe
00000050: 2aff 773d b9af e3bd e492 3f3e 22db 4c3e
00000060: 1718 3fbe 5434 e6bd 4be0 293e 7141 d53d
00000070: 2bf1 883d b0c9 d23d 0ac6 ac3d 89d9 c43d
00000080: 2418 37be 7d3e 40be 7896 593d a704 0bbe
00000090: 4050 2ebe 8a85 143e 5787 c6bd 6458 093e
000000a0: 2591 e8bd 48ce febd 6554 393e c7a9 14be
000000b0: 173b 033e c24a 42be 9283 ccbd 34ee 923c
000000c0: 6830 dc3d ae27 d7bd 6cd0 2dbe 00cb a03d
000000d0: e35d 03be 86ed 49be c9cc 19be 69c9 0e3e
000000e0: 3ba8 aebc 1d8b c4bb c991 39be 99fb bc3d
000000f0: f6cb 263e 0b5a 9bbd a42c 32be eadd 71bd
0.079971604 0.11538435 -0.15274337 -0.19527443 -0.16013573 0.16474298 0.14112145 -0.1654165
0.1523701 0.13755994 0.18273064 0.13309625 0.09145868 -0.13231707 -0.10742266 0.071364895
-0.2162056 0.13351467 -0.04808937 -0.16631041 0.060546078 -0.11117501 0.18708378 0.20005468
-0.18661533 -0.112404495 0.16589467 0.104128726 0.06686624 0.10292375 0.084362105 0.09611804
-0.17880303 -0.18773837 0.053122014 -0.13575993 -0.170228 0.14504066 -0.09693783 0.13412625
-0.11355809 -0.12441689 0.180986 -0.1451789 0.1281551 -0.1897383 -0.099860325 0.01793585
0.1075142 -0.10505615 -0.16974038 0.07851219 -0.12828784 -0.19719514 -0.15019526 0.1394402
-0.021320453 -0.005998029 -0.18122019 0.09227676 0.16288742 -0.07585534 -0.17399842 -0.059049524
