model_training/ball_motion_model.pth (torch, 138201 bytes, 7 tensors)

encoder.0.weight f4 [64, 3]
00000000: 0076 5f3c a0a9 80bd 1489 27be 049f adbd
00000010: 2e16 07be e095 f03e 063c 153f a9f6 0b3f
00000020: 21d5 ffbd 8472 f03e 0395 b3be 1bd4 cbbe
00000030: 200f eebc a0f3 fbbd 68a4 0a3e 4ff0 83be
00000040: 6ac3 c5be 0ce5 fe3e 0e28 e8be eb75 233e
00000050: 3f16 3fbe a0c6 9e3c 8014 a6bb 3892 86be
00000060: 4a56 cabe f5d3 86be de56 c4be 69a1 0dbf
00000070: 9442 0fbf 28eb 773e f452 ecbe bec2 75be
00000080: 8624 69be a9ad 03bf 9709 503e 40d4 09bf
00000090: 9475 92be 39ba 123f a994 c23e 5012 7c3e
000000a0: 068a 02be 408e 23bc ee3b fb3e 6761 ca3e
000000b0: 23e0 9cbe 83a0 eebe aa8d 2cbe 6408 a73e
000000c0: 5e79 00bf ecc0 75be e672 d23e 79f2 ed3e
000000d0: b70a 4f3e 4c6f c0be 902a b1be b1aa b5be
000000e0: b0f9 c63d 85c8 bb3e 902c df3c c275 f33d
000000f0: b9a3 0b3f 6e5d a93e 7dad 9abe b627 afbe
00000100: c8cd d1bd 80d1 ce3e b684 54be 40b6 3ebe
00000110: 69cc 02bf 691c aebe 2235 dc3e bd50 ff3e
00000120: 9f30 a63e 2128 8d3e dc1f 00bf 820d d43e
00000130: 9197 f03e 0983 823e 2ea7 a9be 6ee6 d43d
00000140: 8d3b dc3e a4db 5a3e 6876 16ba 1ad6 f73e
00000150: 0916 2d3e b5b6 503e 0749 c9bd d545 0f3e
00000160: e4f9 0c3f 6d0b f2bc c001 97bd a49a 35be
00000170: 90f7 7a3e c48b cbbd fb7a ebbe 425b c7be
00000180: 2450 9c3d 050f d33d b53e 003e 702c cabe
00000190: d0d5 d03e c2f3 ca3d 95b9 603d e51e c53d
000001a0: 06cc c2be 0141 083f 7937 85bd 211f dcbd
000001b0: 7624 163e bf40 813e 0c1c 363e d39b b7be
000001c0: 7132 093e 75af 18be d541 58be c287 ea3e
000001d0: 4a42 fc3e d02e 6bbd f537 97be c4f5 ef3e
000001e0: 0c9c 04bf 60c4 29bd 8064 483c dbad 0abf
000001f0: 80da 963b 080e 563e f465 f5bd 7307 00bf
00000200: c05f 92bc 513f 75be 7735 f73e 1f57 063f
00000210: d4e8 f53e 7668 f73e 7d8f 59be 7450 6b3e
00000220: 6aa4 58be 18f7 fe3e e08c f33d 90a0 e0bd
00000230: 72c3 0dbe ab3e 0a3f 619f ff3e 7087 633e
00000240: f28e 63be 693e 0abf 04fa 253e 28b6 0e3e
00000250: dd9a ed3e 328c fe3e f458 1c3e a2de 5dbe
00000260: c01b e73e a298 953e 959d 933e 1e64 42be
00000270: bb68 8fbe ba8c d43e 0d85 bdbe 086b 64be
00000280: da54 723e 2e57 ef3e 6b1b 0b3f 4d46 dd3e
00000290: 9e5d 58be 3000 ddbe 9ec7 0a3f 6d1e 0abd
000002a0: 7e59 8dbe cef5 8abe a47e fd3e 7675 943e
000002b0: b7a4 a5be a0dc bb3e 34be 7e3e 5032 f3bd
000002c0: 2030 cc3d e0d4 e43d 067f a1be f20c 873e
000002d0: 3d38 d83e bd86 c7bc 7989 3dbe 914f ae3e
000002e0: 79ec 423e e6d1 e4be 549d 013e b7ab 97be
000002f0: f2ca adbe ca4f 04bf f036 fbbe 4ac0 b83e
0.013638973 -0.062823534 -0.16360885 -0.084775954 -0.13192055 0.46989346 0.58294713 0.5467325
-0.12491823 0.46962368 -0.35074624 -0.3981026 -0.029059947 -0.12302327 0.13539279 -0.25769278
-0.38625652 0.49784124 -0.4534306 0.15962951 -0.1866083 0.019381821 -0.0050683618 -0.2628343
-0.39518958 -0.26333585 -0.38347524 -0.5532442 -0.55960965 0.24210799 -0.46157038 -0.2400007
-0.22767839 -0.5143686 0.20316158 -0.5383949 -0.2860533 0.57315403 0.38004044 0.2461636
-0.12747964 -0.0099826455 0.4906916 0.39527437 -0.30639753 -0.46606836 -0.16850916 0.3262359
-0.5018519 -0.23999375 0.41103286 0.46474054 0.20218931 -0.37584913 -0.34602785 -0.3548179
0.09715593 0.36676422 0.027242929 0.11887695 0.54546696 0.33079094 -0.30210486 -0.34209985
-0.10244328 0.4039421 -0.2075375 -0.1862421 -0.51093155 -0.3400605 0.43009287 0.49866286
0.3245897 0.27569678 -0.50048614 0.41416556 0.46990636 0.25490597 -0.3313536 0.103955135
0.43014184 0.21372849 -0.000573969 0.48405534 0.16902937 0.20382197 -0.09828382 0.13991483
0.550688 -0.029546464 -0.07373381 -0.17734772 0.245085 -0.099387676 -0.45992264 -0.38936812
0.07632473 0.10305599 0.12523921 -0.39487028 0.40788126 0.09909774 0.054864485 0.09625033
-0.38046283 0.5322419 -0.06504721 -0.10748125 0.14662346 0.2524471 0.17784137 -0.35861072
0.13398148 -0.14910682 -0.21118863 0.458067 0.49269325 -0.05741769 -0.2953488 0.46867192
-0.5180061 -0.041447043 0.012230992 -0.5417153 0.004603684 0.2090379 -0.11982337 -0.50011367
-0.017867923 -0.23949935 0.48282978 0.52476686 0.48029196 0.48321885 -0.21246143 0.22979909
-0.21156469 0.49797893 0.11892104 -0.10968125 -0.13844088 0.54001874 0.49926284 0.22219634
-0.22222498 -0.5400148 0.16208655 0.13936675 0.46407214 0.49716336 0.15268308 -0.21666959
0.4513836 0.29218012 0.28831163 -0.18983504 -0.2800959 0.41513616 -0.37015572 -0.22306454
0.23665181 0.467462 0.5433871 0.43217698 -0.21129462 -0.43164206 0.5421084 -0.033720423
-0.2760734 -0.2714066 0.49510682 0.28995866 -0.3235223 0.3669176 0.24877244 -0.11874831
0.099701166 0.11173415 -0.31542224 0.26377064 0.42230406 -0.02435624 -0.18509473 0.3404508
0.1903552 -0.4469139 0.12657672 -0.29623196 -0.33943897 -0.5168425 -0.4906535 0.36084205

encoder.0.bias f4 [64]
00000000: 5cd9 0e3e 4a18 83be 70b7 f5be 940d ff3e
00000010: 5c4d 843e 34c4 61be 9dca e33d ce42 61be
00000020: 3018 05bf ccd2 a7bd 59a1 acbe 7ce6 0ebf
00000030: b029 b6bd e015 a2bd b236 21bd 3c67 61be
00000040: 1159 8abe def3 df3e dcef 0e3e ea93 57be
00000050: 3425 f8be 228a a53e d958 07bf 8a51 08be
00000060: 3d70 11be 8e16 8c3e 4c66 8b3e 1f44 863e
00000070: 6947 ae3e 8f2c 75be b047 6e3e 3042 b83d
00000080: 84c6 05bf 144e 12bf d3e5 823d 1522 00bf
00000090: cba3 a3be e14f df3e 6a66 19bf dc84 f13e
000000a0: 6e65 d03e a0e6 2bbd 3cb5 33be f4b2 d1be
000000b0: fed8 fb3e fe23 103f 2080 e7bc 7cda c93e
000000c0: ba9b b4be df33 e7be 28e7 133e 5f10 32bd
000000d0: ebdd 763e 6129 36be 458b dd3e 4c13 fb3e
000000e0: 2e96 12bf 68b9 593e f723 94be 0077 ba3e
000000f0: d799 0bbf 7413 03be b612 62be 94e1 f23e
0.13950104 -0.2560447 -0.47991514 0.49815047 0.2584027 -0.22047502 0.1112263 -0.2199814
-0.5199003 -0.08194503 -0.33716848 -0.5582044 -0.0889467 -0.079143286 -0.039358802 -0.22012037
-0.27021077 0.43740743 0.13958687 -0.21052518 -0.48465884 0.3233195 -0.52869946 -0.13312355
-0.14202972 0.27360958 0.27226484 0.26223847 0.34038857 -0.23942779 0.23269534 0.08996999
-0.52256036 -0.5715039 0.06391492 -0.50052005 -0.31960902 0.4361563 -0.59921896 0.47171676
0.40702385 -0.041967988 -0.17549604 -0.40956843 0.4918899 0.5630492 -0.028259337 0.39424503
-0.3527506 -0.45156762 0.14443648 -0.043472644 0.24108092 -0.17789222 0.43270317 0.4903816
-0.57260406 0.21262133 -0.2893369 0.36418915 -0.54531616 -0.1280039 -0.2207745 0.47437727

decoder_lstm.weight_ih_l0 f4 [256, 64]
00000000: 9c82 78bd 40e0 efbb e292 233c accf 13bd
00000010: dce9 db3d 18ee cc3d df76 3f3d e05b af3c
00000020: a8ca 8f3d 6ca0 74bd 0c85 693d f57b e4bc
00000030: 207b 2fbb 400e 3ebd aadd 7a3d 7cbe 7c3d
00000040: 9072 07bc 4b72 c13d 78c8 633d f251 71bd
00000050: f1ab fcbd b026 8fbc 6e38 9c3d e572 88bd
00000060: db7b bc3d 489e 983c f7cc ba3d e0ea c5bd
00000070: aafb d53d d00c 10be aa5c bcbd a0de c0bd
00000080: a378 c73d 1bfa 91bd 8ffc 28bc 6be0 9d3d
00000090: 5d09 34bd 2857 b43c 169f 213d 04b3 893d
000000a0: 7c1c 8dbd 4e18 833d 704a 423c 0e20 3b3d
000000b0: 10a4 95bd 8444 fcbd 2477 bf3d d6dc 073d
000000c0: 862d a3bd 4da9 c53d c41f 9dbd c1d5 efbd
000000d0: 831d 053d 7350 bfbd e894 c5bd 989e d03d
000000e0: cec5 a6bd 1cf9 563d 861f a63d ec2b f73d
000000f0: 96be cabd 7930 92bc a0a0 f7bb 0019 12bb
00000100: f09c a23d 98ad 91bc 2d74 1b3d da45 fcbd
00000110: 78a2 c1bd 500a f0bc c44b 4d3c 2643 fe3d
00000120: 742e cebd 1496 233d b815 0b3d 425b 2bbd
00000130: 5036 3c3d 808b f5ba 571b d13d f8e0 613d
00000140: 502b 5bbc c7eb 223d 20c0 a6bb 01a3 353c
00000150: 83a8 fabd 4000 36bc 38a4 f23d af16 8c3c
00000160: 805b ae3c 4d6c 08bc f8ef d33d 07ee 0c3e
00000170: 55e2 063d 3cf4 6d3d 88d4 d33d 84c9 5dbd
00000180: 82f2 babd 3b1e fcbd dd18 ce3d 91b6 d23d
00000190: d03e a83d 17a4 cb3c 99ee e1bd 0036 bdba
000001a0: 5ced 3c3d f01a b6bc 98a5 b03c b46d c43d
000001b0: e558 18bd bc5d 723d 100e febd 5fe0 ef3b
000001c0: 20f4 003c 1cba d5bd 1617 d1bd c1eb e7bc
000001d0: 1bf4 b33d f261 d13d 2890 ac3c dad8 c5bd
000001e0: d89d 693d 88d1 903d 6c63 06bd a8e9 a2bd
000001f0: 28e0 89bd 4a89 62bd 342e ba3d bceb 813d
00000200: f289 9a3d e634 b13d a65c 903d 4826 a03d
00000210: 08ec 9fbd 16ec bbbd bee2 f83d 3448 583d
00000220: 20df 6fbc ec94 903d cc5c f7bd 59f2 aabd
00000230: 5273 38bc 1ee7 b33d bb42 dabd e0d0 853c
00000240: 72ad d43d c3df 1cbd aecd 913d 7e54 cabd
00000250: ab9d a93c 90a6 ca3c b001 793c 94ee 58bb
00000260: 4d37 863d 7786 6fbd f981 94bd f737 5fbb
00000270: 23ce f1bd 16e4 08bd c66a 973d 20a4 ff3c
00000280: aff8 9a3c 7e02 823d 7fe4 0f3d 6879 6dbc
00000290: be7d c8bd 3c7f 363d 2c9d b13d 3478 24bd
000002a0: 340e d6bd 303c 6cbc b0ff e93d d1f3 083c
000002b0: 1ade a1bc 988b 443d 701b 4e3c 7e9a cdbd
000002c0: 80c3 84bc 37db aabd a887 d9bd 91bf ed3d
000002d0: 4aae c33b 3f17 a2bd 014d e23d 7698 c83d
000002e0: b894 3f3d 7014 42bd 7aa1 a23d 40c5 2abd
000002f0: dcdb 62bd c1b7 76bc 022d f33d c2f0 af3d
00000300: 5c9b c53d 2621 93bd 5cfe ae3c 409d a7bc
00000310: 9850 f73d 08ae 06bd 24d4 fc3d 762e a6bd
00000320: c07d 773b 90b0 1d3d e48c b0bd eae3 cf3d
00000330: 4b27 1f3d 1802 4dbd 42b0 283d 20fb 85bc
00000340: 8823 53bd 0696 6fbb d074 f53c 380b 483d
00000350: 4e41 0fbd 4e99 b6bd 440c 8f3d 0268 c23d
00000360: 121f 703d 396e cb3c d8f3 0d3e eb30 a7bd
00000370: 4565 223d d918 e43d d8e6 f1bd 881a 8e3c
00000380: 5f15 a8bd 245b 82bb c9a8 cd3d 4261 f33c
00000390: 6e82 9cbd 2bee be3a 8d2e 0abd 8c61 ac3d
000003a0: caf3 893d d69e b93d 0464 d23d b292 c53d
000003b0: 4dc5 9abc 6cf8 683d 022c fc3d 179d e93c
000003c0: 70d4 18bc 8ec6 cabd 822d 96bd 4741 2bbc
000003d0: 3478 d7bc f275 4fbd ad40 c23d 51ca eb3d
000003e0: ecec 3a3d 8868 ab3d f41d 86bd c674 a3bd
000003f0: abbb 27bd 5bda afbb a016 7abc c20d 9ebd
-0.060671434 -0.007320434 0.00998375 -0.036086723 0.107379645 0.1000635 0.046744224 0.021406114
0.070210755 -0.059723303 0.05701165 -0.027891139 -0.002677627 -0.04640031 0.06124655 0.061705098
-0.00826706 0.09445628 0.055611104 -0.05891604 -0.12337483 -0.017474502 0.076279506 -0.066625394
0.09203311 0.018630162 0.09121125 -0.096639395 0.10448392 -0.14067388 -0.09197362 -0.09417462
0.097398065 -0.07127782 -0.010314121 0.0770882 -0.043954242 0.022014216 0.039458357 0.06723598
-0.068901986 0.0640112 0.011858568 0.045684867 -0.07306683 -0.12317756 0.09348896 0.03316959
-0.07967667 0.09651432 -0.076720744 -0.11710692 0.032498848 -0.09341516 -0.09647542 0.10186499
-0.08143197 0.052483663 0.08111481 0.12068924 -0.09899633 -0.01784538 -0.00755699 -0.0022292733
0.0794009 -0.017782971 0.03795259 -0.12318011 -0.094548166 -0.029301792 0.012530271 0.12415151
-0.10067454 0.039938048 0.03395626 -0.041835077 0.045950234 -0.0018733591 0.10210293 0.055146188
-0.013377026 0.039775636 -0.005088821 0.011086226 -0.12239172 -0.011108458 0.118477285 0.01710066
0.021283865 -0.008326602 0.10348505 0.13762675 0.03293069 0.05809425 0.103432715 -0.05414726
-0.09128286 -0.123104535 0.10063336 0.10288728 0.082151055 0.024858518 -0.11031837 -0.0014435649
0.0461248 -0.022229642 0.021563336 0.09591237 -0.03719415 0.059171423 -0.12405026 0.0073204483
0.007870704 -0.10435888 -0.102094814 -0.028310658 0.08786794 0.1022376 0.021064833 -0.09660502
0.057035297 0.07071215 -0.03280966 -0.07954723 -0.067322075 -0.05530671 0.09090844 0.06343791
0.07545842 0.08652668 0.07048921 0.078198016 -0.07808691 -0.09175889 0.12152623 0.052803233
-0.0146405995 0.070596546 -0.120782465 -0.083470054 -0.011257963 0.087843165 -0.10657259 0.01633495
0.103846446 -0.038299333 0.071193084 -0.09879397 0.020705065 0.024737626 0.015198156 -0.0033101188
0.065535165 -0.058477845 -0.07251353 -0.0034060457 -0.118068956 -0.033420645 0.07393412 0.03120619
0.01891741 0.063481316 0.03513002 -0.014494278 -0.097896084 0.044554934 0.08672556 -0.040153697
-0.10451928 -0.014418647 0.11425722 0.008358912 -0.019759227 0.04798469 0.012579784 -0.10039233
-0.016206503 -0.08342593 -0.106215775 0.11608804 0.0059717046 -0.0791459 0.110498436 0.097947046
0.04677269 -0.047382772 0.079409555 -0.04169202 -0.055385455 -0.015058459 0.11873819 0.08590843
0.09648773 -0.07184057 0.021361522 -0.020460725 0.12075919 -0.032880813 0.1234515 -0.081143305
0.0037764162 0.03849846 -0.08620623 0.10150893 0.038855832 -0.050050825 0.041183718 -0.016355097
-0.051547557 -0.0036557927 0.029962927 0.048838824 -0.03497439 -0.08915959 0.06984761 0.09492494
0.05862338 0.024832832 0.1386255 -0.08163627 0.03964736 0.11137552 -0.11811608 0.017346635
-0.08207201 -0.00397815 0.10041959 0.029709462 -0.07642065 0.0014566829 -0.0337358 0.08417043
0.06735952 0.09063499 0.10272983 0.096471205 -0.018892908 0.05687754 0.12313081 0.02851729
-0.009327993 -0.099011526 -0.07332899 -0.010452575 -0.026302435 -0.05064959 0.09484992 0.11513198
0.045636103 0.08369547 -0.06548682 -0.07981257 -0.04095046 -0.005366606 -0.015264183 -0.07717468

decoder_lstm.weight_hh_l0 f4 [256, 64]
00000000: fb69 89bd 2d9c 1bbe 7e58 f9bd bcfa 073e
00000010: 6ebc 833d bdb2 8bbd 8e54 14bd ab5d 6ebd
00000020: f799 72bd d90f 8bbd 5b4f 843c 1f4c 8f3d
00000030: 1c4b 28bd 2026 00be 6ffa 963d ebe3 9dbd
00000040: 040d 49bd 0987 843c 159d ad3b de1f 19be
00000050: c8ee ccbd 4637 063b 327d 163c 676e 9cbd
00000060: 0036 003e 66de 0abe c359 473c 2c70 58bd
00000070: 6cf0 813d fcae 87bc c4a3 fcbd 45f8 813d
00000080: 1cb3 b63d e3ca d63d 7fff 83bd 6cf9 85bc
00000090: d327 d6bd 28cf bf3d 2200 e2bc 6aeb 713d
000000a0: 9cf0 a8bd 2830 c6bc da61 5dbc f817 9cbd
000000b0: 742e 083e 527a 183d 8f59 783c c39b dbbd
000000c0: ef5b ad3d 3bb5 7a3d 57f6 9d3d 0886 553c
000000d0: a050 ec3c 2d50 233d 9419 0cbe e50d 09be
000000e0: b487 efbc 3d31 b3bd 5a7c 823d 2c2b 6c3d
000000f0: 9214 483d 06c7 f73c 5897 a7bd 3b30 953c
00000100: 3701 27bb 5df4 e63d 8878 76bd fbcf 2cbb
00000110: a6ec 5dbc 325f bfbd c1ee 8a3d 4924 903c
00000120: d162 1dbe b8a8 2abd 085e 0ebe 199f 96bd
00000130: 9285 25bd 48f0 d7bd 3aa8 94bb bf9c e93d
00000140: 0732 b6bc 64b1 b13d 7dbe b1bd b8a8 583d
00000150: 9e4d e7bc 7fd8 a53d f074 b93d c78d 2a3c
00000160: 7ccb b43d 4e89 963d 757a f8bc 7638 663d
00000170: 4abe b3bd dc82 fcbc 9528 fd3c 6c48 4b3d
00000180: eae9 e3bd dc6f b3bd 5a9e 51bd cbb8 60bd
00000190: fb24 8fbd f6a0 c0bc 42a8 a53d fd36 d43c
000001a0: 58f0 edbd 5f70 22bd 633f 83bd f720 6a3d
000001b0: ee1e acbd 4eb2 3d3c 8ab2 c73c c03b b93c
000001c0: ee17 4d3d b58b 173d 1d8e edbd 7b22 18bd
000001d0: 7822 143d 4e4f 853d c0b5 623c 672b bb3d
000001e0: d4cb 02bd e337 2cbd 8f41 71bd c3ea 1bbd
000001f0: d1ec 413b 6d88 fabd ac06 3bbd 4225 c1bc
00000200: 500e 13bd 809b af3d 17a9 8b3c db58 123e
00000210: 7b22 373d 6cf3 a1bc 9d2b 84bd 0868 11bd
00000220: fddc bfbd d90c 62bc 1ee8 083c 6c32 a53d
00000230: 8a7a 913d 56f2 e83d 6457 aebd 6c78 973d
00000240: 862f 17bd 93ea 103e 3232 863d 40d0 9bbc
00000250: 9d96 88bc 7217 b03d 8444 05be c1e7 f03d
00000260: 3238 dd3d cea5 06be 1be5 933c 63bc ab3c
00000270: 679c 4b3d 90d7 eebd 3b07 433c 0b0e b6bd
00000280: ceba 273d 7aca e03d 46b5 04bd cca6 c8bd
00000290: 76e5 8ebd a5cf bc3c 66d2 d2bb 28bc 9cbc
000002a0: 1fae 973d 5da5 e8bd e888 d23b 1fb0 8abb
000002b0: 135f 933d 5e29 6d3d c493 743c ce16 96bd
000002c0: c11a 3fbd 544d c73c c0c0 8dbd 978a 153e
000002d0: cbe2 babc acd3 10bd 6e19 38bd de47 a03d
000002e0: 5c75 b13d f3d8 0f3e 4703 203d f65a b6bc
000002f0: 189c f5bd a777 f13c 6e1c c13d 36d5 8cbd
00000300: bc81 b03c 4a6a 303d 6a18 30bd 68f9 b4bd
00000310: a686 10bc 32aa 043d 9e38 c2bd 0a94 ae3d
00000320: 1196 2d3d 272b 33bd 5b2f dc3b 08d1 b03c
00000330: a421 e6bd 7f45 833c 8175 d63d 8dd1 94bd
00000340: e792 bbbc f450 90bd f3cf 21bd 11f6 f43c
00000350: 95fb b0bd 3bdc ca3d 787a 13bc 4abe 583d
00000360: a0d4 8abc 863f 623d 77a9 6bbc 87e0 d43c
00000370: c786 72bd 062c 95bd bdd1 c03d f4d3 e73d
00000380: 992c 7bbc a590 a13c cb40 ffbd f64f b2bd
00000390: 0ded 743c a398 1e3c c24b 8bbc 6814 c1bd
000003a0: d77b 583d aaf6 043e 86e0 723d 8cb6 dabc
000003b0: 25f6 c9bd ef96 01bd 660c 84bd bf37 0c3e
000003c0: 1a7a e6bd 43c1 6e3a fff6 ec3d d7aa e13d
000003d0: e27b e3bd d584 89bd d5c3 473d 6e7f ba3d
000003e0: ed01 ca3d d274 c93c 2c6b b5bd 8ea6 6abc
000003f0: faf4 abbd 7dbf 443b fe34 e9bc 71e9 983d
-0.06709667 -0.15196295 -0.12175082 0.13279241 0.064324245 -0.06821201 -0.03621345 -0.058194797
-0.059228864 -0.06790132 0.01615112 0.06996941 -0.041087255 -0.12514544 0.07371985 -0.077094875
-0.04908468 0.016177671 0.0052982667 -0.14953563 -0.100064814 0.0020479723 0.009185122 -0.07638245
0.125206 -0.13561401 0.012167397 -0.05284135 0.06344685 -0.016562931 -0.12335923 0.06346182
0.08920881 0.10487916 -0.064452164 -0.016354285 -0.104568146 0.09365684 -0.027587954 0.0590624
-0.082490176 -0.024192885 -0.013512099 -0.07621759 0.1329897 0.03722603 0.015158071 -0.107230686
0.084648006 0.06120799 0.07713001 0.013032444 0.028847039 0.039871383 -0.13681632 -0.13384207
-0.029239513 -0.08749626 0.063713744 0.05765836 0.048847742 0.030246269 -0.081831634 0.018211475
-0.0025482902 0.11277077 -0.06017354 -0.0026369083 -0.013545191 -0.09344329 0.0678382 0.017595427
-0.15369727 -0.04166481 -0.13903058 -0.07354564 -0.040410586 -0.10543877 -0.0045366557 0.1140685
-0.022240652 0.08676413 -0.08678911 0.052895278 -0.028235253 0.08097934 0.09055507 0.010409779
0.08827874 0.073504075 -0.03033183 0.05620619 -0.08776529 -0.030824117 0.03090314 0.049629614
-0.111286 -0.0876157 -0.051176406 -0.054863732 -0.06989475 -0.023514252 0.08088733 0.025905127
-0.116181076 -0.039657947 -0.064085744 0.057160344 -0.08404337 0.011578156 0.024377126 0.022611499
0.05007165 0.03699847 -0.115993716 -0.03714226 0.036165684 0.06509267 0.013837278 0.09139138
-0.031932667 -0.042045485 -0.058900412 -0.038065683 0.0029590616 -0.122330524 -0.04566066 -0.023577336
-0.03590232 0.08574581 0.017048402 0.14291708 0.044710618 -0.019769393 -0.06453631 -0.035499603
-0.09368322 -0.013797008 0.008356122 0.08066258 0.071034506 0.11374347 -0.08512762 0.073960155
-0.036910556 0.14151983 0.06552543 -0.0190202 -0.01667338 0.08598222 -0.13014418 0.117629535
0.10801734 -0.13149187 0.018053582 0.020963853 0.049709704 -0.11662209 0.011903579 -0.08889397
0.040949635 0.10976119 -0.03239944 -0.09797439 -0.0697736 0.023048231 -0.006433773 -0.019132689
0.07406258 -0.113596655 0.006425012 -0.004232421 0.07195868 0.05790078 0.014927808 -0.073285684
-0.046656374 0.024328865 -0.0692153 0.14603649 -0.022813221 -0.035358116 -0.044946127 0.078262076
0.08664963 0.14047603 0.039065626 -0.02226017 -0.11992663 0.029476 0.09429251 -0.06876604
0.021546237 0.043070115 -0.042992033 -0.08836633 -0.008821165 0.032388873 -0.09483455 0.0852433
0.042379443 -0.043742325 0.0067195124 0.021584049 -0.11236885 0.01602435 0.10471631 -0.07266531
-0.022897197 -0.070466906 -0.039504956 0.02990249 -0.086417355 0.09905287 -0.009001367 0.05291585
-0.01694709 0.055236362 -0.014383665 0.02598597 -0.059210565 -0.072837874 0.094150044 0.11319724
-0.015330457 0.019722292 -0.1246353 -0.087066576 0.014949095 0.009679946 -0.017003898 -0.0942772
0.052852478 0.1298472 0.059296153 -0.026698373 -0.098614015 -0.031638082 -0.06447677 0.1369314
-0.11253758 0.0009107778 0.11570548 0.11018913 -0.11107613 -0.06714789 0.048770744 0.091063365
0.098636486 0.024591837 -0.08858332 -0.014321936 -0.08396335 0.0030021362 -0.028467651 0.074664004

decoder_lstm.bias_ih_l0 f4 [256]
00000000: a1ba f13c 3728 c2bc 4ac2 b6bb 5d5b e7bd
00000010: e95a 03bd a82b a9bd 20b5 403c 06cb e03d
00000020: 5731 133e 0033 0d3d ceec bc3d 2c77 2b39
00000030: b1fb bfbc 82d0 f0bc fe05 1d3e 7fce c73b
00000040: a14e 24bd 3ba8 cfba de2f c4bd 8774 a0bd
00000050: 42e2 b33d 6c5c b9bd 14d6 ba3d a408 0bbd
00000060: bb44 1dbe 1e4a a7bd 8d6e b33d ae86 8f3d
00000070: 9204 0cbc 7829 c83b 6d89 db3d 39cd ba3d
00000080: 438f 03be 7f43 8d3c 12cd abbc da56 8f3b
00000090: 305f a33d 6d0c d6bb 58dd 813d 47eb 013d
000000a0: 26ff 8cbc 6401 0c3e 4b6c 22bc 5051 00bd
000000b0: e749 b53d 7eea f63d 0e28 9dbc 06dc a4bd
000000c0: ee81 f73d c589 2ebd 429f 4e3d b914 44bd
000000d0: 072b ba3d 09b5 1c3e 01eb ee3d 18a6 0a3d
000000e0: 579d 5a3d 01ff d73d d70f 13bd 8de5 ac3d
000000f0: 825f 833c b495 a6bd e1bf 583c 9586 3c3d
00000100: 548d f4bd 65b5 4abd 4120 12bd 3743 dc3d
00000110: d84f 103d b7c9 ddbc b451 373d 5b27 0abc
00000120: 40b5 c33d 7311 87bc 4780 e4bd 592c ee3c
00000130: ada0 0d3d d703 03bd 38c0 8c3b e22e cc3d
00000140: 4cf4 dd3d 33df 2d3d b1df 7fbc 9d1b 943d
00000150: 50f9 66bd 4dc2 0dbe b472 05be 3326 a23d
00000160: d4ce c73d 2d0e 96bd 3617 1fbd 91e9 79bd
00000170: c254 8b3d e7d4 ae3d d278 2a3d ff3a 8bbd
00000180: ff31 b0bd 34f7 d6bc 846e 16bd 27b0 05be
00000190: 58f2 55bd 852e ba3b 70c8 c43c 5903 9f3d
000001a0: f1e2 f4bc 82eb c4bc 53ec 45bd 1a19 1c3b
000001b0: c7b5 bf39 ca5a 783d e6f5 9dbd a49c 6f3d
000001c0: f644 17bd 221e b23d f0fd 26bd 2b71 81bd
000001d0: 2127 b03d c553 0abb 8e24 d83b be63 673d
000001e0: 546b 0f3e 8d46 e1bd 04dc 36bd 5612 8abd
000001f0: fe90 593d 2295 683d cb60 a13d aa13 a63d
00000200: 9d38 1d3d 319c d53d 1bf9 733c 669f 773d
00000210: 1094 863d 8805 29bd a1e5 98bd 0e60 9abd
00000220: f712 9abd 2604 24bd bf34 90bc bbd3 c03d
00000230: b55e fa3d d4b2 a63d 5816 ab3c b11b 62bd
00000240: 6a1a b93c 6647 3fbc 738e 28ba 69ff 703c
00000250: 67aa 2dbc 2ddf 993d 5cbf 913d 3513 14bd
00000260: fb0c 10be 787c c6bc c188 eabd 1f13 1bbd
00000270: e689 4bbd 8ab9 ebbd 40df 51bd 6a93 e8bd
00000280: 3ea2 513c d8c4 73bd e0c7 9c3d 1fee b93d
00000290: 824a 3e3d 3ac6 dcbd d975 393d f489 52bd
000002a0: 668f 11bd 535d 52bd 044a 8e3d e8a0 a2bd
000002b0: 37db d03d 018c 983d f2d0 343b 9a40 c73d
000002c0: b795 b13d 26df b8bd 76da 093c 981f f73d
000002d0: 2e6c bc3d 3a85 9f3d 22e0 003e 41ff 5d3d
000002e0: a58a 973d 5832 a9bd df8a cb3d 90bc d73b
000002f0: 157b 72bd 0035 363d 2a72 7fbd 2285 2d3d
00000300: e04d 85bc ee2f 9cbd 8ae5 023e 53c7 863d
00000310: 59fd 89bd 7216 7bbd 91a0 c4bd 545a 54bd
00000320: 5274 0f3e ee3c f63a 516e 243c 4ddf b03c
00000330: 3ad5 07bd d5e5 0e3d 8a95 00bb 277a 59bd
00000340: 36f2 72bd d6ce a63c d1e4 073e 89ff 8d3d
00000350: 0784 42bd 6a37 92bc c142 57bd 1c81 56bd
00000360: ede2 043c 09c6 7fbd a164 5a3d ba6e 833d
00000370: 930a 1bbe 4690 843d 1a05 ad3d d09f 0dbe
00000380: ef97 873d dda0 963d 9d86 73bc 4cce a5bd
00000390: 076b 0e3d 31f7 0dbd 3932 b13c 4fd9 5c3d
000003a0: 6227 2a3d 2fb7 9dbd 6f2b 043c f63f c7bc
000003b0: f713 eabc bd63 e43d ed9a 8dbd 888b 47bd
000003c0: 1b38 f2bd 7b4d 55bd 5049 0b3e f56d 063e
000003d0: 2ccc e13d 2e46 acbd f19d c7bc 0321 d53c
000003e0: 1fda 6ebd c49b b8bd 5ab7 dc3d e76d c43d
000003f0: 6a51 63bd 3824 f6bc f306 3dbc 58f2 06bd
0.029507937 -0.023700817 -0.0055773603 -0.11296723 -0.03206912 -0.0826028 0.011761934 0.10976224
0.1437429 0.034472466 0.092248544 0.00016352226 -0.023435446 -0.0293963 0.15334317 0.0060976143
-0.04011405 -0.0015842983 -0.095794424 -0.07834726 0.0878339 -0.09050831 0.091228634 -0.033943787
-0.1535825 -0.081684336 0.0876132 0.0700811 -0.0085460115 0.006108459 0.10719571 0.09121174
-0.12847619 0.017244099 -0.020971809 0.004374367 0.0797714 -0.006532243 0.06341046 0.03171852
-0.017211508 0.13672405 -0.009913514 -0.031327546 0.088519864 0.120564446 -0.019184139 -0.08049779
0.12085329 -0.042611856 0.05044485 -0.047871325 0.09090238 0.15303434 0.11665917 0.033849806
0.053372707 0.10546685 -0.035903778 0.08442221 0.016036753 -0.08134022 0.013229341 0.046026785
-0.11941019 -0.049489398 -0.03567529 0.10755008 0.035232395 -0.027073724 0.044755653 -0.008432235
0.09556055 -0.016487813 -0.111572795 0.029073881 0.03457706 -0.031986084 0.004295375 0.0996988
0.108376116 0.042449187 -0.015617297 0.07231829 -0.056390107 -0.13843651 -0.13032037 0.07917442
0.09756246 -0.073269226 -0.038840495 -0.061013762 0.06803276 0.08536702 0.04161913 -0.06798362
-0.08603286 -0.026240923 -0.03672649 -0.13055478 -0.05223307 0.005681815 0.024021357 0.077643104
-0.02989337 -0.02403808 -0.04832108 0.0023818673 0.00036565794 0.06063346 -0.07712917 0.058498994
-0.036931 0.08697154 -0.040769517 -0.06320413 0.08601213 -0.002110706 0.0065961545 0.056491606
0.14005786 -0.109997846 -0.044643417 -0.067417786 0.05311679 0.05678285 0.0787979 0.08109219
0.03838407 0.10430182 0.014890934 0.06045475 0.065712094 -0.04126504 -0.07465673 -0.07537852
-0.075231485 -0.04004302 -0.017603276 0.094153844 0.12225095 0.081395775 0.020884678 -0.05520219
0.022595603 -0.011674738 -0.0006429918 0.014709332 -0.010599709 0.075132705 0.07116577 -0.03615113
-0.14067452 -0.024229273 -0.11451865 -0.037860032 -0.049692057 -0.11509998 -0.0512383 -0.11356242
0.012795029 -0.059513897 0.07655311 0.09078621 0.046457775 -0.10779996 0.045278404 -0.051401094
-0.035537146 -0.051358532 0.06947711 -0.07940847 0.10198062 0.074485786 0.0027590361 0.09729119
0.08671134 -0.09026937 0.008413902 0.12066573 0.09200321 0.07789083 0.125855 0.054198507
0.07399491 -0.082615554 0.09938597 0.0065837577 -0.05919941 0.04448414 -0.062364735 0.042363293
-0.016272485 -0.07626329 0.12782875 0.06580987 -0.06737775 -0.061300702 -0.09600938 -0.051843956
0.14009216 0.0018786469 0.010036067 0.021590853 -0.033162333 0.034887154 -0.0019620382 -0.05309501
-0.05931302 0.020362299 0.1327088 0.06933505 -0.047489192 -0.01784869 -0.052553896 -0.052369222
0.008110744 -0.06244472 0.053318623 0.06417604 -0.15140752 0.064728305 0.08448239 -0.13830495
0.06620776 0.07354901 -0.014863637 -0.08095989 0.034770038 -0.03465957 0.021630393 0.05391818
0.041541465 -0.07700955 0.008066996 -0.024322491 -0.028573973 0.11151836 -0.069143154 -0.04871705
-0.118271075 -0.052075844 0.13602185 0.13127883 0.11025271 -0.08411823 -0.024367305 0.026016718
-0.058313485 -0.09014085 0.10777159 0.09591275 -0.055497564 -0.030046567 -0.011537301 -0.03294596

decoder_lstm.bias_hh_l0 f4 [256]
00000000: 4c10 0ebc bf32 9d3d 131b 17bd 574f 4cbd
00000010: 1701 a5bd 4e36 aa3d b1db 5039 f488 1a3e
00000020: 7fd9 163e 737d 853d ab8f 09be 2290 2dbc
00000030: 86e1 a53d 5c6c 02bd 41c3 6b3d 43dc 95bd
00000040: c19b e1bc de0e 0dbd 568d 883d 420c 0ebd
00000050: 65e0 623d 9162 34bd 4811 c7bd f590 363d
00000060: 2c56 24bd ea1c a53d 9b0a 143d 8154 83bc
00000070: 496c a43d a56b 303d a064 28bd 539b 843d
00000080: ac17 c3bd 704a 86bd 40ea 983d 08e0 bcbb
00000090: de3f 1abd 5d90 ddbc 476a 663d 556d 1fb9
000000a0: c5c2 02be a38c 113e 6261 ef3d 5ecf e73d
000000b0: 10cc 72bd 5616 643d 544f 963b 73f4 8dbd
000000c0: 20bd d1bd 6571 28bd 826f 16bd 5beb 8bbc
000000d0: 6f4c f43d a4ba 4e3c fa0e 07be 8b99 173d
000000e0: ca7f 76bd 6635 8a3d 1d74 c23d 5ab6 113e
000000f0: 0e5f b9bd ee07 a73d 921d f53d 1728 ab3d
00000100: e826 9d3d f5b2 46bd 73cb c13d f13d d43d
00000110: 708f af3b f919 c6bd c71a 0d3e 5439 eb3d
00000120: 9a7b 833d 20d8 953d 3da7 573d 54a8 603d
00000130: 3c1a e7bb 03c6 ab3d 04c1 6d3d bf31 5ebd
00000140: ee28 b2bd 904d cc3c 1230 cf3d cf2a e6bb
00000150: 48c3 e4bc 0262 b0bd c267 cc3d 8e6e c33d
00000160: 5306 b8bc 7664 4a3d 57b8 cbbd 4d2e 78bd
00000170: 8c31 a0bd f099 7c39 d82e 103e 8e71 c33c
00000180: 0a57 0cbe de88 373c 73ef 963d 7cf6 35bb
00000190: 4650 c53d f018 dcbd 3def d23d ee3d 3ebc
000001a0: 2b34 e73d 8c8c 033e 12d3 97bd 4c28 65bd
000001b0: 78ff 673d a936 ecbc a4cb b73d 3b78 bfbc
000001c0: 79c0 a1bd 35d2 0bbd ba38 703d af31 b03d
000001d0: 3e1b 0b3e 3679 5cbc 74f4 cebd 58a3 2e3b
000001e0: 43ae e43d 5181 dcbd 5dce 8d3d 64d9 ad3d
000001f0: cf88 923d 82c3 9fbc 5699 bf3d 2e8b b9bd
00000200: c774 65bd 11f0 c73d 378f 56bd d869 c23c
00000210: 1c0c 883d 5525 abbc e3a4 b13d 9aed 933c
00000220: 54e4 1ebc b186 813d 3539 7bbd 2e9c 4ebd
00000230: d3d7 a33d 005d 5e3d 483a c93c 8e6e 9f3c
00000240: 3d7e ae3d 3115 933d 122c d9bd e05e a8bd
00000250: a4e9 a1bd 9bfb d53d 66fe 09be eca3 7ebd
00000260: 89df 6abd b895 cdbc e4a6 11be bc39 7f3d
00000270: 02cc aebd 35bf d8bc 477d cf3d c818 d03d
00000280: d607 1b3d b7b6 d1bd d9a4 54bd d212 a63d
00000290: 28c8 3ebd 2204 a4bd cedc b7bd f2ed 203d
000002a0: 6a16 1cbd 06ee af3b bbc3 5a3d 0cff 823d
000002b0: 6347 dabc 63b4 05be 6389 713d ee36 8e3d
000002c0: 173b b9bd b33e 7b3d e537 4a3c 9403 dbbd
000002d0: 7a9f ce3d c169 c1bc 92d2 823d 89c0 d53d
000002e0: 3fbc cabd 053f ebbd 7326 fd3d 2942 0dbe
000002f0: 72b0 293c 2f83 043d a732 c83d bab5 7cbd
00000300: 18fc c6bd fdce 2ebd 7c01 d73d cc3f d13b
00000310: c25a 68bd 3314 c3bd b5cf 8bbd 4fd1 d7bb
00000320: b3a7 243e 8d31 0b3d 6a94 49bd 50d4 4abd
00000330: f996 aebd 2b0f 013d 15dd 7fbd 8c74 ab3d
00000340: 50c9 193d 136e 833d 25ae 353d fe1d 923c
00000350: 6e71 043e d7af 143d f44a b9bd 29b6 ff3d
00000360: 1cee e5bc 0ab5 8cbc 52df d5bd 8b1c a5bd
00000370: 4e2a 98bd e369 053e 6231 4f3d 771f 06bd
00000380: f942 aa3d 3b0a d43d 1647 933c 0894 2a3c
00000390: 86cf 913d 84f8 a9bd 4f62 14be 5c25 82bd
000003a0: 4976 843c 2dd1 dc3d 5773 2e3d 694a 9fbd
000003b0: a6f5 633d a787 89bd a866 603d 2936 d0bb
000003c0: cfb9 24bd 069b eb3d 149d a7bd 7e87 84bd
000003d0: bff9 003d 3049 8abd b27a 063e 83fa 8abd
000003e0: b8a4 9a3d 354f c8bc 1a28 f0bd 95e7 f73c
000003f0: 22ab 2eba 613c 1cbd e69a bdbd 89ba 3e3d
-0.008670878 0.07675695 -0.036891054 -0.049880352 -0.080568485 0.08311139 0.00019918267 0.15091306
0.14731406 0.06518068 -0.13433711 -0.010593446 0.08099656 -0.03184162 0.057559256 -0.07317402
-0.02754009 -0.034438007 0.06667583 -0.03467966 0.05538978 -0.044039313 -0.09720093 0.044571836
-0.040121242 0.080621555 0.036142927 -0.016031506 0.08028466 0.043071408 -0.04111159 0.06474938
-0.095259994 -0.065571666 0.07466555 -0.0057640113 -0.037658565 -0.027046377 0.056253698 -0.00015204151
-0.12769611 0.14213805 0.11688496 0.11318849 -0.05927664 0.055685364 0.0045870934 -0.069313906
-0.10241151 -0.041123766 -0.036727436 -0.01708 0.11928641 0.012617741 -0.13189307 0.037011664
-0.060180463 0.06748466 0.09494803 0.14229718 -0.09051333 0.08155809 0.11968531 0.08357256
0.076734364 -0.04851051 0.09462633 0.10363377 0.0053576753 -0.09672923 0.13779746 0.11485544
0.064200595 0.07316613 0.052649725 0.05484803 -0.007052688 0.08387377 0.058045402 -0.05424666
-0.08699213 0.024939328 0.101165906 -0.007024146 -0.027925149 -0.086124435 0.09980728 0.09542571
-0.022463953 0.049412213 -0.099472694 -0.06059103 -0.0782195 0.00024089939 0.1408037 0.023857858
-0.13705078 0.011202065 0.0736989 -0.0027765324 0.096344516 -0.10746944 0.10299537 -0.011611445
0.11289247 0.12846583 -0.07413305 -0.055946633 0.05664012 -0.028834658 0.08974388 -0.02337276
-0.07898039 -0.034136016 0.05864785 0.086032264 0.13584611 -0.013456633 -0.101052195 0.0026647653
0.1116605 -0.10766853 0.06924126 0.084887296 0.071550004 -0.019502405 0.093554184 -0.090597495
-0.05601957 0.09762586 -0.052382674 0.02373211 0.06642935 -0.020891825 0.08674028 0.018057633
-0.009697992 0.063245185 -0.061333854 -0.050441913 0.080001496 0.05428791 0.024563923 0.019461896
0.08520172 0.07181776 -0.10604109 -0.08221221 -0.079058915 0.104483806 -0.13475952 -0.062168047
-0.057342086 -0.025095806 -0.1422382 0.06231092 -0.08535005 -0.026458362 0.10131317 0.10160977
0.03784927 -0.10239928 -0.051915023 0.081090584 -0.046577603 -0.08008601 -0.08977662 0.039289422
-0.038107313 0.005368951 0.05340932 0.063963026 -0.026645368 -0.13057093 0.058968913 0.06944071
-0.090444736 0.06133909 0.012342428 -0.10694042 0.100890115 -0.023609998 0.06387819 0.10437114
-0.09899186 -0.114866294 0.12360849 -0.1379477 0.010357009 0.03235167 0.09775286 -0.061696745
-0.09716052 -0.04267787 0.1049833 0.006385779 -0.05672718 -0.09525337 -0.06826726 -0.006586231
0.16079597 0.033982802 -0.049213804 -0.049518883 -0.085248895 0.031508606 -0.0624667 0.08371839
0.037545502 0.06417479 0.04435553 0.017836567 0.12933895 0.036300506 -0.09047499 0.12485916
-0.028067641 -0.01717617 -0.104429856 -0.08062085 -0.07429944 0.13028674 0.050584204 -0.03274485
0.08313555 0.10353514 0.017978232 0.01041127 0.0711966 -0.08299354 -0.14490627 -0.06354782
0.016169684 0.107820846 0.042590465 -0.077778645 0.05565419 -0.06715327 0.0547854 -0.0063541126
-0.040216263 0.11504178 -0.08184257 -0.064711556 0.031488176 -0.06752241 0.13132742 -0.067860626
0.07550949 -0.024451831 -0.11726399 0.030261794 -0.0006663074 -0.03814352 -0.0925806 0.046564613

output_layer.weight f4 [1, 64]
00000000: 601e 0c3e d1c6 d2bd b587 2cbe 9514 163d
00000010: 64b1 6d3d eefa e43d adf8 e63d 3a88 993d
00000020: 9e68 823d 6b68 21be aa31 0dbd b995 d2bd
00000030: b4af 7ebd 1031 c63d a702 283e 5bb8 e7bd
00000040: 11ff 443d a2a1 033e cdac 883c 7bbe 1dbe
00000050: 9afb e3bd 0029 da3d 6142 d8bc 5412 2a3d
00000060: 5fa7 203e 8255 88bd 2511 9e3d 6c5e 30bd
00000070: cb45 2fbe 6b1c 8c3d 35b8 8bbd 9f9a ec3d
00000080: 2d38 3bbe 5d96 97bd 7f38 20be 053c 14be
00000090: 4dff 1cbe 98b2 d03d c57f 573d 5ddc c0bd
000000a0: 0604 bb3d 3c30 e8bd e1a2 aabd e524 123e
000000b0: ae71 613d 37f9 e53d eff0 fc3d 23eb a13c
000000c0: 028d fd3d 0bfe 423d bd7b a53d 55b9 bf3d
000000d0: c7e5 5a3d ead5 fdbd 0214 9bbd a48c 9dbd
000000e0: 185e 023e 32ee d03d 2e0c e2bd 9e28 063e
000000f0: 03c5 8ebd 457f bc3c 97aa aebd f3c5 a4bd
0.13683462 -0.102918275 -0.16848643 0.036640722 0.0580305 0.111806735 0.112779 0.07496686
0.063676104 -0.15762489 -0.03447119 -0.102824636 -0.062179282 0.09677327 0.16407262 -0.1131446
0.048094813 0.12854627 0.01668396 -0.15404694 -0.111319736 0.106523514 -0.02639884 0.041521385
0.15688847 -0.06656934 0.07718114 -0.043058798 -0.17116468 0.06841358 -0.06822244 0.11552929
-0.18283148 -0.074017264 -0.15646552 -0.1447602 -0.15331765 0.10190314 0.052612085 -0.09417031
0.09131627 -0.11337325 -0.08331848 0.14271887 0.055040054 0.112291746 0.12350642 0.019765442
0.12380411 0.047605556 0.08080242 0.09361521 0.05344179 -0.123943165 -0.075721756 -0.07692841
0.12731206 0.10201682 -0.11037479 0.13101432 -0.06971171 0.023009906 -0.08528631 -0.08045568
