model_training/model.pth (torch, 137585 bytes, 7 tensors)

encoder.0.weight f4 [64, 3]
0	0xbe942423	-0.2893382
1	0xbeed18ca	-0.46307975
2	0xbe80c76a	-0.2515214
3	0xbee88505	-0.45413986
4	0xbeaa01dd	-0.33204547
5	0xbe80e46a	-0.25174266
6	0xbedace2e	-0.42735428
7	0xbdbcab50	-0.09212363
8	0x3d6dc180	0.058045864
9	0x3ef7cb06	0.48397082
10	0x3d371173	0.044694375
11	0xbddba741	-0.107252605
12	0x3f0c0fae	0.54711425
13	0x3e61e4e2	0.22059968
14	0x3f10f429	0.5662256
15	0x3d9fc737	0.07801669
16	0x3e70d6d2	0.23519447
17	0xbdb20475	-0.08692256
18	0xbf064822	-0.52453816
19	0xbe33a2e2	-0.17542604
20	0x3ef26d1c	0.4734887
21	0xbe94e7fb	-0.29083237
22	0x3e50a36e	0.20374843
23	0x3dbadfa7	0.091246895
24	0xbf06f58c	-0.52718425
25	0xbf04be6c	-0.5185306
26	0xbef2492c	-0.4732145
27	0xbd154278	-0.036440343
28	0x3d44c145	0.04803588
29	0xbd9c13de	-0.07620977
30	0x3f008f2c	0.5021846
31	0xbe0486a3	-0.12941985
32	0x3f047535	0.51741344
33	0xbedd9bc4	-0.43282902
34	0x3e55e0a5	0.20886476
35	0xbe0866f9	-0.13320531
36	0x3d4ca600	0.049962997
37	0xbe9983c1	-0.29983333
38	0x3ec1cac8	0.37850022
39	0xbe943640	-0.2894764
40	0x3ee601bb	0.44923195
41	0x3ed9f2f2	0.42568165
42	0x3ede2df8	0.43394446
43	0xbe80da34	-0.25166476
44	0xbe878452	-0.2646814
45	0xbec17912	-0.37787682
46	0x3eaab64b	0.33342203
47	0x3eb945bc	0.36186016
48	0x3e0a9485	0.13533218
49	0x3ed666c2	0.41875273
50	0xbed0702b	-0.40710577
51	0x3d0e4dc0	0.034742117
52	0xbf1269de	-0.5719279
53	0xbd713250	-0.058885872
54	0xbd8df18f	-0.06930839
55	0x3ef532b9	0.4789026
56	0x3e3c383e	0.1838083
57	0x3e5323c0	0.20619106
58	0x3f06ea90	0.52701664
59	0x3dc47efc	0.09594533
60	0xbe67835a	-0.226087
61	0x3eff2c70	0.4983859
62	0x3eb095ff	0.34489438
63	0x3e31a9ea	0.17349973
64	0x3e0dbef1	0.1384237
65	0xbe4bfb6e	-0.19920132
66	0xbe78ddc1	-0.24303342
67	0x3eea0db4	0.4571358
68	0x3e26b2d3	0.16279154
69	0xbe5b9608	-0.21443951
70	0xbe939c5e	-0.28830236
71	0x3eadcb40	0.3394413
72	0x3d89f3d9	0.067359634
73	0x3e31e549	0.17372622
74	0xbec0fe5f	-0.3769407
75	0x3f0560df	0.5210094
76	0x3e898721	0.26860908
77	0x3c29f49e	0.010373263
78	0xbefe8a85	-0.49715057
79	0xbef0545e	-0.46939367
80	0x3e0a7374	0.13520604
81	0x3dbfc26b	0.09363254
82	0xbd015e1e	-0.031583898
83	0x3f128da9	0.57247406
84	0xbea0b506	-0.3138811
85	0xbf034401	-0.5127564
86	0xbeb7efc6	-0.3592512
87	0xbe6c6e4b	-0.23088948
88	0x3e6c61e8	0.23084223
89	0x3f070a98	0.5275054
90	0x3e0b1ad0	0.13584447
91	0xbea7ab06	-0.32747668
92	0xbf077cda	-0.52924883
93	0xbede0c62	-0.43368822
94	0xbea8b5d5	-0.32951227
95	0x3ef7c300	0.4839096
96	0x3e905940	0.28193092
97	0xbe5cd87c	-0.21566957
98	0x3ef87740	0.4852848
99	0xbe536995	-0.20645745
100	0x3f03b157	0.51442474
101	0x3ebe0f9c	0.37121284
102	0x3e1e7994	0.15476066
103	0xbdde5198	-0.108554065
104	0x3e8c0700	0.2734909
105	0xbd42ce00	-0.04755974
106	0xbc8df860	-0.017330348
107	0x3e2e61d8	0.17029512
108	0x3e862a7a	0.26204282
109	0xbddff990	-0.10936272
110	0xbe540e88	-0.20708668
111	0x3f0882f0	0.53324795
112	0x3f09bc1f	0.53802675
113	0x3ef60c0a	0.4805606
114	0x3e7915b2	0.24324682
115	0x3dee083b	0.116226636
116	0x3dc43b77	0.095816545
117	0x3ee13ac8	0.4399016
118	0xbdb5e7d3	-0.088821076
119	0xbdb0d8cc	-0.08635101
120	0x3e97f8dd	0.29682055
121	0x3e75b9c1	0.2399664
122	0xbea3cea2	-0.31993586
123	0xbf0e44bb	-0.55573624
124	0x3d7c53e6	0.06160345
125	0xbef312b9	-0.47475222
126	0x3ea7f97e	0.32807535
127	0xbe31a3b2	-0.17347601
128	0xbb345a00	-0.0027519464
129	0x3f153585	0.5828479
130	0x3eacb266	0.33729857
131	0x3e2e1658	0.17000711
132	0x3e9d8bef	0.30770823
133	0x3c135cff	0.00899434
134	0xbdce2e78	-0.10067457
135	0x3ea9d20a	0.3316806
136	0xbec8440c	-0.39114416
137	0xbe0d2282	-0.13782695
138	0x3da6c30e	0.081426725
139	0x3e09c458	0.13453805
140	0x3eaa4c1a	0.33261186
141	0xbdd7bec4	-0.105344325
142	0xbe565f54	-0.20934802
143	0xbe1c44b6	-0.15260586
144	0xbd297e10	-0.04137999
145	0x3d682689	0.056677375
146	0x3edf130d	0.43569222
147	0xbe5901ed	-0.21192141
148	0x3f0606be	0.5235404
149	0xbe864deb	-0.26231322
150	0xbc7a1300	-0.015263319
151	0xbe531866	-0.20614776
152	0xbedb7506	-0.4286272
153	0x3e9212f5	0.28530088
154	0x3df1c84a	0.1180578
155	0x3df44967	0.11928063
156	0x3e035c20	0.12828112
157	0xbf01e38f	-0.5073785
158	0x3ee8d838	0.45477462
159	0xbeedba32	-0.46431118
160	0xbcfadd60	-0.030623138
161	0xbddd12f0	-0.10794628
162	0x3cc8e5d5	0.024523655
163	0x3e01cd14	0.12675887
164	0x3ee0e029	0.4392102
165	0xbe8a4336	-0.27004403
166	0x3e6d3ba1	0.23167278
167	0xbf124f5d	-0.5715235
168	0xbe8643da	-0.26223642
169	0xbecdd748	-0.4020331
170	0x3ea6b938	0.32563186
171	0x3d8fd088	0.07022196
172	0xbecfba10	-0.40571642
173	0x3b6ec800	0.0036435127
174	0x3edf697c	0.43635166
175	0xbf076cf1	-0.52900606
176	0xbec9af3e	-0.39391512
177	0xbe4004c2	-0.18751815
178	0xbeb395a7	-0.35075113
179	0xbde97574	-0.113993555
180	0x3e79d727	0.2439848
181	0x3f016999	0.50551754
182	0xbdba060b	-0.09083184
183	0xbd9b33bf	-0.07578229
184	0x3f05b748	0.5223279
185	0xbf091bc7	-0.5355801
186	0xbdf417df	-0.119186155
187	0x3e5d321c	0.21601146
188	0x3e817317	0.2528312
189	0xbee9137d	-0.4552268
190	0xbf002344	-0.5005381
191	0x3f07b1e2	0.530058

encoder.0.bias f4 [64]
0	0x3e85f34e	0.2616219
1	0x3b7a8400	0.003822565
2	0x3c810d60	0.015753448
3	0xbf106648	-0.5640607
4	0xbea01b8b	-0.31271014
5	0xbee2d6c6	-0.44304484
6	0x3d9e3d80	0.07726574
7	0xbef6c8f1	-0.4820018
8	0xbe812f61	-0.2523146
9	0xbec98d21	-0.39365485
10	0xbea8da5d	-0.32979098
11	0x3e2f3407	0.1710969
12	0x3ea5da7a	0.32393247
13	0x3dd11342	0.10208751
14	0x3eebfdac	0.46091974
15	0xbea89328	-0.3292477
16	0xbdcc7e6d	-0.09985051
17	0xbf0d25ba	-0.5513569
18	0xbae95b0e	-0.0017803626
19	0xbf0eea21	-0.55826
20	0xbef63d16	-0.4809348
21	0xbebc083d	-0.36725035
22	0xbef3197b	-0.47480378
23	0x3eb74a9e	0.35799116
24	0xbd9ef748	-0.07762009
25	0xbebcb007	-0.36853048
26	0xbeb5da83	-0.35518274
27	0x3e5a96a9	0.21346535
28	0xbe69a386	-0.22816285
29	0x3d0ce71e	0.034400098
30	0xbeafee96	-0.34361714
31	0xbf086023	-0.53271693
32	0x3f08f6ae	0.53501403
33	0xbef0370c	-0.46916997
34	0x3d9e6900	0.07734871
35	0x3d9f30b0	0.07772958
36	0xbebea560	-0.37235546
37	0xbe4a8d71	-0.19780518
38	0xbed2d993	-0.4118162
39	0xbec117fe	-0.37713617
40	0xbee674e6	-0.4501106
41	0x3e902f2d	0.28160992
42	0xbe6ff3de	-0.23432872
43	0xbcbbeab2	-0.02293906
44	0x3eb0be9a	0.34520417
45	0xbdfeddbc	-0.12444636
46	0xbead4816	-0.3384406
47	0x3ecb8b80	0.39754868
48	0x3e96e330	0.29470205
49	0x3db99b3f	0.09062814
50	0xbf0c6e1e	-0.54855525
51	0x3d9804df	0.07422804
52	0x3e85ef64	0.26159203
53	0xbea5674d	-0.32305375
54	0xbc9c6010	-0.019088775
55	0xbea8daad	-0.32979336
56	0x3e9b38dc	0.30316818
57	0x3ec58804	0.38580334
58	0x3ec87a14	0.39155638
59	0x3eb1204e	0.3459496
60	0x3e67461e	0.22585341
61	0xbe8b2ef2	-0.27184254
62	0x3dd8f54c	0.10593662
63	0xbea425f4	-0.32060206

decoder_lstm.weight_ih_l0 f4 [256, 64]
0	0x3cb1ceb0	0.021705002
1	0xbdb5c5a6	-0.08875589
2	0x3db70c78	0.08937925
3	0xba3b2084	-0.0007138329
4	0x3d0906a7	0.03345361
5	0xbd5d742c	-0.05406587
6	0x3c4b1a00	0.012396336
7	0xbe000107	-0.12500392
8	0x3cdbc6b8	0.026828155
9	0x3bf7b365	0.0075592273
10	0x3d80983f	0.06279039
11	0x3c06cdbc	0.008227762
12	0x3dbf1ace	0.093312845
13	0x3cbad92f	0.02280864
14	0x3db516b8	0.08842224
15	0xbd0592af	-0.03261059
16	0x3d2c4139	0.04205439
17	0xbde2b2da	-0.110692695
18	0x3d8ca204	0.068668395
19	0xbdf03a46	-0.11729865
20	0x3d80fa17	0.06297701
21	0xbd56ff07	-0.052489307
22	0xbdfcdc31	-0.12346686
23	0xbda89aea	-0.082326725
24	0x3d5ace4b	0.053419393
25	0x3d081b70	0.03322929
26	0x3db99252	0.090611115
27	0x3dc6a819	0.09700031
28	0xbd66947c	-0.05629395
29	0x3cae0ba7	0.02124579
30	0xbd200320	-0.03906548
31	0x3dd2d7c2	0.10295059
32	0x3c885ce0	0.016645849
33	0xbd974da3	-0.07387855
34	0xbdb941fc	-0.09045789
35	0xbdabe7a8	-0.08393794
36	0xbddf087a	-0.10890289
37	0xbc2413fa	-0.010014528
38	0xbcfea81a	-0.031086016
39	0xbc493208	-0.012279995
40	0xbd0f658a	-0.035008945
41	0x3d545a02	0.05184365
42	0xbd70abb8	-0.058757514
43	0xbdd9e3b4	-0.10639134
44	0xbd9e076d	-0.0771626
45	0xbde3f482	-0.111306205
46	0x3da4fdad	0.08056197
47	0xbdac0706	-0.08399777
48	0x3dacccee	0.08437525
49	0x3dab4ff2	0.08364858
50	0xbd292ce4	-0.041302577
51	0xbd1e3ca2	-0.038632043
52	0x3de8caba	0.11366792
53	0x3db6354e	0.08896886
54	0x3dd9f532	0.106424704
55	0x3d1db14a	0.038499154
56	0x3dc6e6a6	0.097119614
57	0x3d0b11c0	0.033952475
58	0x3d8734fc	0.06601903
59	0x3dd0a78a	0.101882055
60	0xbd3294ca	-0.043598928
61	0xbcc9e0cb	-0.024643322
62	0x3d7ccff7	0.06172177
63	0xbdbf5f7c	-0.09344384
64	0xbd154734	-0.036444858
65	0x3d185c28	0.037197262
66	0xbd2cd028	-0.0421907
67	0xbe0575e7	-0.13033257
68	0xbd80da00	-0.0629158
69	0x3d1a38fa	0.037651993
70	0xbdf26edc	-0.11837551
71	0xbdf6b113	-0.12045493
72	0x3ca827c0	0.020526767
73	0xbd8b69a8	-0.06807262
74	0xbdcc4933	-0.09974899
75	0x3cdf218e	0.02723768
76	0xbd2e64ac	-0.042576477
77	0xbd27d342	-0.040972956
78	0xbd82cde8	-0.0638693
79	0xbe08b128	-0.1334883
80	0x3db9895d	0.09059403
81	0xbd102bf4	-0.035198167
82	0xbd93a121	-0.07208467
83	0x3dba656b	0.09101375
84	0x3c8fb2ab	0.01754125
85	0xbddd609a	-0.10809441
86	0xbd34c96a	-0.044137396
87	0xbd412f70	-0.04716438
88	0xba5ebb47	-0.00084965344
89	0x3cb25ff2	0.021774266
90	0xbd9f5d10	-0.07781422
91	0xbda5e2ef	-0.08099925
92	0xbd9e847a	-0.07740112
93	0xbd2699a7	-0.040673878
94	0xbd91751a	-0.071024135
95	0x3cc85bf0	0.024457902
96	0x3d8ee258	0.069767654
97	0xbcc3a78f	-0.02388361
98	0xbd5abd78	-0.053403348
99	0xbd3ce6d8	-0.046118587
100	0xbd9ff078	-0.07809538
101	0xbdcb1953	-0.099169396
102	0x3d7d70f5	0.061875302
103	0x3b508643	0.0031818307
104	0x3de9d87f	0.114182465
105	0x3b13c52b	0.0022547941
106	0xbdf2a48e	-0.118477926
107	0xbc3564a6	-0.01107136
108	0x3b6a2905	0.0035730016
109	0xbdc1ac92	-0.09456743
110	0xbdb9f5b7	-0.090800695
111	0xbdcc51c4	-0.09976533
112	0xbd5c7732	-0.05382461
113	0xbdb16bcf	-0.08663141
114	0x3df9a326	0.12189321
115	0x3d09a778	0.033606976
116	0xbdab8396	-0.083747074
117	0x3de902a2	0.11377455
118	0x3d46bc0c	0.04851918
119	0x3dd408e5	0.10353259
120	0xbcace7c0	-0.0211066
121	0x3dea7e32	0.11449851
122	0x3de40ec8	0.11135632
123	0x3d838dae	0.06423508
124	0x3c309df8	0.01077985
125	0xbcbaba4e	-0.022793915
126	0xbbf81c8d	-0.007571763
127	0x3d38783c	0.04503654
128	0xbd63cc98	-0.055615038
129	0x3d554c4c	0.052074715
130	0xbdc47b10	-0.09593785
131	0xbd929489	-0.07157237
132	0xbd78cd5e	-0.06074273
133	0x3d93ba60	0.072132826
134	0x3dd37804	0.103256255
135	0xbcc10b09	-0.023564832
136	0xbcefa908	-0.029255405
137	0xbc6630ff	-0.0140497675
138	0xbc3dbb0d	-0.011580241
139	0xbd47b751	-0.04875881
140	0x3da359da	0.07976122
141	0x3d7ac40f	0.061222132
142	0x3c9e8ff0	0.019355744
143	0xbd629cc4	-0.055325285
144	0x3e00f8c7	0.12594901
145	0xbdfb3624	-0.12266186
146	0xbd452490	-0.04813057
147	0x3e072d6b	0.1320092
148	0xbde217d3	-0.110397
149	0xbd701e2f	-0.058622535
150	0xbd3da220	-0.046297193
151	0x3bede1c0	0.0072595775
152	0x3dc19345	0.094519176
153	0xbd759e25	-0.05996527
154	0xbd85cc3e	-0.06533097
155	0xbdcc3851	-0.09971679
156	0xbd9b1616	-0.07572572
157	0xbd58e959	-0.052956913
158	0xbd9badfa	-0.07601543
159	0x3cc22830	0.023700804
160	0x3c3bce60	0.011462778
161	0x3cfcd15e	0.030861553
162	0x3dad1da6	0.084529206
163	0x3c501f40	0.012702763
164	0x3d94bb98	0.07262343
165	0xbd3eba88	-0.04656461
166	0x3d9c4989	0.07631213
167	0xbdfd53f2	-0.12369527
168	0xbc1cfe0f	-0.009582057
169	0x3de78ad1	0.11305774
170	0x3c6cf590	0.014462844
171	0xbd0578f5	-0.032586057
172	0xbd975754	-0.073897034
173	0xbcd80030	-0.026367277
174	0x3b5a2511	0.0033286253
175	0xbd37a3f0	-0.044834077
176	0xbcf1224c	-0.0294353
177	0x3d067fa3	0.032836568
178	0xbd0ad594	-0.03389509
179	0x3de480c5	0.11157373
180	0x3d4ab0d8	0.049485058
181	0x3d846296	0.06464116
182	0xbd96ab11	-0.07356847
183	0x3e0992d3	0.13434915
184	0xbd907678	-0.07053846
185	0x3de58eda	0.112088874
186	0xbbe999c0	-0.007128924
187	0xbdb52ce0	-0.0884645
188	0xbd9b5b88	-0.075858176
189	0xbd0036b1	-0.031302158
190	0xbd04e820	-0.032447934
191	0xbcd09a20	-0.025464118
192	0xbd6d79f8	-0.057977647
193	0xbd96f2a0	-0.07370496
194	0x3db411ee	0.08792482
195	0x3d41c557	0.04730734
196	0xbd6a72f1	-0.057238523
197	0xbd4243a0	-0.047427773
198	0xbded1038	-0.11575359
199	0x3d8a5de2	0.06756188
200	0x3da98b32	0.082785025
201	0x3d94a596	0.072581455
202	0xbdb92390	-0.09039986
203	0x3db2eb21	0.087362535
204	0x3db8077a	0.08985801
205	0xbd729313	-0.059222292
206	0xbd4302a0	-0.047609925
207	0xbda088da	-0.07838602
208	0xbd76b87b	-0.060234528
209	0xbdbc6680	-0.09199238
210	0x3d6a487e	0.05719804
211	0xbda80f1f	-0.08206009
212	0x3d66ab0a	0.05631546
213	0xbd77592a	-0.060387768
214	0x3daf17bb	0.08549448
215	0x3c42b080	0.011882901
216	0x3d24306c	0.04008524
217	0x3c8db98a	0.017300386
218	0xbd0bb624	-0.03410925
219	0xbd81467d	-0.06312273
220	0x3dd57faa	0.104247406
221	0x3cacf543	0.021113044
222	0x3d2dc1a4	0.042421
223	0xbd3e7ae4	-0.046503916
224	0x3ad33200	0.0016112924
225	0xbd921059	-0.07132024
226	0x3d9b603e	0.07586716
227	0x3d0a6ac8	0.03379324
228	0xbda23fea	-0.07922347
229	0x3cf3738f	0.029718189
230	0xbc38f3f2	-0.01128863
231	0x3dbfd170	0.09366119
232	0x3d2a0a8a	0.041513957
233	0x3dea9db9	0.114558645
234	0x3df48da0	0.11941075
235	0xbd6e7d5c	-0.05822502
236	0xbd31a1fa	-0.043367364
237	0x3cb13e98	0.021636292
238	0xbdb6bb22	-0.089224115
239	0x3da2f52a	0.079569176
240	0x3e07c9fd	0.13260646
241	0x3d32c127	0.043641236
242	0x3d4c4e0c	0.04987912
243	0x3df2e79b	0.118605815
244	0xbd9d17bc	-0.076705426
245	0xbc9a1730	-0.018809885
246	0x3c508205	0.012726312
247	0xbdb5bec4	-0.08874276
248	0x3d1a6bbc	0.0377004
249	0x3d5ec430	0.054386318
250	0x3dffa66c	0.12482914
251	0x3c0eef50	0.008724049
252	0x3c32e4f4	0.0109188445
253	0x3d8d524b	0.06900462
254	0x3daa7930	0.08323896
255	0x3dfdde1a	0.12395878

decoder_lstm.weight_hh_l0 f4 [256, 64]
0	0x3cde7a24	0.02715785
1	0xbdc10e84	-0.09426597
2	0xbdcfb108	-0.10141188
3	0x3afa48fc	0.0019095237
4	0x3b6dbb92	0.003627513
5	0x3c76c808	0.01506234
6	0xbdc19652	-0.094524994
7	0xbdbe9652	-0.09306015
8	0x3d031775	0.032004792
9	0xbdd72bfb	-0.105064355
10	0x3d5d9d0a	0.054104842
11	0x3ddd302c	0.10800204
12	0xbd2d4d3a	-0.042309977
13	0x3bde470e	0.0067833727
14	0x3dbc8f70	0.09207046
15	0xbdb9f4f2	-0.09079923
16	0xbcca30ba	-0.024681438
17	0xbd9ae4b5	-0.07563154
18	0x3d7b53e5	0.061359305
19	0xbd1c2cb1	-0.03812856
20	0xbd1a9f4a	-0.037749566
21	0x3e086418	0.13319433
22	0x3dd8215b	0.10553237
23	0xbe03e8f4	-0.12881833
24	0xbd9ed447	-0.077553324
25	0x3b089276	0.002083925
26	0x3a37245a	0.0006986313
27	0x3c387ce1	0.011260242
28	0x3c4f8501	0.012665988
29	0x3d43a800	0.04776764
30	0xbde3962a	-0.11112626
31	0x3d286edb	0.041121345
32	0x3d3ec387	0.04657319
33	0x3dd921c8	0.106021464
34	0xbdde3a61	-0.10850979
35	0xbc92dd02	-0.01792765
36	0xbd92ca98	-0.07167548
37	0x3dfba168	0.12286645
38	0xbdc5bae2	-0.09654786
39	0x3da67123	0.08127048
40	0x3d858565	0.065195836
41	0xbdad8a92	-0.08473696
42	0xbda1a608	-0.07892996
43	0xbc8032ab	-0.01564916
44	0x3cfb1b6c	0.030652724
45	0xbc53dcbd	-0.012931046
46	0x3c3eb465	0.011639689
47	0xbd823cbb	-0.0635924
48	0x3db3ba41	0.087757595
49	0xbc9b40c3	-0.01895178
50	0xbd8a1aef	-0.067434184
51	0xbdb7416f	-0.08948027
52	0x3c355362	0.011067243
53	0x3d300cf3	0.0429811
54	0x3d8716a9	0.06596119
55	0x3cff32ff	0.031152247
56	0x3d8957a1	0.06706167
57	0x3bbd4c83	0.005776943
58	0xbd1a2d96	-0.03764113
59	0x3d19b655	0.0375274
60	0x3d9b5b63	0.0758579
61	0x3d843458	0.06455296
62	0xbce1d59b	-0.027567675
63	0x3d7dfe22	0.062009938
64	0xbdc01d75	-0.093806185
65	0xbdb33dd7	-0.087520294
66	0xbc00b4bb	-0.0078555895
67	0x3dbd0210	0.09228909
68	0x3d77b320	0.06047356
69	0x3d3ea535	0.046544272
70	0xbc35ad25	-0.011088644
71	0x3c14c31d	0.009079722
72	0x3df8ca53	0.12147965
73	0xbdbfec97	-0.09371298
74	0x3dc1a43d	0.09455154
75	0xbdd3172b	-0.10307153
76	0x3d923970	0.071398616
77	0xbe0b3e53	-0.13597994
78	0x3de1e89b	0.11030694
79	0x3df973f9	0.12180323
80	0x3c17db34	0.009268571
81	0x3c7aad2c	0.015300076
82	0x3d2d82ba	0.042361
83	0x3db20060	0.08691478
84	0x3c9c45ab	0.019076189
85	0xbddb18ba	-0.106980756
86	0xbc025ad7	-0.007956228
87	0x3bcee074	0.006313378
88	0xbda2d586	-0.079508826
89	0xbd9415be	-0.072307095
90	0x3ab98e08	0.0014156708
91	0x3de3510e	0.11099444
92	0x3d4172ef	0.04722875
93	0x3d3ec495	0.046574194
94	0x3e0269fb	0.12735741
95	0xbc8729fe	-0.016499516
96	0xbc8ae35c	-0.016954117
97	0x3de7a609	0.113109656
98	0xbd3f8d8b	-0.046765845
99	0xbdc40acf	-0.09572374
100	0xbd0835f5	-0.033254582
101	0x3d3d36db	0.046194892
102	0xbd83e3e0	-0.06439948
103	0xbd333d24	-0.04375948
104	0x3d43719d	0.047715772
105	0xbc9a9286	-0.018868696
106	0xbd7905b5	-0.06079646
107	0x3ce1bb11	0.02755502
108	0x3d270154	0.04077275
109	0x3da8323c	0.082127064
110	0xbd8680a7	-0.06567507
111	0x3cfd2f1d	0.030906254
112	0xbd7a9630	-0.061178386
113	0x3d1ae6be	0.03781771
114	0xbdba8f5c	-0.09109375
115	0xbd8c3121	-0.06845308
116	0xbd6c771e	-0.057730787
117	0xbb8621d8	-0.00409339
118	0x3dabfd38	0.08397907
119	0xbdadc093	-0.08483996
120	0xbd729fb4	-0.059234336
121	0xbc173182	-0.009228112
122	0xbdaf9b33	-0.08574524
123	0xbde392f8	-0.111120164
124	0xbd4d8d32	-0.050183482
125	0xbdf5dbcd	-0.12004814
126	0xbd15f601	-0.03661156
127	0x3d2f5b0c	0.04281144
128	0x3cffd242	0.031228188
129	0x3d8651bd	0.06558559
130	0x3ca97f26	0.020690512
131	0xbd517ad8	-0.051142544
132	0x3bf68f1f	0.0075243856
133	0xbd30255c	-0.04300438
134	0xbdfb9dfa	-0.12285991
135	0x3c84b663	0.01620025
136	0xbda09d1e	-0.07842468
137	0xbdc2ef22	-0.09518267
138	0xbdcc9520	-0.09989381
139	0xbd8caaad	-0.06868491
140	0x3d4ece57	0.05048975
141	0x3da41fc3	0.080138706
142	0x3dc8a75b	0.097975455
143	0xbdd0f6f8	-0.102033556
144	0x3d2b4bda	0.041820385
145	0x3e00c9c6	0.1257697
146	0x3de9738a	0.113989905
147	0x3daa3c68	0.08312303
148	0x3dc18802	0.094497696
149	0x3dfac1ca	0.122439936
150	0x3d0ffa64	0.0351509
151	0xbd5feb52	-0.05466778
152	0x3df9f31d	0.12204573
153	0xbd0b1d59	-0.033963535
154	0x3d390f8c	0.045180842
155	0xbd90184f	-0.070358865
156	0xbdeeab19	-0.11653728
157	0xbc01b3b0	-0.007916376
158	0xbdf20367	-0.11817055
159	0x3b006f8e	0.0019597742
160	0xbdd16e50	-0.102261186
161	0xbda0e6ee	-0.07856546
162	0xbe059a40	-0.13047123
163	0x3cd9e021	0.02659613
164	0xbcd13c37	-0.025541408
165	0xbd372b26	-0.044718884
166	0xbc527675	-0.012845625
167	0xbd82533d	-0.06363533
168	0xbd4ef0e4	-0.0505227
169	0xbc47b5cd	-0.012189341
170	0x3dd696a2	0.1047795
171	0x3d36e94d	0.044656087
172	0x3d8c8682	0.06861593
173	0x3d6d48bb	0.05793069
174	0xbc734cd9	-0.014849865
175	0x3d3b4edd	0.045729507
176	0x3d8637b6	0.06553595
177	0xbd488107	-0.048951175
178	0x3b10babe	0.0022083963
179	0xbdd8234a	-0.10553606
180	0x3d7bdcb2	0.06148977
181	0x3de3274d	0.110914804
182	0xbcaa76c8	-0.020808592
183	0xbd48aa89	-0.04899076
184	0x3bf644cb	0.007515525
185	0xbdee6130	-0.11639631
186	0xbcd91003	-0.026496893
187	0xbddb929e	-0.107213244
188	0xbdc1983c	-0.094528645
189	0xbd89fecb	-0.06738051
190	0xbe02fe67	-0.1279236
191	0xbdea1dd0	-0.114314675
192	0xbc6cba16	-0.014448663
193	0xbdbf02c6	-0.09326701
194	0x3d313738	0.04326555
195	0xbd2d92df	-0.042376395
196	0xbde55cda	-0.11199351
197	0xbdc769ab	-0.097369514
198	0xbd7c30ed	-0.061570097
199	0xbd3af90d	-0.04564767
200	0x3d7e5f5b	0.062102657
201	0xbdb02a8c	-0.08601865
202	0x3b860450	0.0040898696
203	0x3dd6f159	0.10495252
204	0x3d1bc6e8	0.03803149
205	0x3dc9dec3	0.098569416
206	0xbd87d9b2	-0.06633319
207	0xbdbf0eab	-0.093289696
208	0xbd249108	-0.040177375
209	0x3d31f8d9	0.04345021
210	0xbe01c933	-0.12674408
211	0x3db39243	0.087681316
212	0x3cb68892	0.022281919
213	0xbc55b62f	-0.013043924
214	0xbce472ad	-0.027886713
215	0x3d117684	0.035513416
216	0xbd866b0c	-0.06563386
217	0x3ccd21bb	0.025040498
218	0x3dc280d7	0.094972305
219	0xbccbccdf	-0.024877964
220	0x3d27984f	0.040916737
221	0x3e0826ad	0.13296004
222	0x3db319a2	0.087451234
223	0x3da6b2d4	0.081395775
224	0x3d9c793e	0.076403126
225	0x3e069a09	0.13144697
226	0x3d21a882	0.039467342
227	0xbe0773db	-0.13227789
228	0x3dacb075	0.08432094
229	0xbdb22591	-0.086985715
230	0x3d739452	0.05946762
231	0x3ce08acd	0.027409935
232	0xbdf5b563	-0.119974874
233	0xbd27c259	-0.04095683
234	0x3d16e787	0.036841895
235	0x3d5db569	0.054128084
236	0xbd3cddd1	-0.046109978
237	0xbd6d5b01	-0.057948116
238	0x3d8c5abd	0.068532445
239	0x3d5ddfe0	0.054168582
240	0xbdf07855	-0.117417015
241	0xbddd1a7f	-0.10796069
242	0x3dff3493	0.124611996
243	0x3d45b386	0.04826691
244	0xbd1e82ea	-0.038699068
245	0xbdb0ae2e	-0.08626972
246	0x3d7388d9	0.05945668
247	0x3df2f353	0.11862817
248	0xbd1d687d	-0.038429726
249	0xbdc3b21d	-0.09555457
250	0x3b8471bf	0.00404188
251	0x3d2644d3	0.04059298
252	0x3d8088aa	0.062760666
253	0x3cbadcea	0.022810418
254	0xbdb9aa60	-0.090656996
255	0xbdb98c46	-0.09059958

decoder_lstm.bias_ih_l0 f4 [256]
0	0xbc106a93	-0.008814472
1	0xbdba5b73	-0.09099474
2	0xbc93f2f4	-0.018060185
3	0x3d38e7b4	0.045142844
4	0x3de16274	0.110051066
5	0x3cdd00ec	0.026977979
6	0x3dc998ed	0.098436214
7	0xbc6c2e90	-0.014415398
8	0x3b605720	0.0034231618
9	0x3d80a9f1	0.06282414
10	0xbd8091c1	-0.062778
11	0xbde4d477	-0.11173337
12	0xbd8b1065	-0.067902364
13	0x3c81c2cd	0.015839959
14	0x3df5ed53	0.120081566
15	0xbd359791	-0.044333998
16	0x3c9f37f1	0.019435855
17	0x3d171e46	0.036894105
18	0xbe0b3dea	-0.13597837
19	0xbdc8d43b	-0.09806105
20	0xbd60ceff	-0.054884907
21	0xbd21f974	-0.039544538
22	0x3b7cfee2	0.003860407
23	0xbda308b8	-0.07960647
24	0xbbd1e147	-0.006405029
25	0x3e063217	0.13105045
26	0xbd96fcc1	-0.07372428
27	0x3b8acfcc	0.004236197
28	0x3b282be8	0.0025660936
29	0xbe027ad8	-0.12742174
30	0x3de06d91	0.10958398
31	0xbc1c13a1	-0.009526164
32	0x3d731a91	0.059351508
33	0x3cb7bcd0	0.0224289
34	0xbd98d06a	-0.07461627
35	0x3db3b1ac	0.087741226
36	0x3ded13f4	0.115760714
37	0x3db10712	0.08643927
38	0x3ddd1e96	0.107968494
39	0xbc22662d	-0.009912056
40	0xbdd8953b	-0.105753385
41	0xbc69d8c5	-0.014272873
42	0x3d351840	0.04421258
43	0xbd6f7627	-0.05846229
44	0xbd7e250c	-0.06204705
45	0x3d73b745	0.05950095
46	0xbc80ced9	-0.015723633
47	0x3db3745c	0.08762428
48	0x3c013be3	0.007887813
49	0x3d785227	0.06062522
50	0xbdca29da	-0.09871264
51	0x3cb5b716	0.022182029
52	0x3cac8ea0	0.021064103
53	0xbdc9df38	-0.09857029
54	0xbdebcc34	-0.11513558
55	0xbd2efc73	-0.042721223
56	0xbdbfda13	-0.09367766
57	0x3cd33a8d	0.025784755
58	0xbe039c60	-0.12852621
59	0x3db448c2	0.0880294
60	0xbd0c3e32	-0.034239
61	0x3d8d524f	0.06900465
62	0xbdb3a6ce	-0.0877205
63	0x3ccc39be	0.024929877
64	0x3d0be18a	0.034150638
65	0x3de0bc74	0.109734446
66	0xbda4d617	-0.08048647
67	0xbdaff90d	-0.085924245
68	0x3c1cf50b	0.009579907
69	0xbe08919e	-0.13336799
70	0xbd61f575	-0.055165727
71	0xbd2d195c	-0.042260513
72	0xbcc9a6b4	-0.024615623
73	0xbc93fc80	-0.018064737
74	0xbdbba7d8	-0.09162873
75	0x3da33489	0.07969005
76	0x3dcdaa09	0.10042197
77	0x3c9adfaf	0.018905489
78	0xbd36e7eb	-0.044654768
79	0x3d487b1b	0.048945528
80	0x3dd5d25c	0.104405135
81	0x3de63238	0.11240047
82	0xbda86418	-0.08222216
83	0x3db0591c	0.08610746
84	0xbe035fc8	-0.12829506
85	0xbd88fb8e	-0.06688605
86	0xbd7d5712	-0.061850615
87	0xbd8bd733	-0.06828155
88	0xbd081c4a	-0.033230104
89	0x3e014a11	0.1262591
90	0x3d58b999	0.052911375
91	0xbb19b0b4	-0.002345127
92	0xbdfdc991	-0.12391961
93	0xbdd92f01	-0.106046684
94	0x3b8d7b57	0.004317682
95	0xbc89e3ef	-0.01683232
96	0x3d8bfb65	0.06835059
97	0xbcd92db1	-0.026511045
98	0xbda9c59e	-0.082896456
99	0x3d0e9332	0.034808345
100	0xbdbad3f9	-0.09122462
101	0xbd0dc98d	-0.034616042
102	0xbd93058f	-0.071787946
103	0xbd8d6637	-0.069042616
104	0xbc3a8b52	-0.011385756
105	0x3d954d83	0.07290175
106	0xbdda170c	-0.10648927
107	0x3dd9cb8e	0.10634528
108	0xbd409053	-0.04701264
109	0xbda79595	-0.081828274
110	0x3da33cad	0.07970557
111	0x3d6ee36c	0.058322355
112	0xbdeea45a	-0.11652441
113	0xbd50500b	-0.050857585
114	0x3d17e978	0.037087888
115	0xbd8a7b93	-0.06761851
116	0x3da5fb55	0.081045784
117	0xbdc6372e	-0.096784934
118	0x3d9d9b85	0.076956786
119	0xbd9fdeac	-0.07806143
120	0xbdf5a303	-0.11993983
121	0xbd739294	-0.05946596
122	0x3da9d929	0.08293373
123	0x3ba00c66	0.0048842905
124	0xbd95af3b	-0.07308813
125	0xba22084c	-0.0006181046
126	0x3d12bac3	0.03582264
127	0x3d99aefb	0.07504078
128	0xbdf265f0	-0.11835849
129	0xbd044752	-0.03229458
130	0x3d8d6d2b	0.06905588
131	0xbdfec8b3	-0.12440624
132	0xbcb13cb4	-0.02163539
133	0x3d48caf7	0.049021687
134	0x3d9e00c3	0.07714989
135	0xbcce78bf	-0.02520406
136	0x3dc325ee	0.09528719
137	0x3d28284e	0.041054063
138	0x3addc1d7	0.0016918731
139	0x3d9f62b6	0.077824995
140	0x3cd11707	0.025523676
141	0xbd353788	-0.04424241
142	0x3da8f5ea	0.082500294
143	0xbd61639d	-0.05502664
144	0x3b7fe489	0.003904613
145	0x3c0fd0b0	0.008777782
146	0x3c579bf3	0.01315974
147	0xbc029243	-0.007969442
148	0xbdcc8910	-0.0998708
149	0x3c58fdf6	0.013244143
150	0x3d0265ae	0.03183525
151	0x3df41044	0.11917165
152	0xbe000a32	-0.12503889
153	0xbd733052	-0.059372254
154	0xbdae0d13	-0.084985875
155	0x3d4cbf3b	0.04998706
156	0xbdd3228f	-0.10309326
157	0xbdc1c821	-0.09462
158	0xbded7cf0	-0.115960956
159	0xbda8d187	-0.08243089
160	0xbd274b36	-0.04084321
161	0xbdcfb84b	-0.10142573
162	0xbbe8fdc3	-0.007110329
163	0x3bf10582	0.007355393
164	0x3dcca7ab	0.099929176
165	0x3d00c706	0.031439804
166	0x3d93f7f6	0.07225029
167	0x3ce809a8	0.028324917
168	0x3b19a66a	0.0023445138
169	0x3d2a0ef0	0.04151815
170	0xbd3fdbd5	-0.046840508
171	0x3b52d5cc	0.003217089
172	0xbd91f0c4	-0.071260005
173	0xbb92200f	-0.004459388
174	0xbddd00b9	-0.107911535
175	0xbd0e513c	-0.03474544
176	0xbde6c4bb	-0.11267992
177	0xbcb3c0c3	-0.021942502
178	0x3d59e56a	0.053197302
179	0xbd86baf6	-0.06578629
180	0xbd3125ec	-0.043249056
181	0x3d390e10	0.045179427
182	0xbc053624	-0.008130584
183	0xbbe71c1a	-0.0070529105
184	0x3d771a20	0.06032765
185	0xbd38f40a	-0.04515461
186	0xbd9bc419	-0.07605762
187	0x3db8a587	0.09015947
188	0xbdb1c66a	-0.086804226
189	0x3c8e29f7	0.017353995
190	0xbd949449	-0.07254846
191	0xbd52b9a9	-0.05144659
192	0xbdce4f2d	-0.10073695
193	0xba1aea16	-0.00059095153
194	0xbda36220	-0.079777
195	0x3df08a9d	0.117451884
196	0xbd415561	-0.047200564
197	0x3d18190b	0.037133258
198	0xbcb3e8a4	-0.021961518
199	0xbcd0548a	-0.025430936
200	0x3d9a7929	0.07542641
201	0xbd976848	-0.07392937
202	0x3c5ab687	0.013349182
203	0xbd06b71f	-0.03288948
204	0xbc8ec3a9	-0.017427282
205	0xbdafe60b	-0.08588799
206	0xbd8ec5fe	-0.06971358
207	0x3de7c44d	0.11316738
208	0x3de21461	0.11039043
209	0x3dc5f12e	0.09665142
210	0xbcf0b9e3	-0.029385513
211	0xbcf526a0	-0.029925644
212	0xbd121026	-0.03565993
213	0x3ddd77ac	0.10813841
214	0x3d87e6bb	0.06635805
215	0xbd324ca4	-0.04353012
216	0xb8570af0	-5.127018e-05
217	0xbd692093	-0.05691583
218	0xbd90f61c	-0.07078192
219	0xbdeb0590	-0.1147567
220	0xbda13a44	-0.078724414
221	0xbdd8c791	-0.10584939
222	0x3da7343f	0.08164262
223	0x3db1f1e5	0.08688716
224	0x3dbb89f5	0.091571726
225	0xbd0909d7	-0.03345665
226	0xbde449fe	-0.111469254
227	0xbdf00b57	-0.11720913
228	0xbd0fa720	-0.035071492
229	0x3d9da9cd	0.076984026
230	0xbdf0a2be	-0.117497906
231	0x3b905d72	0.004405671
232	0xbd9653e6	-0.07340221
233	0xbcaa47ad	-0.02078613
234	0xbd6b9d52	-0.05752308
235	0xbd5f7048	-0.05455044
236	0x3bbfc129	0.005851884
237	0xbda743d0	-0.08167231
238	0x3d35d6a1	0.04439414
239	0x3d088f61	0.03333986
240	0xbdf91a66	-0.12163238
241	0xbdac5946	-0.08415465
242	0x3cea37b3	0.028591013
243	0xbcf80e56	-0.030280273
244	0x3e007264	0.12543637
245	0x3d80c7fa	0.062881425
246	0xbd3804d6	-0.044926487
247	0x3dbb60df	0.09149336
248	0xbd0175cc	-0.03160648
249	0x3c8b0579	0.016970383
250	0x3d9451af	0.072421424
251	0x3dd5ea14	0.104450375
252	0xbdbe57a2	-0.092940584
253	0x3da392da	0.07986994
254	0xbc679619	-0.014134907
255	0xbd898e4e	-0.067165956

decoder_lstm.bias_hh_l0 f4 [256]
0	0xbda01f64	-0.07818487
1	0x3d7e5c6d	0.062099863
2	0x3df3fc91	0.119134076
3	0x3d5d9268	0.054094702
4	0xbc99fc90	-0.018797189
5	0xbddb6bef	-0.10713946
6	0x3e021a3c	0.1270532
7	0x3c2b51e0	0.010456532
8	0x3ddb532c	0.10709223
9	0x3dedc561	0.11609913
10	0xbd999d30	-0.07500684
11	0x3d977055	0.073944725
12	0xbdfaacbb	-0.12239977
13	0x3dd06b8c	0.10176763
14	0xbd941ef9	-0.0723247
15	0x3d7e7367	0.062121775
16	0xbdb21cb2	-0.086968794
17	0x3beb939c	0.0071892273
18	0xbd8f4fb9	-0.06997628
19	0xbbfd3da6	-0.0077282963
20	0xbdcff15f	-0.1015346
21	0x3cb09626	0.021555971
22	0x3d8ad8a2	0.06779601
23	0xbd5d72f2	-0.0540647
24	0x3dcf4344	0.10120252
25	0xbd3108fc	-0.04322146
26	0x3d5642bf	0.052309748
27	0xbd81b037	-0.063324384
28	0x3de04418	0.10950488
29	0x3d3f3bbd	0.04668783
30	0xbde2a53b	-0.110666715
31	0x3d92c459	0.071663566
32	0xbd15db0f	-0.036585864
33	0xba0ba9f2	-0.0005327753
34	0x3df7a642	0.12092258
35	0x3ddff5c2	0.109355465
36	0x3cdbf1eb	0.026848754
37	0xbdba7274	-0.091038615
38	0x3d490ac4	0.049082533
39	0xbd50a4ce	-0.05093842
40	0xbd726d04	-0.059185997
41	0x3df98afa	0.12184711
42	0xbdae956c	-0.08524594
43	0xbb9a0e8d	-0.0047014416
44	0xbc9c53ec	-0.019082986
45	0x3c9248ea	0.017857034
46	0xbc234462	-0.009965034
47	0xbddf8266	-0.109135434
48	0x3db9989e	0.090623125
49	0x3c15f9d6	0.009153804
50	0x3dca7c1a	0.09886952
51	0xbdd1f01f	-0.102508776
52	0x3e00aed0	0.12566686
53	0x3de76a82	0.11299612
54	0xbd2e901e	-0.04261791
55	0xbdab1a19	-0.08354587
56	0xbcd7a6da	-0.026324678
57	0x3dc080de	0.093995795
58	0x3d1cf83f	0.038322683
59	0xbdf3ae70	-0.11898506
60	0x3dd7ffae	0.10546814
61	0xbdd2ff08	-0.103025496
62	0x3cca3154	0.024681725
63	0x3dc85017	0.09780901
64	0xbdb1e3a5	-0.08685998
65	0xbd565c1e	-0.052333944
66	0xbd993dd5	-0.07482497
67	0x3d4205ba	0.047368743
68	0x3db5a435	0.08869211
69	0xbdc72ae2	-0.09724976
70	0x3dde5ec9	0.108579226
71	0xbdc0ff26	-0.09423666
72	0xbd90e8db	-0.07075664
73	0xbdcc3bbb	-0.0997233
74	0x3ac1b028	0.001477723
75	0xbd8d6802	-0.069046035
76	0xbdedf6e8	-0.11619359
77	0x3daf88a6	0.085709855
78	0x3da7bca7	0.081902795
79	0xbdb13b19	-0.0865385
80	0x3c22c667	0.009934998
81	0x3c12d492	0.0089618135
82	0x3d9def70	0.07711685
83	0x3d87e5ec	0.06635651
84	0xbdb315c6	-0.08744387
85	0xbdb57407	-0.08860021
86	0xbe014a3a	-0.12625971
87	0x3d281c2d	0.041042496
88	0x3d483a82	0.048883922
89	0xbccabcfe	-0.024748322
90	0x3b39c100	0.0028343797
91	0x3d265a1c	0.04061328
92	0xbda10789	-0.07862765
93	0xbdffcf65	-0.12490729
94	0xbc4108b5	-0.011781861
95	0xbd559ef8	-0.052153558
96	0x3dd06249	0.101749964
97	0x3dc82a64	0.0977371
98	0xbced1b43	-0.028943663
99	0x3d298736	0.041388713
100	0xbd6407cd	-0.055671502
101	0xbcd2e44c	-0.025743626
102	0x3d747680	0.059683323
103	0xbdcab935	-0.09898607
104	0x3b2c51ae	0.0026293802
105	0xbd2bf605	-0.04198267
106	0xbc9fc768	-0.019504264
107	0x3d9d4342	0.07678844
108	0x3e066a04	0.13126379
109	0x3db2d4c1	0.08731986
110	0xbc98ff55	-0.01867644
111	0xbc83dd86	-0.016096842
112	0xbc8024f6	-0.015642624
113	0xbdcc36b2	-0.0997137
114	0xbd3f67f0	-0.046729982
115	0x3dd4d691	0.10392488
116	0x3da84ef9	0.08218188
117	0x3db7e9e4	0.08980158
118	0xbd37ef64	-0.044906035
119	0xbcd213fd	-0.025644297
120	0x3df9a5d1	0.1218983
121	0xbdd234c4	-0.102639705
122	0xbdeca511	-0.115549214
123	0x3d8a029c	0.06738779
124	0x3d6fcc61	0.05854452
125	0x3df908b6	0.121598646
126	0x3de61e45	0.11236242
127	0x3dbdda31	0.09270132
128	0x3bb811a3	0.005617337
129	0x3dea8565	0.11451224
130	0xbd847726	-0.06468038
131	0x3dba457d	0.09095285
132	0xbcf87a6c	-0.030331813
133	0x3d8ba1cd	0.068179704
134	0x3d848a3f	0.06471681
135	0x3de4a091	0.11163438
136	0x3d2d0e69	0.04225007
137	0xbd7f58e7	-0.062340643
138	0x3d678f30	0.05653304
139	0xbc207f60	-0.009795994
140	0x3dfbc899	0.1229412
141	0xbdd3b339	-0.103369184
142	0x3da3f8e4	0.080064565
143	0x3d966a32	0.07344474
144	0xbd95e19b	-0.073184215
145	0x3dc81032	0.09768714
146	0x3dd54507	0.104135565
147	0x3d7233b7	0.05913135
148	0xbd725fae	-0.05917328
149	0x3dfc4100	0.12317085
150	0xbe058515	-0.13039048
151	0x3d5624ad	0.05228107
152	0xbd08cae7	-0.033396628
153	0x3db7fafe	0.0898342
154	0xbd89a0db	-0.06720134
155	0xbd958730	-0.073011756
156	0x3c26fa1b	0.010191466
157	0xbe04bc0a	-0.12962356
158	0xbd31aac2	-0.043375738
159	0xbccfafdb	-0.02535241
160	0xbd6e15e5	-0.05812635
161	0x3d956d4b	0.072962366
162	0xbdeebb97	-0.11656874
163	0xbc449720	-0.011998922
164	0x3da477c1	0.08030654
165	0x3d97eb0a	0.07417877
166	0x3daed86a	0.085373715
167	0x3dbefc5d	0.09325478
168	0x3d8505d5	0.06495253
169	0x3d85ddb5	0.06536428
170	0xbc6b7831	-0.014371918
171	0x3df15900	0.117845535
172	0x3dad6346	0.084662005
173	0xbe02e01d	-0.12780805
174	0x3d25ca40	0.040476084
175	0xbc45dffd	-0.012077329
176	0x3df84357	0.12122219
177	0xbdb96098	-0.09051627
178	0xbd4e041f	-0.0502969
179	0xbd86ebf8	-0.06587976
180	0xbdb6e66f	-0.089306705
181	0xbd8a6c43	-0.067589305
182	0xbdc870da	-0.0978715
183	0x3d69b47f	0.0570569
184	0xbd263538	-0.040578097
185	0x3dd4617a	0.10370155
186	0x3d507834	0.050895885
187	0x3ca70ec7	0.020392789
188	0x3d15c3aa	0.036563553
189	0x3d7c28ed	0.061562467
190	0x3dcebc94	0.10094562
191	0xbd10d7b9	-0.03536198
192	0x3dada959	0.08479566
193	0xbce47047	-0.02788557
194	0x3d5c10da	0.05372701
195	0x3d4e4a0a	0.050363578
196	0x3c38af60	0.011272281
197	0x3d0fb8c7	0.035088327
198	0x3d767004	0.06016542
199	0xbcf3bdbc	-0.029753558
200	0xbc294df1	-0.010333524
201	0xbd3c8df1	-0.046033803
202	0x3d7a56e9	0.06111804
203	0xbd9cfbd5	-0.07665221
204	0xbc116913	-0.008875149
205	0xbd09255a	-0.033482887
206	0xbd27502a	-0.040847935
207	0x3dc3a7b1	0.09553469
208	0x3d4772cf	0.048693474
209	0xbdacd33a	-0.08438726
210	0x3df3d58c	0.11905965
211	0xbdaede36	-0.08538477
212	0x3db82283	0.089909576
213	0xbcda88e9	-0.026676612
214	0x3c8d54f5	0.017252425
215	0x3dfeb767	0.12437325
216	0x3cab2834	0.020893194
217	0xbd3079bb	-0.04308484
218	0x3d9f764a	0.07786234
219	0xbce53d1e	-0.027983245
220	0xbc42df03	-0.01189399
221	0x3d3cbd69	0.046079073
222	0xbdfd0cb3	-0.12355938
223	0xbdeccd89	-0.1156264
224	0xbd930bcb	-0.07179984
225	0x3d176916	0.036965452
226	0xbc515808	-0.012777336
227	0x3dc07c09	0.09398658
228	0x3cd905e2	0.026492063
229	0x3da32537	0.079660825
230	0x3d26413c	0.040589556
231	0xbd563b92	-0.052302904
232	0xbc2eab56	-0.010660967
233	0x3d2cf994	0.042230204
234	0xbd857138	-0.065157354
235	0xbd6893f4	-0.056781724
236	0x3df0869b	0.11744424
237	0x3dcfa24e	0.10138379
238	0x3deb6a83	0.11494925
239	0x3d409661	0.047018413
240	0xbdfda63c	-0.12385222
241	0xbdf760ea	-0.12079032
242	0xbd8af936	-0.067858145
243	0x3dcb1aa5	0.099171914
244	0x3d9cf82b	0.07664522
245	0xbce68def	-0.028143851
246	0xbde02f6e	-0.109465465
247	0x3d6f41db	0.058412414
248	0xbc4b22d2	-0.0123984385
249	0x3b38aa69	0.0028177744
250	0x3d5aabfe	0.05338668
251	0xbdb67770	-0.089095
252	0xbd248e39	-0.040174697
253	0xbcbf24fc	-0.023333065
254	0x3c49ad47	0.012309379
255	0xbda36290	-0.07977784

output_layer.weight f4 [1, 64]
0	0x3d941f2c	0.07232508
1	0xbdd1571f	-0.10221695
2	0xbd94ce1a	-0.07265873
3	0x3d7686a1	0.060186986
4	0x3da0465f	0.07825922
5	0xbde708bc	-0.11280963
6	0x3dddabfa	0.108238176
7	0xbd11c215	-0.03558548
8	0x3dd57263	0.10422208
9	0xbd43bbe6	-0.047786616
10	0x3d4be55d	0.049779285
11	0xbca8e92e	-0.020619001
12	0xbdcc9857	-0.09989994
13	0x3d8c405a	0.068482116
14	0x3d2db5e6	0.0424098
15	0xbd8ccac0	-0.06874609
16	0x3dac3ec9	0.08410413
17	0x3ce3b452	0.027795944
18	0xbdce2fdd	-0.10067723
19	0xbd80541d	-0.06266043
20	0xbdb1d35b	-0.08682891
21	0xbdd2d766	-0.1029499
22	0x3dcf8aa7	0.10133868
23	0xbdc7eb65	-0.09761695
24	0x3dd2f646	0.10300879
25	0xbdcde50d	-0.100534536
26	0x3cee3329	0.02907713
27	0x3d32a102	0.04361058
28	0xbdba1cad	-0.09087501
29	0x3d15266f	0.036413606
30	0x3baa1a86	0.00519115
31	0x3dd60cf2	0.10451688
32	0xbd42f87a	-0.047600247
33	0x3c46f77c	0.012143966
34	0x3cd1d1a6	0.025612663
35	0xbccd74cc	-0.025080107
36	0xbc46829f	-0.012116103
37	0x394b627e	0.0001939628
38	0x3cef132c	0.029183947
39	0x3e0085cb	0.12551038
40	0x3ddb7fa6	0.107177064
41	0xbe0517b8	-0.12997329
42	0x3d92db9b	0.07170793
43	0xbd10494a	-0.035226144
44	0x3dfd06f5	0.123548426
45	0x3dc40a8c	0.09572324
46	0x3e03253d	0.12807174
47	0x3d824082	0.0635996
48	0xbcb4c3f6	-0.022066098
49	0xbcdda5f3	-0.02705667
50	0xbd818bda	-0.06325503
51	0x3d9cb6f6	0.076520845
52	0xbdfdd989	-0.12395007
53	0x3dbae4ed	0.091256954
54	0x3de58bf4	0.112083346
55	0xbd87effe	-0.06637572
56	0xbcec9d6f	-0.028883664
57	0x3cb1daf7	0.021710856
58	0xbc446221	-0.011986286
59	0xbb747ace	-0.0037304643
60	0xbd5e51d6	-0.054277264
61	0xbd82c7ed	-0.06385789
62	0x3cab16ee	0.020884957
63	0xbdec6e36	-0.115444586
