model_training/model.pth (torch, 137585 bytes, 7 tensors)

encoder.0.weight f4 [64, 3]
0.18188965 0.03104773 -0.4685068 -0.38304263 0.13783392 0.31983215 0.15481333 0.32986268
-0.5667368 0.48644093 0.22920033 0.13512796 0.29978412 -0.5206021 -0.4369449 0.2685528
0.4262645 0.24404094 -0.03108558 0.4725207 0.09403385 0.13169964 0.49837813 0.45258874
0.566305 0.50398403 -0.05451698 -0.1699714 -0.40210247 -0.5413634 0.5727019 0.13880834
-0.15278745 -0.20333603 0.5552854 0.15768331 -0.13962124 0.42336988 0.23267463 -0.43609557
0.52801883 0.080240816 0.47428703 -0.5308353 0.4347185 0.1393305 0.042250603 0.07859345
0.541964 0.2934082 -0.08573551 -0.53656334 -0.5424452 -0.20434323 -0.039875448 -0.52670014
0.4168064 0.37902606 -0.48133665 0.56259143 -0.28784138 0.0849779 -0.46953377 -0.19092879
-0.048894703 -0.39193866 0.5706957 -0.18640475 -0.43815067 0.4739541 0.48017427 0.5249241
-0.39790618 -0.07748547 -0.055152237 -0.27631247 -0.18294805 -0.28945637 -0.40860608 0.3050312
0.45221582 -0.36041445 -0.45923626 -0.30636266 -0.11691424 -0.20859507 -0.18168008 0.41979474
-0.006513717 0.16932698 -0.39330167 -0.20973709 0.4360422 0.4004616 0.5719604 0.44795415
-0.30917165 -0.33905575 -0.050730407 0.053272903 -0.29305086 0.02822256 0.50500524 0.048530698
0.38662204 -0.37887695 -0.28332525 -0.16343749 0.4921269 0.25213444 -0.45031044 -0.022082428
0.38371712 0.07093809 0.13772412 0.08204079 0.009397052 -0.26070693 -0.36794814 -0.4947626
0.1655752 -0.37674522 0.49149823 -0.41864428 0.3264796 0.29673105 0.38192213 0.43780842
-0.23906817 0.34781367 -0.29766685 0.47268105 0.06285794 0.056302644 0.08225475 0.35251564
-0.22373068 -0.36513773 0.17360413 0.37949786 0.54678863 0.36796293 0.2737594 -0.19645779
-0.5741645 0.02111763 -0.048494156 0.10248398 0.16934384 -0.35373828 0.34467536 -0.07664513
-0.22062165 0.25682423 0.36817858 0.46609646 0.39829242 -0.17010942 0.2943498 -0.27829707
-0.42058852 0.5269109 -0.46132123 0.5413312 0.23698339 0.15495026 0.348074 0.2943999
0.2636531 0.47899643 0.42500636 0.42532146 -0.34781256 -0.437465 -0.04907297 0.12928738
-0.31425464 0.0070158555 0.012129401 -0.34274158 0.16918163 0.08533011 -0.06670845 0.05448201
0.02102879 0.07768063 0.29596668 0.56303537 -0.06800251 0.49880067 0.51651275 0.18907616
00000000: 4841 3a3e cf57 fe3c 20e0 efbe 2a1e c4be
00000010: 5624 0d3e 0ac1 a33e 6387 1e3e c3e3 a83e
00000020: aa15 11bf c90e f93e 7eb3 6a3e fc5e 0a3e
00000030: 4e7d 993e 2e46 05bf 3eb7 dfbe c17f 893e
00000040: 573f da3e dee5 793e 30a7 febc 3cee f13e
00000050: d294 c03d 45dc 063e 6b2b ff3e b6b9 e73e
00000060: 5df9 103f 1905 013f 324d 5fbd fc0c 2ebe
00000070: 60e0 cdbe cb96 0abf 979c 123f c623 0e3e
00000080: 5074 1cbe 5237 50be 2f27 0e3f bc77 213e
00000090: dff8 0ebe f0c3 d83e 4242 6e3e eb47 dfbe
000000a0: 3e2c 073f 4c55 a43d c0d5 f23e d2e4 07bf
000000b0: 6c93 de3e a8ac 0e3e f80e 2d3d 9af5 a03d
000000c0: 27be 0a3f 9939 963e 1996 afbd 375c 09bf
000000d0: b0dd 0abf 5a3f 51be 7054 23bd d2d5 06bf
000000e0: a667 d53e b40f c23e c271 f6be fe05 103f
000000f0: f25f 93be e508 ae3d bb66 f0be d682 43be
00000100: d045 48bd 2fac c8be 1d19 123f e3e0 3ebe
00000110: 4955 e0be 1daa f23e 67d9 f53e 6d61 063f
00000120: 5cba cbbe b4b0 9ebd 50e7 61bd d478 8dbe
00000130: bc56 3bbe a033 94be d134 d1be 0d2d 9c3e
00000140: d588 e73e 3e88 b8be 0421 ebbe 91db 9cbe
00000150: bc70 efbd f299 55be 580a 3abe 56ef d63e
00000160: 0571 d5bb 0d64 2d3e d65e c9be 52c5 56be
00000170: ec40 df3e 4e09 cd3e ff6b 123f 3f5a e53e
00000180: bf4b 9ebe b798 adbe b0ca 4fbd b034 5a3d
00000190: c30a 96be 0033 e73c 0648 013f 20c8 463d
000001a0: 53f3 c53e 29fc c1be 0210 91be 285c 27be
000001b0: 0ff8 fb3e c417 813e 178f e6be 35e6 b4bc
000001c0: 9276 c43e fd47 913d 8d07 0d3e 0005 a83d
000001d0: 18f6 193c 617b 85be b363 bcbe 8651 fdbe
000001e0: 8c8c 293e c0e4 c0be a8a5 fb3e 8b58 d6be
000001f0: 5628 a73e 22ed 973e 4c8b c33e 6d28 e03e
00000200: 49ce 74be a214 b23e ca67 98be 4003 f23e
00000210: aabb 803d 9a9d 663d 2e75 a83d ee7c b43e
00000220: a819 65be 55f3 babe 48c5 313e 8b4d c23e
00000230: 57fa 0b3f a365 bc3e 312a 8c3e 3b2c 49be
00000240: 72fc 12bf e1fe ac3c cfa1 46bd 1fe3 d13d
00000250: 7968 2d3e 2f1d b5be 4a79 b03e 1ff8 9cbd
00000260: a4ea 61be 777e 833e e781 bc3e 32a4 ee3e
00000270: fcec cb3e 2a31 2ebe 04b5 963e f47c 8ebe
00000280: 6157 d7be a2e3 063f 4c32 ecbe ae94 0a3f
00000290: c6ab 723e 48ab 1e3e c136 b23e 95bb 963e
000002a0: 8afd 863e 053f f53e 6f9a d93e bcc3 d93e
000002b0: 7d14 b2be 6afb dfbe bd00 49bd e963 043e
000002c0: fce5 a0be 43e5 e53b 65ba 463c d37b afbe
000002d0: f33d 2d3e 8dc1 ae3d 719e 88bd 8728 5f3d
000002e0: 9244 ac3c 0617 9f3d f288 973e 1623 103f
000002f0: e644 8bbd cd62 ff3e 2e3a 043f 2e9d 413e

encoder.0.bias f4 [64]
0.52999467 0.1933335 -0.30715606 0.2571673 0.32657593 -0.18916386 -0.21101798 -0.22749299
-0.4539444 0.50636315 -0.11223416 0.5479684 0.11939787 -0.330265 0.20229572 -0.4944754
-0.4308699 -0.18628514 0.27108628 -0.07391274 0.28179225 -0.4370615 0.16131537 -0.28182974
0.47487724 -0.5486933 0.43886766 0.10080987 -0.40904295 -0.07492597 -0.052251995 0.07195858
-0.32595164 -0.39349708 -0.013479429 0.28704488 -0.25061062 -0.040815566 0.49296245 0.09724027
0.5085032 -0.13085403 0.54394704 0.12027377 -0.20863889 -0.32665953 0.508278 -0.5578353
0.24760368 0.5644869 0.5620967 -0.38258937 -0.43070903 -0.3120125 -0.15742598 -0.34461582
-0.31359887 -0.4351544 -0.0722651 0.42871073 -0.3427704 0.2515784 0.04437352 -0.51188594
00000000: bbad 073f 38f9 453e 8f43 9dbe 6fab 833e
00000010: f634 a73e 2cb4 41be 1915 58be ecf3 68be
00000020: 676b e8be 04a1 013f 06db e5bd a847 0c3f
00000030: df86 f43d 7e18 a9be 9c26 4f3e e12b fdbe
00000040: fb9a dcbe 88c1 3ebe d2cb 8a3e 905f 97bd
00000050: 1347 903e 86c6 dfbe db2f 253e fd4b 90be
00000060: 1c23 f33e 2a77 0cbf 43b3 e03e 6875 ce3d
00000070: 146e d1be c972 99bd 3006 56bd 055f 933d
00000080: 22e3 a6be 7378 c9be d3d8 5cbc 8cf7 923e
00000090: 0950 80be 392e 27bd 9365 fc3e e825 c73d
000000a0: 442d 023f 99fe 05be 1d40 0b3f 1852 f63d
000000b0: 6fa5 55be eb3f a7be 821e 023f 4bce 0ebf
000000c0: d28b 7d3e 3782 103f 92e5 0f3f c1e2 c3be
000000d0: e585 dcbe 1ac0 9fbe 4734 21be 7c71 b0be
000000e0: 0890 a0be 8fcc debe baff 93bd f97f db3e
000000f0: 9a7f afbe e2ce 803e 02c1 353d f50a 03bf

decoder_lstm.weight_ih_l0 f4 [256, 64]
0.053401884 -0.118354164 -0.116790906 -0.05971371 -0.124600604 0.04098239 -0.021289095 -0.017816206
0.11422432 -0.048433527 0.1152631 -0.053024758 -0.00024534066 -0.0119766295 0.048614204 0.02834428
-0.11691178 0.001791954 0.089237556 0.01804547 0.10006962 -0.081320465 0.08510932 -0.05421793
0.0072366893 -0.09152067 0.074555986 0.048007816 0.06739031 0.0046926807 -0.123680696 0.05282791
0.089601934 0.099893 -0.043558724 -0.08532587 0.110777855 -0.12540099 0.006781158 0.022377029
0.03482884 0.117062025 -0.030314099 -0.0739042 0.08710979 -0.02684778 0.03719217 -0.09282498
-0.11474072 -0.024657166 0.047780376 0.025052574 0.032983154 -0.06867005 -0.06850389 0.0060890974
-0.08556184 0.11888228 0.07081288 -0.076342635 0.07444193 -0.081846155 0.031133916 -0.11306449
0.08046045 -0.11991509 -0.10987499 0.022416953 -0.024822623 -0.023509791 -0.08665434 0.01805657
0.099872105 -0.11402662 0.027828535 0.01835671 0.027931942 -0.017272698 0.094090804 -0.028812036
-0.023798682 0.039631695 -0.091643095 -0.054188043 0.04616732 -0.036729366 0.004794983 -0.123147644
0.11129458 -0.036644995 -0.052078947 -0.1097379 0.066920534 -0.034354035 0.1126872 -0.08501492
0.039794996 0.087575436 -0.026870618 0.067709416 -0.055762224 -0.1176684 -0.05022582 0.006772697
-0.07343145 0.107418604 -0.08251507 -0.0032138824 0.033782355 0.06887555 0.006795089 0.10837642
0.024249146 -0.03206985 0.045210242 0.08375162 0.0017761141 -0.10450436 -0.10298605 -0.12354126
-0.07682238 0.04765162 0.074120715 -0.082416445 -0.094815046 0.06244701 -0.07900033 -0.004163348
0.039936874 -0.035477776 0.108842015 -0.11145452 0.029052049 0.06387297 -0.015704462 0.0050192457
-0.04870501 -0.04412636 -0.098174155 -0.093090035 0.11038375 -0.020635646 -0.087693304 0.11373973
0.062746264 0.110069945 0.09093508 0.060974687 0.09246939 -0.056508437 -0.036232475 -0.016411867
0.10328682 -0.023945853 -0.052470345 -0.07130997 -0.10682729 -0.08693369 -0.10911788 0.0028181241
-0.045167193 -0.02668652 -0.053709373 0.0057825446 0.05165389 -0.0688842 -0.009552249 -0.104806215
-0.101135164 0.043887172 -0.09758847 -0.0003491789 -0.01799384 -0.117657915 -0.112349615 -0.090561464
0.027562838 0.011143327 -0.09983796 -0.06875101 0.1096081 0.11084959 -0.012920932 0.058729514
0.074197076 -0.089243755 -0.02639007 -0.006729918 -0.07901733 0.04273783 -0.088944666 -0.045366075
0.118527085 0.062164135 -0.0109008765 0.015796721 -0.11232208 -0.01965819 -0.059107255 0.03808171
0.12727994 0.0074522346 -0.000972091 0.05530592 0.067984104 -0.06954316 0.035783857 -0.090176925
-0.0832522 -0.0053610206 0.029993236 -0.052844644 0.074998185 0.065573454 -0.10777564 -0.0012012717
0.12061238 0.115585476 0.0054325177 0.10138224 -0.00841552 -0.03190712 0.043015525 0.059975114
-0.047403634 0.010219216 0.10447769 0.06689729 -0.07950213 0.03620894 0.022661678 0.089314505
0.006449327 -0.030675625 -0.026255386 0.099234074 0.068127766 0.08890222 -0.051309824 0.025361048
-0.047490325 -0.072345495 -0.00084357325 -0.104560725 -0.12240848 -0.06322849 -0.056950424 0.10606614
0.03569291 0.00850682 0.1047579 -0.08749009 -0.098921046 -0.08465512 0.021471621 -0.07786398
00000000: efbb 5a3d ab63 f2bd 1230 efbd 5d96 74bd
00000010: 9a2e ffbd 27dd 273d 7866 aebc 4bf3 91bc
00000020: 71ee e93d 3c62 46bd 0f0f ec3d 7d30 59bd
00000030: 11a1 80b9 a039 44bc b01f 473d 4332 e83c
00000040: 716f efbd 00e0 ea3a 2ec2 b63d 18d4 933c
00000050: 4df1 cc3d 588b a6bd cc4d ae3d 9f13 5ebd
00000060: c021 ed3b 306f bbbd cfb0 983d d8a3 443d
00000070: ee03 8a3d 0fc5 993b 4e4c fdbd 1462 583d
00000080: 3881 b73d b494 cc3d a26a 32bd 54bf aebd
00000090: 80df e23d 1e69 00be 7a34 de3b 0850 b73c
000000a0: b0a8 0e3d 37be ef3d 4655 f8bc 165b 97bd
000000b0: 9e66 b23d e0ef dbbc d156 183d 061b bebd
000000c0: 2ffd eabd d3fd c9bc 5bb5 433d 0e3b cd3c
000000d0: 5819 073d e2a2 8cbd c44b 8cbd 0d87 c73b
000000e0: 0c3b afbd 8e78 f33d 5806 913d 8759 9cbd
000000f0: 0375 983d f59e a7bd 8e0c ff3c 5b8e e7bd
00000100: 73c8 a43d 0b96 f5bd 2406 e1bd c2a3 b73c
00000110: d058 cbbc 9b97 c0bc d577 b1bd 5feb 933c
00000120: bf89 cc3d ca86 e9bd abf8 e33c d060 963c
00000130: 87d1 e43c 797f 8dbc aeb2 c03d 3807 ecbc
00000140: 74f5 c2bc d854 223d 60af bbbd 48f4 5dbd
00000150: f219 3d3d 8871 16bd 3c1f 9d3b d534 fcbd
00000160: 6aee e33d 1019 16bd bc50 55bd 44be e0bd
00000170: a20d 893d d1b6 0cbd 8cc8 e63d 4d1c aebd
00000180: 1400 233d c05a b33d c51f dcbc 3cab 8a3d
00000190: ee66 64bd 21fc f0bd 97b9 4dbd 80ed dd3b
000001a0: 3a63 96bd 49fe db3d a9fd a8bd 00a0 52bb
000001b0: 5e5f 0a3d a00e 8d3d 57a9 de3b 75f4 dd3d
000001c0: 25a6 c63c ad5b 03bd 602e 393d f885 ab3d
000001d0: 80cc e83a 6206 d6bd 5aea d2bd 3303 fdbd
000001e0: 0d55 9dbd 582e 433d 9acc 973d f4c9 a8bd
000001f0: 642e c2bd 70c8 7f3d edca a1bd b26c 88bb
00000200: d994 233d 2551 11bd 90e8 de3d 4442 e4bd
00000210: 90fe ed3c d5cf 823d a5a6 80bc 7c78 a43b
00000220: e87e 47bd d8bd 34bd 880f c9bd fda5 bebd
00000230: e010 e23d 160c a9bc 8c98 b3bd 60f0 e83d
00000240: 1d81 803d 5a6c e13d 2c3c ba3d 98c0 793d
00000250: 9760 bd3d 6475 67bd 8168 14bd 2e72 86bc
00000260: 0a88 d33d 182a c4bc 25eb 56bd f60a 92bd
00000270: 44c8 dabd 4a0a b2bd 3279 dfbd 47b0 383b
00000280: 3c01 39bd b09d dabc 5cfe 5bbd 807b bd3b
00000290: 0893 533d 2913 8dbd 0981 1cbc a4a4 d6bd
000002a0: f41f cfbd 09c3 333d 77dc c7bd 0012 b7b9
000002b0: d167 93bc a2f6 f0bd 8e17 e6bd 4a78 b9bd
000002c0: 76cb e13c 8092 363c d877 ccbd 54cd 8cbd
000002d0: 367a e03d 1c05 e33d 51b2 53bc 5c8e 703d
000002e0: a3f4 973d 6ec5 b6bd fd2f d8bc a586 dcbb
000002f0: d7d3 a1bd dd0d 2f3d 9f28 b6bd c7d1 39bd
00000300: 54be f23d d29f 7e3d 9799 32bc 2068 813c
00000310: 1e09 e6bd 360a a1bc 731a 72bd 91fb 1b3d
00000320: ac55 023e e031 f43b ecd3 7eba 7688 623d
00000330: 403b 8b3d a56c 8ebd 1892 123d aeae b8bd
00000340: 2180 aabd 80ab afbb 60b4 f53c a073 58bd
00000350: a698 993d 604b 863d 7ab9 dcbd fd73 9dba
00000360: a003 f73d 14b8 ec3d 4303 b23b 7ea1 cf3d
00000370: 40e1 09bc 0ab1 02bd 0c31 303d 77a8 753d
00000380: 502a 42bd 806e 273c 66f8 d53d 7201 893d
00000390: 03d2 a2bd d34f 143d fca4 b93c 86ea b63d
000003a0: e054 d33b 734b fbbc 8915 d7bc 3c3b cb3d
000003b0: 9286 8b3d 5e12 b63d 402a 52bd f9c1 cf3c
000003c0: 3785 42bd e029 94bd 3e23 5dba ef23 d6bd
000003d0: 4cb1 fabd f07d 81bd d944 69bd 3439 d93d
000003e0: bb32 123d 3060 0b3c 4f8b d63d 012e b3bd
000003f0: 1e97 cabd aa5f adbd 41e5 af3c 2677 9fbd

decoder_lstm.weight_hh_l0 f4 [256, 64]
-0.12821119 0.025272828 0.020559056 -0.058417935 0.06894738 0.061886955 -0.05638535 0.0093320245
0.051132295 -0.08975483 0.05828712 -0.086423345 -0.11065847 -0.058862984 0.02596907 -0.036167648
0.063182846 -0.12820701 0.02348598 0.10338704 0.057363916 -0.023042329 0.10180892 0.035092715
-0.06860584 -0.1173516 -0.11984665 0.066232756 0.11954937 0.05008446 0.042059377 0.100531004
0.056345213 0.05335861 0.10876057 0.025253767 0.039945614 0.053246547 0.013481144 0.05991454
0.11122399 -0.02754244 -0.04846147 -0.0658217 -0.08788339 0.103230886 -0.07302051 -0.103703074
-0.1094928 0.08987848 -0.08061866 -0.025982324 -0.098912336 0.061210893 -0.06917647 -0.074192226
-0.043606855 0.04439378 0.07751725 -0.06267707 0.034130055 0.0583459 0.11484023 0.0065909065
0.0036133889 -0.031167522 -0.081468776 -0.063863374 -0.09023271 0.07820721 0.04729265 -0.06142914
0.06904399 0.05290026 -0.0023810253 0.08042275 -0.042417206 0.11689857 -0.092828564 0.03951378
0.13109617 -0.005982888 0.05052705 -0.067812614 -0.05772122 -0.13382362 0.116345435 0.058904484
0.021937264 0.07858827 0.008819994 0.06128588 0.13358909 0.08266053 0.09746717 0.03563942
-0.09670835 0.03746593 -0.031192677 0.02424489 -0.108056664 -0.01704342 -0.1379192 -0.039295614
0.031296834 -0.028250191 -0.038376626 0.06975537 0.08331473 0.059203234 -0.09827573 -0.07866882
0.012745176 -0.12341514 0.06881096 0.09961097 -0.09323924 0.02274272 0.060226865 0.022379378
-0.104018636 0.095758595 0.020062221 -0.050408848 0.03142721 -0.05553068 -0.041107513 -0.020135729
-0.096576765 0.0016975789 0.045125373 0.06440027 -0.10275772 0.08683398 -0.07145398 0.022756247
0.05892048 -0.038683064 0.029573526 -0.057736408 -0.11441351 -0.103411146 -0.0071721035 -0.051172692
0.13204859 -0.0393944 -0.10053946 -0.12628451 0.08139035 -0.0006254534 -0.014601615 -0.017009635
-0.082269646 0.05313104 -0.009541032 0.05325181 0.01603596 0.10823926 0.013946068 -0.036587056
0.04641491 -0.019828418 -0.03371265 -0.07459254 0.01817208 -0.029767966 -0.069714665 -0.0072761946
-0.08026077 0.06701462 -0.025984786 -0.014672891 -0.037268855 0.086237445 -0.031690143 -0.13572162
-0.09793445 -0.04349595 -0.015336336 0.043395236 0.0017102454 -0.08408469 -0.05115049 -0.052902404
0.06477304 0.092726365 0.06942006 0.05964296 -0.021368913 0.048922822 -0.10977623 0.0523066
0.021206634 0.024011461 -0.00028173262 0.10312891 -0.041818384 0.08173902 0.08375747 -0.08953295
0.06376431 -0.064950004 -0.052528195 0.07495396 -0.13036434 -0.11547193 0.07007093 0.093208715
-0.010831022 0.04298312 0.069666915 0.08891405 0.08237654 -0.023553371 -0.09167621 0.075666845
-0.09394546 0.019787796 0.06295438 0.11944532 0.0048848423 0.015749175 -0.066837244 0.014105104
0.03449083 0.09551048 0.11246783 0.010109997 -0.010561824 0.059632838 0.10924492 0.08991436
0.027557895 -0.022840694 -0.11302009 -0.006068225 0.10244975 -0.10539903 0.008308713 0.09429551
-0.02248595 0.11664727 -0.107912146 -0.03272803 0.07751765 -0.11538493 0.11743441 0.09446782
0.064778164 -0.002397123 0.06418198 0.07772231 0.036922116 -0.027762525 -0.10636871 -0.06810857
00000000: cb49 03be f608 cf3c 776b a83c a547 6fbd
00000010: 4934 8d3d 2d7d 7d3d 53f4 66bd 59e5 183c
00000020: 1970 513d 61d1 b7bd 7abe 6e3d b9fe b0bd
00000030: e8a0 e2bd 501a 71bd 16bd d43c 8724 14bd
00000040: 0266 813d b348 03be ac65 c03c 96bc d33d
00000050: 6df6 6a3d 44c3 bcbc 3281 d03d 61bd 0f3d
00000060: 3881 8cbd 0956 f0bd 2972 f5bd 0aa5 873d
00000070: 4dd6 f43d 5d25 4d3d 7446 2c3d 33e3 cd3d
00000080: 3dca 663d 8f8e 5a3d ddbd de3d fde0 ce3c
00000090: 039e 233d 0d19 5a3d 04e0 5c3c f368 753d
000000a0: 67c9 e33d afa0 e1bc 897f 46bd 87cd 86bd
000000b0: 35fc b3bd b76a d33d c78b 95bd 4762 d4bd
000000c0: c33d e0bd 3512 b83d 651b a5bd e2d8 d4bc
000000d0: 8d92 cabd 46b8 7a3d 65ac 8dbd 18f2 97bd
000000e0: 1a9d 32bd 41d6 353d 5dc1 9e3d d65c 80bd
000000f0: f5cb 0b3d 1cfc 6e3d 5b31 eb3d 88f8 d73b
00000100: 9bce 6c3b 0853 ffbc 1ad9 a6bd cdca 82bd
00000110: edcb b8bd 1a2b a03d f0b5 413d 1f9d 7bbd
00000120: ef66 8d3d f1ad 583d fa0a 1cbb afb4 a43d
00000130: aabd 2dbd 8468 ef3d e71c bebd 34d9 213d
00000140: 133e 063e 1a0c c4bb 74f5 4e3d 57e1 8abd
00000150: 166d 6cbd 0f09 09be 8446 ee3d d445 713d
00000160: c7b5 b33c e3f2 a03d bc81 103c e706 7b3d
00000170: 94cb 083e ed49 a93d de9c c73d a4fa 113d
00000180: 070f c6bd e075 193d c987 ffbc 389d c63c
00000190: d04c ddbd a49e 8bbc b13a 0dbe 70f4 20bd
000001a0: 1c31 003d f26c e7bc cf30 1dbd e7db 8e3d
000001b0: eaa0 aa3d 177f 723d c944 c9bd 1e1d a1bd
000001c0: 25d1 503c 14c1 fcbd c3ec 8c3d d600 cc3d
000001d0: 37f4 bebd f14e ba3c 72b0 763d f554 b73c
000001e0: b907 d5bd 151d c43d 8759 a43c 8279 4ebd
000001f0: d1b9 003d 2374 63bd 5a60 28bd aff3 a4bc
00000200: 0aca c5bd 4c81 de3a 62d5 383d 4ae4 833d
00000210: a472 d2bd 04d6 b13d 7756 92bd 4f6b ba3c
00000220: 9a56 713d 2272 1ebd 2e44 f23c 037d 6cbd
00000230: a151 eabd 39c9 d3bd f703 ebbb 759a 51bd
00000240: bf37 073e 065c 21bd a2e7 cdbd ba50 01be
00000250: fcaf a63d 78f5 23ba 9d3b 6fbc ca57 8bbc
00000260: fd7c a8bd ef9f 593d fd51 1cbc 921e 5a3d
00000270: d85d 833c 8cac dd3d 0c7e 643c 4fdc 15bd
00000280: 901d 3e3d 356f a2bc 4716 0abd f9c3 98bd
00000290: 9ddd 943c f3db f3bc 90c6 8ebd 256d eebb
000002a0: c25f a4bd f63e 893d 0cde d4bc 9166 70bc
000002b0: 3aa7 18bd 429d b03d 86cd 01bd 9cfa 0abe
000002c0: db91 c8bd cf28 32bd 4145 7bbc 34bf 313d
000002d0: 502a e03a 9834 acbd 2d83 51bd 31b0 58bd
000002e0: baa7 843d 52e7 bd3d 1b2c 8e3d 2d4c 743d
000002f0: dc0d afbc 4c63 483d 5cd2 e0bd 723f 563d
00000300: 89b9 ad3c afb3 c43c 83b5 93b9 4035 d33d
00000310: c149 2bbd ca66 a73d 0989 ab3d 0d5d b7bd
00000320: dd96 823d 8204 85bd ce27 57bd 7681 993d
00000330: 3b7e 05be 8c7c ecbd 5981 8f3d 36e4 be3d
00000340: 9974 31bc 110f 303d 87ad 8e3d 9218 b63d
00000350: 08b5 a83d 00f3 c0bc bdc0 bbbd 38f7 9a3d
00000360: 7a66 c0bd 041a a23c 3aee 803d bf9f f43d
00000370: 0711 a03b 6a04 813c f7e1 88bd 1819 673c
00000380: 4246 0d3d 009b c33d 8955 e63d 67a4 253c
00000390: 800b 2dbc 9041 743d cdbb df3d 0525 b83d
000003a0: 18c1 e13c 681c bbbc 1477 e7bd f6d7 c6bb
000003b0: 2dd1 d13d 72db d7bd 4521 083c 011e c13d
000003c0: 7434 b8bc c4e4 ee3d 0b01 ddbd d40d 06bd
000003d0: 93c1 9e3d ef4e ecbd 7481 f03d 5878 c13d
000003e0: 6aaa 843d 0d19 1dbb d871 833d e02c 9f3d
000003f0: a53b 173d 3c6e e3bc d7d7 d9bd 827c 8bbd

decoder_lstm.bias_ih_l0 f4 [256]
-0.067183174 -0.11725201 -0.030927679 0.09092757 0.030832358 0.10704459 0.09696201 -0.099038415
0.1014948 0.0937004 -0.12929296 -0.012393245 -0.03380871 -0.029628031 0.0466831 -0.10018198
-0.06157636 -0.039142564 -0.07408384 -0.056889992 -0.11886665 -0.11910312 0.09925672 0.021091798
0.07571595 -0.11567857 0.092605025 0.036148537 -0.066407785 0.03804802 0.06544569 0.120598495
0.05871409 0.01071346 -0.11065991 -0.12494591 0.11178246 0.08587211 -0.06569895 0.10926294
0.08953425 -0.066119246 -0.049273297 -0.10465982 -0.028893825 0.008492033 -0.03405461 -0.0885401
-0.0600464 0.1113388 -0.013844826 -0.10580197 0.012497149 -0.057959482 0.11588861 0.08190905
0.05307404 0.086354695 -0.12632215 0.045038864 -0.114330195 0.062230494 0.036218036 -0.027271586
0.02623339 -0.11116329 -0.059344206 0.11268508 0.11075358 -0.09346682 0.09194528 0.012849127
-0.11679968 0.124648154 0.0763173 -0.053661898 -0.040117074 0.06797607 0.013798851 -0.06404316
0.08899234 -0.10588171 -0.10255819 0.11377555 -0.122728474 0.007957489 -0.07775217 -0.08150704
-0.12879865 -0.07398813 0.11592971 -0.100838214 -0.026395693 -0.037622448 -0.0771214 -0.08939731
0.05925255 0.08565607 -0.068931885 -0.040505856 0.064957745 0.06937032 -0.10560545 0.115392
0.034449138 0.026299682 0.093365684 0.1082224 -0.049339015 0.101723574 0.032444574 0.0037775086
0.09937283 -0.015283435 -0.11024558 0.0077366163 0.09136057 -0.10835565 -0.03022885 0.1046715
0.07196825 0.046997927 -0.114577614 -0.08781396 -0.06984729 -0.12523156 -0.115253635 -0.00081180094
-0.056183994 -0.11790203 -0.08775241 -0.081799574 -0.08546068 -0.06874523 0.028707333 -0.01539255
0.0063444907 0.033619232 -0.010188703 -0.023108477 -0.04370232 -0.043252386 -0.06103339 0.13155772
-0.008198746 0.10895206 0.09993131 -0.06140358 -0.06560886 0.05229305 0.10946386 0.0725511
0.08021362 -0.07403374 -0.07402673 -0.025595304 -0.07367464 -0.030077873 -0.049138263 -0.09926186
0.10920207 0.011957997 -0.013401755 0.09437196 -0.045348033 -0.07137936 -0.057613753 -0.06700428
-0.08856107 0.05473084 -0.021908041 -0.0743421 0.07677435 0.058631852 0.12938671 -0.05332722
-0.07072863 0.104026996 0.032397203 0.028870339 -0.07985675 0.027647706 -0.061089523 -0.10901479
0.021063117 -0.09303467 -0.015008451 0.09062482 0.045545075 0.08674192 -0.06446559 0.12397415
-0.02751249 -0.10604199 -0.0797648 -0.025922706 -0.09542352 0.06711247 -0.0169284 0.123622485
-0.07959609 0.03813707 -0.02422666 -0.09430185 -0.059670538 0.07759529 -0.019579906 0.05415389
-0.04962127 0.05710829 -0.10324691 0.055934254 -0.045547076 -0.040832724 0.061474636 -0.12588114
-0.023623165 -0.07685509 -0.0098007405 -0.09978705 -0.093140975 0.08618808 -0.08671638 0.06581433
0.07719154 -0.08494667 0.019747695 -0.10221581 -0.041547116 -0.04250771 -0.11283133 0.06562283
0.020012205 0.13694853 -0.10939922 0.121636935 0.069601804 0.041585453 -0.11867109 -0.020631248
-0.032193433 -0.04105004 0.06445926 -0.07348481 -0.09877926 -0.020746036 -0.09341768 0.018893648
-0.017256977 0.033718925 0.046179134 -0.0072010704 -0.028432198 -0.039887033 -0.028832592 -0.11867285
00000000: 5597 89bd d221 f0bd 0b5c fdbc 3c38 ba3d
00000010: 2494 fc3c 323a db3d 0594 c63d a7d4 cabd
00000020: 81dc cf3d ffe5 bf3d 6065 04be 090d 4bbc
00000030: 007b 0abd 7cb6 f2bc c736 3f3d 362c cdbd
00000040: 7e37 7cbd f453 20bd 45b9 97bd 7b05 69bd
00000050: 5c70 f3bd 56ec f3bd 1b47 cb3d b5c8 ac3c
00000060: f710 9b3d e3e8 ecbd b4a7 bd3d 7d10 143d
00000070: ce00 88bd 3ed8 1b3d 6408 863d 58fc f63d
00000080: 307e 703d 8287 2f3c aaa1 e2bd a4e3 ffbd
00000090: 34ee e43d b8dd af3d 2c8d 86bd 40c5 df3d
000000a0: bc5d b73d 8769 87bd ccd2 49bd e357 d6bd
000000b0: beb2 ecbc 2b22 0b3c d97c 0bbd 8354 b5bd
000000c0: 37f3 75bd 9905 e43d 69d5 62bc b4ae d8bd
000000d0: d8c0 4c3c ec66 6dbd 0257 ed3d efbf a73d
000000e0: 2a64 593d bbda b03d 985a 01be ac7a 383d
000000f0: f325 eabd 67e5 7e3d 5d59 143d a968 dfbc
00000100: 68e7 d63c 94a9 e3bd e912 73bd 6fc7 e63d
00000110: c6d2 e23d 886b bfbd cf4d bc3d 2585 523c
00000120: ac34 efbd 8847 ff3d 3f4c 9c3d 94cc 5bbd
00000130: cd51 24bd 0a37 8b3d 9314 623c 0f29 83bd
00000140: 9e41 b63d 83d8 d8bd 070a d2bd 2803 e93d
00000150: 1159 fbbd 2160 023c 883c 9fbd 2aed a6bd
00000160: cbe3 03be 1787 97bd 8e6c ed3d 4484 cebd
00000170: c83b d8bc ff19 1abd d3f1 9dbd f015 b7bd
00000180: cdb2 723d 736c af3d 292c 8dbd 78e9 25bd
00000190: 9108 853d 0712 8e3d ac47 d8bd a452 ec3d
000001a0: 8a1a 0d3d 6e72 d73c 8236 bf3d b5a3 dd3d
000001b0: b517 4abd 7354 d03d 9ae4 043d 1490 773b
000001c0: fb83 cb3d 5f67 7abc 6fc8 e1bd 7183 fd3b
000001d0: 401b bb3d 91e9 ddbd 7ea2 f7bc 035e d63d
000001e0: 1764 933d e680 403d aba7 eabd ced7 b3bd
000001f0: 190c 8fbd b43c 00be 190a ecbd 0acf 54ba
00000200: 3021 66bd 9f76 f1bd 89b7 b3bd 8986 a7bd
00000210: 0206 afbd 4dca 8cbd a42b eb3c 0931 7cbc
00000220: 72e5 cf3b 52b4 093d 85ee 26bc fd4d bdbc
00000230: 3401 33bd 6a29 31bd 26fe 79bd 11b7 063e
00000240: 0854 06bc 4222 df3d c9a8 cc3d 5282 7bbd
00000250: f05d 86bd 3d31 563d 972e e03d ac95 943d
00000260: 0a47 a43d 009f 97bd 549b 97bd 3ead d1bc
00000270: bbe2 96bd df65 f6bc 3445 49bd cd49 cbbd
00000280: 56a5 df3d 7aeb 433c 0993 5bbc 1646 c13d
00000290: dcbe 39bd 582f 92bd 66fc 6bbd 8a39 89bd
000002a0: 825f b5bd 722d 603d 7e78 b3bc ac40 98bd
000002b0: df3b 9d3d f427 703d f37d 043e a56d 5abd
000002c0: 2cda 90bd 1b0c d53d eeb2 043d 7d81 ec3c
000002d0: f08b a3bd 717d e23c 0239 7abd 2543 dfbd
000002e0: 8f8c ac3c f688 bebd 02e6 75bc 8199 b93d
000002f0: 798d 3a3d bfa5 b13d 8906 84bd 29e6 fd3d
00000300: e061 e1bc 8b2c d9bd ba5b a3bd db5b d4bc
00000310: 686d c3bd 4372 893d 6ead 8abc c92d fd3d
00000320: 4603 a3bd 9e35 1c3d fd76 c6bc 5421 c1bd
00000330: 1869 74bd 48ea 9e3d 0a66 a0bc 78d0 5d3d
00000340: ac3f 4bbd 62ea 693d 1e73 d3bd 511b 653d
00000350: 928f 3abd 3740 27bd d4cc 7b3d fce6 00be
00000360: 5e85 c1bc 3466 9dbd 4993 20bc 275d ccbd
00000370: b2c0 bebd 6083 b03d 5c98 b1bd aac9 863d
00000380: 9916 9e3d 85f8 adbd ebc5 a13c 8656 d1bd
00000390: 4f2d 2abd 911c 2ebd 1d14 e7bd 4365 863d
000003a0: a3f0 a33c 3c3c 0c3e b30c e0bd c91c f93d
000003b0: 648b 8e3d 8255 2a3d d409 f3bd dd02 a9bc
000003c0: 43dd 03bd 1624 28bd 3703 843d 347f 96bd
000003d0: c84c cabd 97f3 a9bc c551 bfbd dac6 9a3c
000003e0: 815e 8dbc db1c 0a3d 5526 3d3d f5f6 ebbb
000003f0: a4ea e8bc 9660 23bd 5432 ecbc c00a f3bd

decoder_lstm.bias_hh_l0 f4 [256]
-0.013834982 -0.03017712 -0.026056534 0.043529786 0.05528516 -0.059198152 -0.077457495 0.05250823
0.05031349 -0.07431085 -0.04624977 -0.104232 0.052820906 0.09062978 -0.11527145 -0.13377205
-0.059000812 -0.1013364 -0.090750985 0.12657909 0.059239537 -0.027205419 0.09099699 -0.10004906
0.043262262 0.025024708 0.043688457 -0.07230627 -0.085364535 -0.03595341 -0.009462182 -0.09822753
-0.020027846 -0.099335924 0.10332626 0.032914396 0.10904463 -0.07874282 -0.0034337302 -0.11735134
-0.065773815 -0.016368408 0.08975169 0.105105184 0.08664893 0.03389787 0.11364746 -0.080949314
-0.033036333 -0.03676118 0.040796377 0.066788465 0.06847777 -0.1119017 -0.1232631 -0.04873191
0.06855161 0.09283122 -0.04904321 -0.0012766884 0.083901964 -0.009619604 -0.028687043 -0.10139594
-0.09956766 0.08199367 -0.056049872 0.05905994 0.08393505 -0.06957938 -0.08921798 -0.11972828
-0.055580612 -0.032702304 -0.12285157 0.073869124 -0.11682439 -0.10634029 0.052597698 -0.13013667
0.020417914 -0.10223628 0.06631469 0.06499343 0.10099947 -0.08301199 0.0042804703 0.09335986
-0.05603442 -0.051711947 -0.11967383 -0.06350249 -0.043748837 0.023611652 -0.022028571 0.049690224
-0.098677084 0.012455745 -0.018241955 -0.049010605 0.0908531 0.07638749 -0.0069306465 -0.09239428
-0.10593094 -0.02054944 -0.0022507855 0.04879818 -0.024010044 -0.105516784 -0.07813368 -0.0919533
-0.029371897 -0.09173533 -0.06398158 -0.07188345 0.06825572 -0.096421234 -0.047556225 0.04596104
-0.07777358 0.004189921 0.08677413 -0.12233098 0.04606841 0.08366754 0.10211014 0.018591762
-0.044168487 0.11059002 0.023193091 -0.0672605 0.021414382 0.019471565 0.043183498 0.13151115
0.023821553 -0.117912516 -0.09969031 0.09856168 -0.09865061 -0.1043093 -0.021025203 0.04018541
0.133127 0.022817591 -0.081929035 -0.099890575 -0.09748861 0.12275475 0.05454593 0.1351315
-0.111162916 -0.04729664 -0.03583433 0.08557637 -0.04816673 0.1090062 -0.06161979 0.06861111
0.010481484 0.016135225 -0.09041996 0.11582655 0.0539874 0.051214375 0.08414725 -0.019134365
0.08898723 -0.09207494 0.124168456 0.11306547 -0.06857305 0.093674496 0.046734087 0.092642255
0.020582 -0.0047371676 0.027141355 -0.059064467 0.009767194 0.09472142 0.026747841 -0.029548133
0.012626111 -0.010413595 -0.11951812 -0.064480424 0.0057414635 -0.0069521326 0.052308906 -0.007071406
0.0031666001 -0.012044758 -0.108680025 -0.018036256 -0.059910264 0.107023306 0.09984796 -0.0024563905
-0.03725364 -0.049542442 0.04211311 -0.033445798 -0.0008437546 0.015686786 0.06017227 0.09677025
0.027563255 0.07187949 0.016676119 -0.09600727 -0.05725183 -0.07102956 -0.09761317 0.08535927
0.09291284 0.07807407 -0.110862315 0.07396261 0.09271446 -0.099954024 -0.010397148 -0.05221245
0.016289162 0.044270486 -0.010907109 -0.08847134 -0.008298875 0.12197197 0.124183066 -0.07419405
0.041436393 0.120852664 0.10641665 0.05619167 -0.019624427 -0.04668394 -0.015385029 0.0504995
-0.025682222 0.12103705 0.06003296 0.008669399 0.030181415 0.008314826 0.06662717 -0.109024465
0.09403836 0.038388945 -0.07182324 0.08525549 0.073923595 -0.06924262 0.09592816 0.12215097
00000000: 1fac 62bc 0236 f7bc 8374 d5bc 4a4c 323d
00000010: b172 623d c379 72bd 09a2 9ebd df12 573d
00000020: 8515 4e3d 4930 98bd 6670 3dbd 9677 d5bd
00000030: bc5a 583d 1b9c b93d 7013 ecbd 8afb 08be
00000040: d6aa 71bd 7589 cfbd a7db b9bd f39d 013e
00000050: 28a5 723d e6dd debc a15c ba3d 86e6 ccbd
00000060: c533 313d 9e00 cd3c abf2 323d 4f15 94bd
00000070: 9ad3 aebd e243 13bd 4507 1bbc 842b c9bd
00000080: 7011 a4bc a270 cbbd b89c d33d 3fd1 063d
00000090: ca52 df3d ea43 a1bd 6f08 61bb e655 f0bd
000000a0: 6cb4 86bd 0a17 86bc bccf b73d 6341 d73d
000000b0: ff74 b13d 7ed8 0a3d 00c0 e83d c1c8 a5bd
000000c0: 1b51 07bd e492 16bd 1a1a 273d 64c8 883d
000000d0: 133e 8c3d b82c e5bd 5d71 fcbd 1c9b 47bd
000000e0: c964 8c3d 4b1e be3d 88e1 48bd 8e56 a7ba
000000f0: cbd4 ab3d 8b9b 1dbc 1701 ebbc ada8 cfbd
00000100: 21ea cbbd 4cec a73d 8d94 65bd d6e8 713d
00000110: 24e6 ab3d a27f 8ebd ebb7 b6bd 1a34 f5bd
00000120: 7fa8 63bd daf2 05bd 9b99 fbbd b248 973d
00000130: a041 efbd f0c8 d9bd af70 573d 8c42 05be
00000140: 7843 a73c 4161 d1bd ffcf 873d 471b 853d
00000150: cfd8 ce3d 3102 aabd 3043 8c3b 7433 bf3d
00000160: 5984 65bd e8cf 53bd 8e17 f5bd 980d 82bd
00000170: fb31 33bd 396d c13c 4375 b4bc fa87 4b3d
00000180: 3617 cabd 2e13 4c3c 2770 95bc 58bf 48bd
00000190: 3111 ba3d 0b71 9c3d 7a1a e3bb 3639 bdbd
000001a0: 52f2 d8bd 4d57 a8bc ea81 13bb 9ae0 473d
000001b0: b6b0 c4bc 2f19 d8bd 8d04 a0bd 0352 bcbd
000001c0: 559d f0bc bcdf bbbd c608 83bd a137 93bd
000001d0: a8c9 8b3d 7f78 c5bd 51ca 42bd a541 3c3d
000001e0: c147 9fbd 9b4b 893b a3b6 b13d aa88 fabd
000001f0: 3bb2 3c3d e359 ab3d 1f1f d13d c04d 983c
00000200: 04ea 34bd 057d e23d 70ff bd3c dfbf 89bd
00000210: 376d af3c d582 9f3c 2ee1 303d dcaa 063e
00000220: 6b25 c33c 1e7c f1bd 6f2a ccbd b5da c93d
00000230: 5509 cabd 1da0 d5bd 0c3d acbc 7599 243d
00000240: 7252 083e f5eb ba3c 69ca a7bd 6e93 ccbd
00000250: 1ca8 c7bd d866 fb3d 8e6b 5f3d e95f 0a3e
00000260: 62a9 e3bd 1fba 41bd 05c7 12bd aa42 af3d
00000270: 7a4a 45bd a53e df3d 0865 7cbd fb83 8c3d
00000280: 88ba 2b3c 052e 843c 1a2e b9bd 7836 ed3d
00000290: e421 5d3d 2ac6 513d 6555 ac3d acbf 9cbc
000002a0: f03e b63d c991 bcbd 084c fe3d de8e e73d
000002b0: 0770 8cbd 6ad8 bf3d 3e6c 3f3d 39bb bd3d
000002c0: 959b a83c 3e3a 9bbb 8c57 de3c 95ed 71bd
000002d0: 9506 203c 4efd c13d 4a1e db3c ed0e f2bc
000002e0: bfdd 4e3c c89d 2abc ebc5 f4bd 500e 84bd
000002f0: e322 bc3b b7ce e3bb dd41 563d 41b7 e7bb
00000300: bc86 4f3b 6057 45bc a293 debd c5c0 93bc
00000310: 7764 75bd 092f db3d 167d cc3d 65fb 20bb
00000320: 4697 18bd 04ed 4abd cc7e 2c3d 76fe 08bd
00000330: 6a2f 5dba 9381 803c 3377 763d 7b2f c63d
00000340: 56cc e13c 8e35 933d 5b9c 883c 769f c4bd
00000350: e580 6abd f277 91bd 6ae9 c7bd d7d0 ae3d
00000360: 1649 be3d 4ce5 9f3d c80b e3bd b579 973d
00000370: 14e1 bd3d b2b4 ccbd cd58 2abc b9dc 55bd
00000380: d970 853c f854 353d bbb3 32bc 7630 b5bd
00000390: 01f8 07bc 71cc f93d b153 fe3d 0df3 97bd
000003a0: 35b9 293d 9a81 f73d f9f0 d93d 3d29 663d
000003b0: 68c3 a0bc a937 3fbd 7d11 7cbc 90d8 4e3d
000003c0: 8663 d2bc 46e2 f73d 1fe5 753d 180a 0e3c
000003d0: 043f f73c e83a 083c d373 883d 3848 dfbd
000003e0: 2f97 c03d ba3d 1d3d 1018 93bd 6e9a ae3d
000003f0: 4165 973d 13cf 8dbd fc75 c43d 4a2a fa3d

output_layer.weight f4 [1, 64]
-0.044487365 0.061207198 0.0055417563 -0.07213303 -0.101555035 0.053138193 -0.118277125 -0.09592555
0.008767767 0.05790956 -0.062327445 0.031201348 0.08204265 -0.029981023 -0.012548407 -0.113944
-0.04896227 0.005961351 0.11337168 -0.014409887 -0.11441642 0.038961962 -0.06040684 -0.030720137
0.09245971 0.055813424 -0.086597644 -0.067665316 0.088602655 0.08395593 0.025619982 0.08560876
-0.033330068 -0.020670641 -0.1041026 0.06263823 -0.0133197745 -0.070045166 -0.066421 -0.07147958
-0.027627805 0.054178827 -0.10245353 0.12555262 -0.038115844 0.06922394 -0.10610512 -0.119436786
0.057916265 -0.037770253 -0.04964666 0.057970695 -0.08190614 0.07439736 0.067997105 -0.01717474
-0.11820103 0.050997462 -0.019833734 0.015912298 -0.019902185 -0.04925862 -0.069249265 -0.030304262
00000000: 6238 36bd 66b4 7a3d 9f97 b53b 7bba 93bd
00000010: 16fc cfbd 6fa7 593d 473b f2bd 9d74 c4bd
00000020: aea6 0f3c 9332 6d3d 104b 7fbd f899 ff3c
00000030: fa05 a83d c39a f5bc d597 4dbc 795b e9bd
00000040: a98c 48bd 7057 c33b 692f e83d 7217 6cbc
00000050: 2853 eabd 9496 1f3d 2a6d 77bd cca8 fbbc
00000060: 845b bd3d 9e9c 643d 1b5a b1bd 1d94 8abd
00000070: 4f75 b53d 16f1 ab3d ffe0 d13c a553 af3d
00000080: 1c85 08bd 7a55 a9bc be33 d5bd 7948 803d
00000090: 2f3b 5abc d773 8fbd bc07 88bd e363 92bd
000000a0: b553 e2bc 9eea 5d3d 28d3 d1bd de90 003e
000000b0: 5c1f 1cbd 48c5 8d3d a44d d9bd 469b f4bd
000000c0: 9b39 6d3d fbb4 1abd 4c5a 4bbd ae72 6d3d
000000d0: 68be a7bd a55d 983d 1142 8b3d 0ab2 8cbc
000000e0: 6213 f2bd b7e2 503d 5b7a a2bc 825a 823c
000000f0: e809 a3bc 68c3 49bd 8fd2 8dbd a540 f8bc
