data/ball_motion_model.pth (torch, 737345 bytes, 14 tensors)

encoder.0.weight f4 [128, 3]
000000 4d 3e 96 3e d1 6b 6e 3e 8d c5 55 3e 40 31 5d be
       0.29344407 0.23283316 0.20876141 -0.21600819
000010 ea f2 df be e8 a1 90 3d 70 a9 17 be 28 08 3b be
       -0.43740016 0.07062131 -0.14810729 -0.1826483
000020 63 7a a5 bd f8 b4 d2 3e cf db b3 be da b2 97 be
       -0.08079984 0.41153693 -0.35128638 -0.2962864
000030 4a 16 a1 3e 44 9b 9f be 34 2b 03 bf af 9d e4 3e
       0.31462318 -0.31173146 -0.512378 0.44651553
000040 db 37 8b be df 7e 01 3f 80 a7 72 3c 30 f7 ae be
       -0.27191052 0.50584215 0.014810443 -0.34172964
000050 80 ec b0 3c 26 a3 ca 3e f8 44 dc bd 16 85 1e 3e
       0.021597147 0.39577597 -0.10755342 0.15480456
000060 46 aa 00 3f ee f0 cd be 06 64 7c bb e6 bc 46 be
       0.50259817 -0.40222877 -0.0038511767 -0.19407997
000070 00 b0 fd be f6 11 9f 3e e1 49 ec bd 32 ef 09 3f
       -0.4954834 0.3106839 -0.11537529 0.5388061
000080 49 98 be be 17 3a d3 3d b3 f9 06 be 69 89 d8 be
       -0.3722556 0.10313814 -0.1318119 -0.42292336
000090 3e 54 2e bb b2 82 9c 3e b8 a5 26 3d e0 2d fa be
       -0.0026600505 0.30568463 0.040685385 -0.48863125
0000a0 28 52 b3 3e 21 00 05 bf bc c3 65 3e ce 8a e7 3e
       0.35023618 -0.5195332 0.22437948 0.45223087
0000b0 54 a1 02 bd a5 2f 50 3e 36 06 11 bf 2b 7f ff 3e
       -0.031892136 0.20330675 -0.566501 0.4990171
0000c0 99 14 95 3d a8 45 c8 3e 97 9a f5 be 9f 8a 83 3e
       0.07279319 0.39115644 -0.47969505 0.25691697
0000d0 1f df 9e 3e 6a 44 e6 be 01 81 4e 3d 26 68 23 3e
       0.31029603 -0.4497407 0.050415996 0.15957698
0000e0 d0 66 08 3f 65 0b 9a 3e cd a0 eb 3e 1b e0 b7 3d
       0.5328188 0.30086818 0.4602112 0.089782916
0000f0 d2 7b bb 3e f1 f6 8a be 80 1c 2e bc 48 db 86 3e
       0.36617905 -0.27141526 -0.010626912 0.26339173
000100 97 fe b9 be d1 71 08 bf 63 8d 3e 3e 25 16 6e be
       -0.3632705 -0.5329867 0.18608622 -0.23250635
000110 e5 83 f5 3d 64 c5 e5 3e 5f 57 e3 be 76 c1 82 be
       0.119880475 0.4487716 -0.44402596 -0.25538224
000120 ad 9c fa be 00 cc d4 bc c0 b3 97 bd 90 9c 0b bf
       -0.4894766 -0.025976181 -0.074073315 -0.5453577
000130 8a 55 dc be a8 b4 08 bf 5f 41 c6 3e 2c ee b9 be
       -0.4303401 -0.5340066 0.3872175 -0.36314523
000140 95 9c c7 bd 92 1d 05 3e 20 3e 62 3d 52 ae ed 3e
       -0.097466625 0.12999561 0.05523503 0.46422058
000150 38 1c f1 3d 17 fa 87 be 10 8a 01 bf 8f 69 c9 3e
       0.117729604 -0.2655799 -0.5060129 0.39338347
000160 3f 23 c5 be 88 93 af be 5c ec 0a bf 9c 11 03 bf
       -0.38503453 -0.34292245 -0.54266906 -0.51198745
000170 38 8f 5e be 2e a4 c8 3e df 3f bc be 56 36 85 3e
       -0.21734321 0.3918776 -0.3676748 0.26018018
000180 0f 84 bc 3d a2 93 1d bd dc d3 13 bf bc dc 6e be
       0.09204876 -0.03847087 -0.57745147 -0.23326391
000190 50 c2 0c 3d ee ad 7e be e5 c2 11 3e 94 83 f9 3e
       0.034365 -0.24871036 0.14234503 0.487332
0001a0 33 c3 f3 be 3e 23 d0 bd 79 12 94 3d 57 b3 dd 3e
       -0.47609863 -0.10162972 0.07230086 0.43300888
0001b0 e2 4b c6 3e 05 85 db 3d 9a 29 87 be 74 22 08 bf
       0.3872977 0.10718731 -0.26398927 -0.5317757
0001c0 76 1e e2 be 3c e5 da 3e ba 2f 80 be 4b 10 05 be
       -0.44163865 0.42753017 -0.25036412 -0.12994497
0001d0 dc 38 5e 3e bd 12 d4 be fa 0d 87 3e 21 6f 19 be
       0.21701378 -0.41420546 0.2637785 -0.14983799
0001e0 f7 0d 0d 3f 45 72 d0 3d e0 61 ff 3e 01 3e 12 bf
       0.55099434 0.10178045 0.4987936 -0.5712586
0001f0 ff 08 da be 26 64 41 be 05 aa 81 be 98 3d 12 3f
       -0.42584988 -0.1888586 -0.25325027 0.57125235
000200 f0 cc 8b be 14 73 67 be 48 93 02 be 56 a8 ca 3e
       -0.27304792 -0.22602493 -0.12751496 0.39581555
000210 46 35 0c 3d 32 98 f6 be 74 43 1f 3e c4 ca 06 3f
       0.034230493 -0.4816299 0.15553075 0.52653146
000220 0a 40 69 be 87 a8 98 3e 2f 22 83 3e 56 88 71 3e
       -0.22778335 0.29816076 0.25612018 0.23587164
000230 4f 32 38 3d 8b e0 7a bc 18 d5 b2 3e c9 7f 7b 3e
       0.044969853 -0.015312324 0.34928203 0.24560465
000240 fb 5d b1 be 27 f8 00 be e3 a2 89 3e 11 71 28 3e
       -0.34642014 -0.12594663 0.26882085 0.16449381
000250 b0 1e c2 be 98 b4 f2 3c 51 bb 53 3e bd 4c c2 3e
       -0.37914038 0.02962713 0.20676924 0.37949172
000260 3c a4 b5 3e 92 db c3 be 97 25 69 3e aa c9 ad 3e
       0.35476863 -0.38253456 0.22768246 0.3394292
000270 be 64 01 be 82 41 22 be a2 3a 02 3f f2 88 a9 bd
       -0.12636086 -0.15845302 0.50870717 -0.08278073
000280 cf db 0c bf 22 01 bb 3e 50 de 2d 3e 04 87 ec bd
       -0.550229 0.36524302 0.16979337 -0.1154919
000290 df 8e 0b bf 40 ff 32 bd 9f 92 a5 be ec 9d 04 3e
       -0.5451488 -0.043700457 -0.32338426 0.12950867
0002a0 5a 84 e5 be c6 d3 f1 3e ed 73 08 3f 05 98 c5 be
       -0.4482754 0.47231883 0.5330189 -0.38592544
0002b0 58 67 4f 3e 30 85 51 bd ec 5a 1e be 43 a2 a4 be
       0.20254266 -0.051152408 -0.15464371 -0.32155046
0002c0 28 fb c5 3d a2 c9 c4 3e 57 d4 e8 3e 45 04 73 be
       0.09667045 0.38435084 0.45474502 -0.23732097
0002d0 f2 ea 86 b9 e2 30 c4 3e 5e 12 4d 3e be 83 10 3f
       -0.0002573352 0.38318545 0.20026538 0.5645102
0002e0 27 4a 07 3f 68 4c ad be 84 44 fd 3e 9e 80 54 be
       0.5284752 -0.33847356 0.49466336 -0.20752189
0002f0 6b 9e 6c 3e 5c df ee 3e 80 fb b9 bc 46 1b 80 be
       0.23107307 0.46654785 -0.022702932 -0.25020808
000300 ff 86 24 be cc 08 5d bd 3e 82 de be 5c d2 a9 3e
       -0.16067122 -0.053963467 -0.43458742 0.33168304
000310 04 f2 5e bd 59 b0 09 bf 30 b9 fd 3e db 06 db 3c
       -0.054430023 -0.5378471 0.4955535 0.026736667
000320 42 af fd 3e cd ae a6 be 09 66 58 bd 05 d9 fe 3e
       0.49547774 -0.32555237 -0.052831683 0.49774948
000330 50 db 84 3d 40 6b 02 bd a0 7c 83 bd 86 dd 03 bf
       0.06487143 -0.031840563 -0.06420255 -0.5150989
000340 ea 56 11 3e 57 cd 4b be 9a 05 dc 3e 2d 4b d8 3e
       0.14193311 -0.1990255 0.42973024 0.42244855
000350 3e 9f 57 be e0 a0 78 3e f1 93 05 bf e0 8c fa bd
       -0.2105684 0.24280119 -0.52178866 -0.12233901
000360 17 5b 35 3e be c4 3f bd 6e 03 8e bc 46 31 00 3f
       0.1771053 -0.046818487 -0.01733562 0.50075185
000370 5e 69 a3 bd c4 6e 03 3f ee 06 62 be c9 f5 0a bf
       -0.079790816 0.5134089 -0.22072956 -0.5428129
000380 00 88 e2 3e 52 2e 04 3f 70 43 88 bd 64 a2 44 be
       0.44244385 0.5163318 -0.06653488 -0.19202572
000390 1f 0d 06 3f 63 c1 91 3e 4a 11 02 bf 28 de 84 3e
       0.5236377 0.28467855 -0.5080763 0.25950742
0003a0 da 7f 93 3d f2 9a 10 3e 9d 32 ac 3e cc aa f2 3e
       0.0720212 0.14121607 0.33632365 0.47395933
0003b0 8a 9c 03 3f 71 3c f7 3e 19 93 0d bf 27 2e f6 be
       0.51410735 0.482883 -0.5530258 -0.48082086
0003c0 20 9b 05 3e ec 2f 0d bf 00 8c df 3c c4 c6 5f 3e
       0.13047457 -0.5515125 0.027288437 0.21853167
0003d0 28 fd 85 be 42 37 e0 be 58 f1 74 be 20 5e cd 3c
       -0.26169705 -0.43792158 -0.2392019 0.025069296
0003e0 b0 d7 98 3d 19 90 bc bd 20 dc ca 3e b1 bf 66 be
       0.07463014 -0.09207172 0.39621067 -0.22534062
0003f0 70 63 51 3e 61 23 14 3f 45 e3 9d be 8a 0d 52 3e
       0.20448089 0.57866484 -0.30837455 0.20512977

encoder.0.bias f4 [128]
000000 be 11 05 3f 6b ff c4 be 76 ba 94 3d ab 46 0b bf
       0.519802 -0.38476118 0.07262127 -0.54404706
000010 00 d6 8f 3e 75 70 fd 3e 7a 30 4a be 9f 99 cb 3d
       0.28092957 0.4949986 -0.19745055 0.0994141
000020 ae 12 12 3f dc 4e a4 bd e8 3d 1e be 5d d5 dc 3e
       0.5705975 -0.08022854 -0.15453303 0.43131533
000030 b3 cf 66 bd d3 3c 37 be 9a 17 30 be 07 13 bc 3e
       -0.05635042 -0.17894296 -0.17196503 0.36733267
000040 0f c6 c5 3d 7c 4d 60 bd 56 73 99 3d 58 a6 d9 be
       0.09656917 -0.054761395 0.07492702 -0.42509723
000050 91 af 03 bf b8 27 c0 be aa d8 d7 bd 37 40 f5 3d
       -0.5143977 -0.37530303 -0.10539372 0.11975139
000060 7b 87 00 bf f6 79 c7 be a6 3e 85 3e db 1f 69 be
       -0.50206727 -0.38960236 0.2602436 -0.22766058
000070 7c 79 08 be 2d c6 43 3e 4f 5f 8a be 7c a5 a2 be
       -0.13327593 0.19118567 -0.2702584 -0.3176688
000080 45 2e 0e 3d 28 c9 d3 bd 3a 14 06 bf 56 8f 30 3e
       0.034712095 -0.10341102 -0.52374613 0.17242178
000090 47 26 80 bd d0 a4 cc 3e 0a 13 d3 3e 53 e4 1c be
       -0.06257301 0.39969492 0.41225463 -0.15321474
0000a0 ea 4e af 3d 06 f3 76 be 3f bd e5 bd 26 54 e6 be
       0.085599735 -0.24116144 -0.112177365 -0.44986075
0000b0 29 24 2b 3e 04 1b 5b 3d 41 e6 4c 3e 27 b4 09 3e
       0.16713013 0.05349256 0.2000971 0.13447629
0000c0 8a b7 a8 3e 50 56 43 3e 92 88 46 3e 85 ce f8 3e
       0.3295253 0.19075894 0.19388035 0.48595062
0000d0 5f 2b d1 3e fa 2c c2 3e 65 88 10 bf 20 7b eb bd
       0.40853402 0.3792494 -0.5645812 -0.114980936
0000e0 53 f2 4c 3d 01 dd 07 bf 62 a9 30 be e4 53 04 bf
       0.050035786 -0.530716 -0.17252114 -0.51690507
0000f0 4f 6e 9e 3e d6 ab b3 be e8 c5 f1 be 6a 05 00 bf
       0.30943534 -0.35092038 -0.47221303 -0.5000826
000100 3f a1 e0 3e d1 53 e4 bd 32 f0 f5 be bb 1b 97 3e
       0.4387302 -0.11148799 -0.48034817 0.29513344
000110 1c 4f f7 bd bd d0 df 3d c2 2a 31 be 5e 97 b4 be
       -0.12075636 0.109284855 -0.17301467 -0.35271734
000120 6c fd 03 3f 8a ce 02 bf 92 3c 07 be 5b ba cd be
       0.51558566 -0.51096404 -0.132067 -0.4018124
000130 b2 db 97 3e e2 a0 10 3f f4 73 d1 be b8 b6 ca 3d
       0.29659802 0.5649549 -0.40908778 0.09898132
000140 f2 93 f0 be 6b fc 06 3e 5c 7b 07 bf 71 2f a4 3e
       -0.46987873 0.13182227 -0.52922606 0.32067445
000150 81 cb 60 bd 97 d6 a4 bd f1 80 a6 bd 5a ba ab be
       -0.054881576 -0.08048742 -0.08130062 -0.33540612
000160 ec e1 fb 3d 1a dd b7 be 74 b0 05 bd 4d f0 84 be
       0.122989506 -0.35910875 -0.032638982 -0.25964585
000170 b0 75 16 3e d1 f9 76 be 64 64 f1 3e f1 5d d2 be
       0.14693332 -0.24118735 0.47146904 -0.41087297
000180 b4 5e 9b be 80 bc 2f 3e 47 aa 65 3e 34 38 02 be
       -0.3034569 0.17161751 0.22428237 -0.12716752
000190 b6 1b 00 be 42 50 a1 3e f1 da e2 bc e9 76 4a be
       -0.12510571 0.31506544 -0.02769229 -0.19771923
0001a0 c7 9e eb be f5 d1 7e 3e f0 6c f1 3e d3 92 5c be
       -0.46019575 0.2488478 0.47153425 -0.21540384
0001b0 00 20 5f b9 1f dc 24 bd 52 96 02 3f 03 78 44 3b
       -0.00021278858 -0.040248986 0.5101062 0.002997876
0001c0 ad 07 5c 3e 40 44 9c bd b4 af d6 be bb 6e 84 be
       0.21487303 -0.07630205 -0.41930926 -0.2586573
0001d0 48 3d b4 be 10 7c 0e bd 65 38 8b 3d 9a 6e 11 3f
       -0.35203004 -0.034786284 0.06797866 0.5680939
0001e0 7f 96 cd be 8c 81 a9 be 13 d0 bd 3e be b1 b4 be
       -0.40153882 -0.3310665 0.3707281 -0.35291857
0001f0 97 c3 9d 3e 21 11 a3 3e 75 ac a9 bc 94 36 aa 3d
       0.30813286 0.31849006 -0.020712117 0.08311191

encoder.2.weight f4 [128, 128]
000000 26 66 18 3d f2 21 6d bd 2c d5 86 bc 00 d0 2f 39
       0.03720679 -0.0578937 -0.01645907 0.00016766787
000010 55 6c a3 3c 06 3c 0c 3d 2a 00 0d bd b5 da c3 3c
       0.019949118 0.03423693 -0.034423985 0.023907999
000020 6c 06 b8 3d d2 4f 21 bd 87 c4 98 3d d4 32 4a bc
       0.089856 -0.039382763 0.074593596 -0.01234122
000030 46 a6 8f bd 5b 0d a1 3d 19 ac ae bd e0 67 70 bd
       -0.07014136 0.078638755 -0.08528919 -0.058692813
000040 d3 3a a5 bd 8a 75 19 3b ae c2 c3 3c 02 c0 1b bd
       -0.080678605 0.0023416006 0.023896541 -0.03802491
000050 c0 20 e5 ba 75 0d 9f bd 05 c5 e1 3c 58 74 47 bc
       -0.0017481074 -0.077662386 0.027559767 -0.012173735
000060 c3 18 8e 3d 27 88 4a bd f5 96 84 bc 1b e2 7f 3d
       0.06938317 -0.04944625 -0.016185263 0.06247149
000070 18 ae d8 bc 6c 98 5d bd 42 96 14 bd 97 79 e2 3d
       -0.026450202 -0.05410044 -0.03627611 0.11058348
000080 fe 5b 6f 3c ea ec 24 3d e6 65 88 bc 0b 7a e2 bc
       0.014609335 0.040265 -0.016650151 -0.027646085
000090 78 0f 8a bd bc 52 64 3c 84 07 97 3d 9b 5c bf 3d
       -0.06741232 0.013935741 0.0737448 0.09343835
0000a0 e4 d7 83 3d d6 68 81 bd 06 5d ad 3d d8 e1 02 3c
       0.06437662 -0.06318824 0.084650084 0.007988416
0000b0 85 08 6d 3d f8 6a f5 bc 63 86 3b bd 21 ee ed 3c
       0.057869453 -0.029958233 -0.045782458 0.029044213
0000c0 71 a1 3c 3d 37 d3 61 3d bf cb a8 bd a7 b6 24 3d
       0.0460524 0.05513307 -0.082419865 0.040213253
0000d0 45 f7 41 3d cd 53 4f 3d b8 f6 36 bd 70 76 34 3c
       0.047354955 0.050617028 -0.044668883 0.011014566
0000e0 0d ab 83 3d f0 24 a5 bd 3c 32 09 3d 23 44 52 3d
       0.0642911 -0.08063686 0.033495173 0.05133451
0000f0 cc 00 b2 3d 51 c3 ac bd 06 54 6c 3d 32 d0 2f bd
       0.08691558 -0.08435691 0.05769732 -0.04292316
000100 66 5c bb ba ae ad 24 3d 57 a4 2d bd b1 f9 c7 bc
       -0.0014294505 0.040204696 -0.042393055 -0.024411054
000110 ba 26 02 3d 55 6a 6f 3c 69 d1 65 bd 0c 43 4d bd
       0.031775214 0.014612754 -0.056107912 -0.05011277
000120 45 bd 8c 3c 6b e3 f9 3c 53 01 a1 bd f2 bb 81 3d
       0.017180094 0.03050395 -0.07861581 0.06334676
000130 60 61 a2 bd 9e b3 95 3d 47 86 a3 bc 03 9a 42 bd
       -0.07928729 0.0730965 -0.01996149 -0.04751016
000140 61 a0 7f bd 86 76 d9 bb ad 31 28 bd 69 b5 41 3d
       -0.06240881 -0.0066364435 -0.041063 0.047292147
000150 ad 9a 05 bc f4 46 d6 3b 41 32 88 bd 1e bf d7 bd
       -0.008154553 0.00653922 -0.0665021 -0.105344996
000160 d9 9c 9a bd 9f e2 82 3d 81 75 56 bd 20 f1 84 bb
       -0.075494476 0.06390881 -0.052358154 -0.0040570647
000170 3d f4 86 3d eb ae c3 bd 86 72 8c bd b2 50 38 3d
       0.065895535 -0.09554847 -0.06857781 0.044998832
000180 b5 a9 c3 3d 4a 7a 94 3c bb 94 76 bd b3 39 91 3d
       0.095538534 0.018124718 -0.060200434 0.070910834
000190 5d 05 84 3d 45 a2 a7 3d 4d 0a 64 bd 08 94 33 3d
       0.064463355 0.08185247 -0.055673886 0.043842345
0001a0 ba f6 13 3d 00 22 ac 3d 73 97 b4 bc 7d 47 aa 3c
       0.03612397 0.084049225 -0.022044873 0.020786041
0001b0 de a8 1f 3d a8 d1 0a bd 33 eb 37 bd 3e fa e0 bc
       0.038979404 -0.03389135 -0.044902038 -0.027463075
0001c0 ca dc 03 3d cd 3d b0 3d a7 9c d7 bd c3 99 0d bd
       0.032192983 0.086055376 -0.10527926 -0.034570467
0001d0 80 74 d5 bb 16 01 de bc 48 f2 43 bc b4 9e 37 3d
       -0.006514132 -0.027100127 -0.01195962 0.044829085
0001e0 96 03 cf 3a 78 a6 92 bd c1 c1 52 bc 80 4e 9f 3b
       0.0015793915 -0.07160658 -0.012863577 0.004861653
0001f0 64 7f 78 bd 10 94 b3 bc 8d e0 93 bc 20 31 e6 ba
       -0.060668364 -0.021921188 -0.01805141 -0.0017562248
000200 90 92 df bc 2f ba ad bd 0e d4 ec bb 93 b1 15 bd
       -0.027291566 -0.08482777 -0.0072274273 -0.0365463
000210 22 88 1a 3d 28 5c 34 3d 34 dc 93 bc 64 55 ba bd
       0.037727483 0.0440332 -0.018049337 -0.09098318
000220 3c 50 23 bc 32 e1 2c 3d 81 55 6c bd 6c 33 b9 3c
       -0.00996786 0.04220695 -0.05769873 0.022607528
000230 b0 a8 b2 bd c4 b8 e5 bb 3a 78 1b 3d 95 09 a6 3d
       -0.08723581 -0.007010551 0.037956454 0.081072964
000240 de 10 09 3d 5f 34 a2 3c bc 4c 6d 3d ea d3 05 3b
       0.03346335 0.019800363 0.057934508 0.00204205
000250 9a a0 26 3d 63 28 8a 3d 33 89 cb bc 49 27 1e bd
       0.040680505 0.067459844 -0.024845695 -0.038611684
000260 e5 30 98 3d 1d da 1b bd da 2f 09 bd e3 b7 14 3d
       0.07431201 -0.038049806 -0.0334929 0.03630818
000270 7a 0c 16 3d b6 cd 1e 3d 28 ff 13 bd 8c db b1 bd
       0.036632992 0.0387704 -0.036132008 -0.08684453
000280 b2 ce 86 bd 10 f2 fe 3b 78 d9 85 bd d8 5c 08 3d
       -0.06582393 0.007780321 -0.065356195 0.033291668
000290 a9 92 72 bd 6f c8 9d 3c 51 71 de bc 36 ab fa bb
       -0.059221897 0.019260613 -0.027153643 -0.0076498045
0002a0 c8 9b f7 3c 20 a3 3a 3c b2 fe 22 3c 90 27 80 3b
       0.03022565 0.011391431 0.009948419 0.003910966
0002b0 d6 66 b1 3c 25 c6 91 bd bb 51 5e bd 52 59 30 bd
       0.021655481 -0.07117871 -0.054277163 -0.043053932
0002c0 f3 20 65 bb 89 fb 9d 3d fd 67 59 3d f0 e3 03 bd
       -0.0034962266 0.07713992 0.053077687 -0.0321998
0002d0 00 f9 b1 bd 13 1b 7b bd aa 9e 01 bd f4 db e8 bc
       -0.08690071 -0.061305117 -0.031645454 -0.028425194
0002e0 28 ef 51 bd b5 70 a7 bd 83 e9 5d bd ab 6a a1 3c
       -0.051253468 -0.08175794 -0.054177772 0.019704184
0002f0 c4 1d ab bd 65 17 6a 3d 2f 7c 3b 3d e0 e7 9b bc
       -0.08355287 0.057151217 0.045772728 -0.019031465
000300 46 38 9f 3d a9 15 46 bd 0b f5 17 bb 96 b9 90 bd
       0.07774405 -0.0483605 -0.0023186828 -0.07066648
000310 60 25 81 bb 81 3d f5 bc 66 bf 49 bc 08 2a 10 3c
       -0.003941223 -0.029936554 -0.012313699 0.0087990835
000320 0a 9b 31 3c 06 7e 80 bd 3e 05 58 bd aa c6 20 3a
       0.010840187 -0.06274037 -0.052739374 0.0006133119
000330 17 56 48 3d 42 a3 b5 3c b2 ab ca bd 68 18 6f 3c
       0.048910227 0.022172574 -0.098960295 0.014593221
000340 96 35 8a bd 1b a4 cc 3d 4f 72 76 bd cc e5 f1 3b
       -0.06748502 0.09992238 -0.060167607 0.0073821303
000350 80 33 ca bd d3 ac 87 3d 7a f2 d5 bb ea f5 95 bd
       -0.09873104 0.066247605 -0.0065291496 -0.07322295
000360 25 5b ab 3d c0 ae 21 bd 6e a0 1f bd f7 d2 5e bd
       0.08366994 -0.039473295 -0.038971357 -0.05440041
000370 ad 92 5e 3c 2b 17 39 3d ec ce 39 3c 8d a0 a9 3d
       0.013584775 0.04518811 0.011340838 0.08282576
000380 d6 15 86 bd 3d 67 f9 bc 0b 41 8e 3d 0b 4b 69 bd
       -0.065471336 -0.030444736 0.06946 -0.056956332
000390 76 fb 06 3d 78 35 9e 3d c6 ed 47 bd db 7a c9 bd
       0.032954656 0.07725042 -0.048810743 -0.09837886
0003a0 d6 5d ee bc bc ab 86 3d 29 36 65 3d 71 ea fd 3c
       -0.029097479 0.065757245 0.055959854 0.03099558
0003b0 c4 7a ec bc 09 2e 96 bd 60 87 f2 bc 56 30 73 bd
       -0.028867133 -0.07332999 -0.029605567 -0.05937227
0003c0 fc f0 a3 bb a8 ea 10 3d cd ee cf bd a6 a3 55 bd
       -0.005003093 0.035380036 -0.101529695 -0.05215802
0003d0 d8 c6 9e 3c 96 f5 56 3d 19 89 30 3d 70 48 ce 3b
       0.019381925 0.052480303 0.043099497 0.0062952563
0003e0 5c a8 b9 bd d1 a7 9e 3d ec 02 ca bc e0 dc 88 3b
       -0.09065315 0.07746852 -0.024659596 0.004176721
0003f0 fb fe 58 3d e9 a4 37 3d 49 3f 9e bd 7d 3d a2 3d
       0.052977543 0.044835005 -0.077269144 0.07921884

encoder.2.bias f4 [128]
000000 a9 60 bd bc 89 e2 17 3d b7 4c c5 bc 03 c7 b6 bc
       -0.02311738 0.037081275 -0.024084432 -0.022311693
000010 cc 15 b0 bc c3 21 0a bd e8 a6 97 3c 95 eb 94 bc
       -0.021494769 -0.033723604 0.018512204 -0.01817874
000020 97 65 3a 3c 1f 22 ef 3c b1 b8 ba 3d a0 ca 1d 3c
       0.01137676 0.029191075 0.09117258 0.009630829
000030 b0 a2 97 bc 28 e1 2a bc 2e a7 08 3c ac fd 2f bd
       -0.018510193 -0.010429658 0.00834064 -0.04296653
000040 a5 70 85 3d cc a2 7c bc d7 a1 3b 3c e6 95 43 3d
       0.06515626 -0.015419673 0.01145216 0.047750376
000050 ba 33 8a bd 10 0e d4 bc fb 45 a9 3c 26 91 9a 3d
       -0.06748147 -0.025885612 0.020663252 0.07547216
000060 ce 61 df bc e7 6d 23 3d 95 23 83 3d 71 6e 9e 3b
       -0.027268317 0.039899733 0.06403271 0.004834943
000070 fb 58 3f 3d 26 7a 62 3d 2c a0 b0 3c c0 79 b7 3c
       0.046715718 0.05529227 0.02156075 0.022396922
000080 69 19 a3 3d 10 1f 87 3d 5f fa af 3b bf 22 68 3d
       0.07963831 0.065977216 0.0053704227 0.05667376
000090 58 ea 2a ba 0c d3 72 3d c9 9d 32 bd 8a 36 70 3b
       -0.00065199053 0.0592833 -0.043607507 0.0036653602
0000a0 e8 81 c9 bc 59 62 4d bc da c0 b0 3d f8 5e 6b 3c
       -0.024598077 -0.012535655 0.086305335 0.014365904
0000b0 24 5b ce 3c e9 bb 51 3d c0 04 3c 3c 82 23 81 3d
       0.025189944 0.051204596 0.011475742 0.06305601
0000c0 dc 7d c2 3d 97 5c 63 bd 54 61 0c bd ae 87 72 3d
       0.09496662 -0.055508222 -0.034272507 0.059211425
0000d0 07 04 84 3c 9d 9f 32 bc 66 aa 90 bd a5 77 37 3b
       0.016115202 -0.010902313 -0.07063751 0.0027994898
0000e0 1e a5 5a b9 64 14 93 bd 53 1f 12 3d c8 8e 30 bd
       -0.00020851611 -0.071816236 0.035674404 -0.043104917
0000f0 5e 87 75 3d e9 9c 5f bd 52 29 6a 3d 63 ee a0 bd
       0.05994355 -0.054593 0.057168312 -0.07857969
000100 35 9d 42 bd 41 4a 70 3c ae 98 9c bd 60 b5 69 3c
       -0.047513206 0.014666141 -0.07646309 0.014264435
000110 3c 72 f9 3c 7c a8 23 bd 59 95 e8 bc b4 38 3c bd
       0.030449979 -0.0399556 -0.028391527 -0.045952514
000120 7f 5f ae bd 5b 91 95 bd db ec 3c bd 07 c2 af bd
       -0.08514308 -0.07303115 -0.04612432 -0.0858193
000130 ad 50 40 3d 64 6e 53 3d f1 7f 9c bb d1 e5 6a bd
       0.04695194 0.05161895 -0.004775994 -0.057348076
000140 ff 39 ae bd 28 ea a1 3d cd 0e 7b 3d f7 e8 aa 3b
       -0.085071556 0.0790599 0.061293412 0.00521576
000150 0a d2 1c bd f6 fc 77 bd 67 5b af 3d 36 ef 34 3d
       -0.038286246 -0.060543977 0.085623555 0.04417344
000160 22 bb 19 3d 49 75 39 3d d8 d1 7a 3d 58 05 c4 3d
       0.03753198 0.045277867 0.06123528 0.09571332
000170 49 08 30 3d 6f 8e 04 bd c3 ef 99 3d 7a 7a e5 bc
       0.04297665 -0.032362398 0.07516434 -0.028012503
000180 9b 02 b2 3c cb 77 83 3d 2b 83 81 3b a7 d6 ac 3c
       0.021729758 0.06419333 0.003952404 0.021098448
000190 a3 8e 81 3d 2c d6 d5 bc e0 a5 89 bb 69 20 d9 ba
       0.06326034 -0.026103102 -0.004200682 -0.0016565445
0001a0 92 79 5e bd fa 33 87 bd 9b 56 ef 3c 7d b6 89 3d
       -0.054315157 -0.066017106 0.029216101 0.0672426
0001b0 16 d8 07 bc c5 84 52 3d 4d ea a1 3d 08 4e a5 bd
       -0.008291265 0.05139615 0.079060175 -0.08071524
0001c0 17 c3 a0 bc 7f 7e 22 bd 45 a2 d7 bc e6 ae c6 bd
       -0.019624276 -0.039671417 -0.026322493 -0.09701328
0001d0 98 e4 33 3c fc 2f 02 bd e8 71 6d 3c f7 7e 3e 3d
       0.010979794 -0.031784043 0.014492489 0.0465078
0001e0 90 a4 33 bd 9d c0 77 bd 57 fb 53 3d 75 6e 5d 3c
       -0.04385811 -0.060486425 0.05175337 0.013515105
0001f0 c5 ff b7 bd af 23 6e 3d 2a 47 a5 3d 42 2c 1f 3d
       -0.08984331 0.0581395 0.08070214 0.038860567

encoder.4.weight f4 [128, 128]
000000 68 26 13 bd a4 fe 7a bc de 0d 5e bd ea 8e 3d bd
       -0.0359253 -0.0153195 -0.054212444 -0.04627887
000010 b0 45 2a 3c 4b d9 93 3d a5 fc 14 bd 26 1c 1a 3d
       0.010392591 0.0721918 -0.036373753 0.0376245
000020 59 34 90 bd d2 3b 93 3d 4a 71 ab 3d da c3 37 3d
       -0.070412345 0.07189144 0.083712175 0.044864513
000030 4e 2f 8c bd 6d de ab bd 47 aa 87 bd 9f 3d 7d bd
       -0.0684496 -0.08392034 -0.06624275 -0.061826345
000040 bd 38 39 3d 0d bf ac bd 0b 56 45 3d 46 68 f8 bc
       0.045220125 -0.084348775 0.04817776 -0.030323159
000050 ff 45 39 3d 27 2d 94 3d 5c 91 ce bd af 75 cb 3c
       0.04523277 0.072351746 -0.10086319 0.02483639
000060 37 5e 97 bd 85 34 f8 39 97 14 fd bc 0f 43 2a bd
       -0.07391017 0.00047341376 -0.030893607 -0.04156786
000070 d9 b4 a2 3d 29 74 dc 3c f7 ff 98 bc 9e 05 7d 3d
       0.0794465 0.026910858 -0.018676741 0.061772935
000080 32 7d 36 3b 26 4e 56 bd f9 91 80 3d e5 01 ba bb
       0.0027845618 -0.052320622 0.06277842 -0.0056764954
000090 a2 c9 1a 3b 89 7e 65 3d da 3a 8f 3c bb 6b 4e bd
       0.0023618718 0.056028876 0.017484117 -0.05039571
0000a0 2c 07 e4 3c 47 5a 61 bd 7e c9 b9 3c c0 40 f0 3b
       0.027835451 -0.055017736 0.022679087 0.0073319376
0000b0 8e 3c f5 bc dd dc be 39 d0 db f6 3b 09 6b 03 3d
       -0.029936101 0.0003640418 0.007533528 0.0320845
0000c0 9e 44 aa 3d 3f d9 7d bd 95 37 c9 bc df 4a 8e 3d
       0.08313869 -0.06197476 -0.024562636 0.06947874
0000d0 4f 42 71 bd a7 52 5b bd 78 74 27 3c c4 59 da bc
       -0.058901127 -0.05354562 0.010220639 -0.026654132
0000e0 e5 1f a5 bd 86 ee 38 bd 28 fe b5 bd 3c 1d bc bb
       -0.08062724 -0.04514935 -0.08886367 -0.0057407897
0000f0 2a 9c 40 3d d0 96 7f 3c 10 4b 59 3c 82 2c 34 bd
       0.04702393 0.015599921 0.013262525 -0.04398776
000100 d8 5e 61 bd 00 d0 31 bb bb a2 ae 3c f6 fc 4f 3d
       -0.05502209 -0.0027132034 0.02131783 0.05077835
000110 a3 f2 82 bc 44 30 dd 3c 7f cf 64 3d 1a 75 0d bd
       -0.015984839 0.027000554 0.055861946 -0.034535505
000120 80 ae 3f 3b 4c a2 7c 3d fe af cf bd 80 7e 68 3c
       0.0029248297 0.061678216 -0.1014099 0.014190316
000130 64 7c 87 bd 54 ea ce 3d 2d e0 90 bd f6 c8 bd bc
       -0.066155225 0.10103288 -0.07074008 -0.023167115
000140 6d 99 b2 3d 38 9f b6 bd 46 38 8a bd 27 01 b5 bc
       0.0872067 -0.08917087 -0.067490146 -0.022095276
000150 e7 19 94 bd a8 ed 97 3c af 3a a8 bd 88 eb 17 3d
       -0.07231503 0.01854594 -0.08214318 0.037089854
000160 74 84 8b 3c 53 64 82 3c 23 8a 5d bd 1d be 04 bd
       0.017030932 0.015916979 -0.054086816 -0.03240787
000170 e8 42 90 3d 91 b8 aa 3d 5a 1b 14 bd 8e 09 0e 3d
       0.07044011 0.083359845 -0.036158897 0.03467708
000180 91 bd a6 3d 14 1b d5 3c 85 24 7c 3d 7e 32 e9 bc
       0.08141626 0.026013888 0.061558265 -0.02846646
000190 ad f9 56 3d 54 b3 99 bd 28 28 7e bc d7 ae 83 bc
       0.052484203 -0.07504907 -0.015512504 -0.016074581
0001a0 64 2f a7 3d 32 1d a8 3d 81 a3 54 bd d3 ea 1e bd
       0.08163336 0.082086936 -0.051913742 -0.038798165
0001b0 34 40 50 3b db 6e a4 bd 7c 47 8b 3c f0 fb fd bc
       0.003177655 -0.080289565 0.01700186 -0.031003922
0001c0 8b 0c ad 3d 22 a7 39 bd a5 52 b8 bc 2a 04 6f 3c
       0.08449658 -0.045325406 -0.022500345 0.014588395
0001d0 64 36 a2 bc 86 42 3f bd 9f e2 47 bd 87 a9 49 3d
       -0.019801326 -0.0466943 -0.048800107 0.04923394
0001e0 c7 13 ec ba d3 61 17 bd c4 51 aa 3d 68 71 d5 bc
       -0.0018011265 -0.036958527 0.08316377 -0.026055053
0001f0 a1 2b 90 3d 56 1e ad bd a8 bb 86 3c 45 39 a1 3d
       0.070395716 -0.08453052 0.016446903 0.078722514
000200 91 c9 8f bd 27 27 c3 bc ec 4a 93 bd e4 24 63 3d
       -0.070208676 -0.02382238 -0.071920246 0.055455104
000210 8d ac 96 3d cd e5 c4 bd de e9 09 bd 0a 7a ec bb
       0.0735713 -0.096141435 -0.0336703 -0.0072166966
000220 33 36 0c 3d 06 aa cf bd 28 58 8e bd 88 03 66 3c
       0.034231376 -0.10139851 -0.06950408 0.014038928
000230 ba 67 7d 3d 0c 9a 8c 3d 35 2a 6e 3d b8 2e 38 bb
       0.0618665 0.068653196 0.05814572 -0.0028104018
000240 cd 26 2e bd f7 93 3b 3d 09 d1 00 3d 40 1f e6 3b
       -0.042517472 0.045795407 0.03144935 0.0070227683
000250 05 5f 8d 3d 5e d0 81 bd 81 3c c9 bd 5a 2c 53 bd
       0.06902889 -0.06338571 -0.09825993 -0.05155597
000260 26 e7 5a 3d 37 89 92 bd 7b 6a 82 3d 69 0c 84 bc
       0.053443097 -0.07155078 0.06367966 -0.016119199
000270 ea 8e ba 3a e6 88 e0 3a 2a 21 73 bd a3 d2 80 3d
       0.0014233266 0.0017130643 -0.0593578 0.06290176
000280 3d 05 93 bd b2 29 89 3d 4e ed 8a bd 2f 1d 83 3d
       -0.071787335 0.06697406 -0.067835435 0.06402051
000290 b9 a9 06 bd fd f6 ea bc 04 3f 52 3c 2f 0f 8c bd
       -0.032876704 -0.028682226 0.012832407 -0.068388335
0002a0 52 0c 27 3d b5 af 80 bd 10 74 16 3d c0 c8 d2 bc
       0.040783234 -0.062835135 0.03673178 -0.02573049
0002b0 e3 bf 8b bc 09 28 ae 3c af 37 aa 3d f4 cb ab 3b
       -0.017059272 0.021259325 0.08311402 0.005242819
0002c0 b6 b8 1e 3d 88 e1 75 bc 74 d2 b6 3c 32 d9 ae bd
       0.038750373 -0.015007384 0.022317149 -0.085375205
0002d0 48 ab 54 3d b3 4b 85 3c 9a eb a4 bd 82 5f f3 bc
       0.05192116 0.016271448 -0.0805275 -0.029708628
0002e0 eb 11 ad bd ca e5 09 3d b7 ee 04 3d 18 1b a7 bc
       -0.08450683 0.03366641 0.03245422 -0.020398661
0002f0 17 cb 34 3d a8 23 d0 bc 8f 72 d0 bd 5a 33 b1 bd
       0.044138994 -0.025407627 -0.101781 -0.08652373
000300 76 92 2b 3d 43 aa d6 bc 17 ca 0b bc f0 4c ce 3c
       0.041887723 -0.026204234 -0.008532069 0.025183171
000310 b5 02 b7 bd a4 a0 9c 3c f5 a5 1d 3d 6c 93 9b 3d
       -0.08936063 0.019119568 0.038488347 0.07596478
000320 f4 ea c7 bc 92 f0 45 bd f8 86 3a 3d 88 aa 18 3c
       -0.024404027 -0.04832513 0.045538872 0.009318002
000330 eb 09 01 3d 18 62 da bc 32 d1 22 3d 05 bb 5c bc
       0.0315036 -0.026658103 0.039750285 -0.013472323
000340 d5 12 81 3d 8f 0a b7 3c b9 39 0e 3d 75 b4 b3 bd
       0.0630242 0.022343902 0.034723017 -0.08774654
000350 5a 0b 8e 3d 73 4d 8a bd ca 47 4f 3b a7 5a 92 bd
       0.06935759 -0.067530535 0.0031628483 -0.07146197
000360 a3 44 8c 3d d1 4f 07 3d 6b e3 5c bd 01 4f 8f bd
       0.06849029 0.033035103 -0.05392782 -0.06997491
000370 89 1a 62 bd 93 4f 64 3c 81 19 9d 3d 3e 5d 29 3d
       -0.055201087 0.013934988 0.0767088 0.04134869
000380 77 4b ff bc 79 a1 3e bd 78 90 17 3d 85 ad 47 3d
       -0.031163914 -0.04654071 0.03700301 0.048749465
000390 e7 e2 25 3d 84 a5 7b bd 5c 9d 39 3d 3f b2 1c bd
       0.040499594 -0.061437145 0.045316085 -0.038255926
0003a0 11 8f 0c bd bb 64 8a 3d 20 f9 fd bc 94 7b 83 bd
       -0.034316126 0.06757494 -0.031002581 -0.06420055
0003b0 79 b8 81 bd 28 29 8e bd 09 8d 1c 3d 9f 8d 7c 3d
       -0.063340135 -0.06941444 0.03822044 0.061658498
0003c0 c5 e1 d0 3c 1f 15 91 3d e7 51 71 3d b7 9d 5f b9
       0.02549828 0.07084107 0.058916 -0.0002132569
0003d0 d8 b9 96 bd 13 81 24 3d a0 51 a9 3c 6f 58 92 bd
       -0.07359666 0.040162157 0.020668805 -0.071457736
0003e0 38 cd 12 3d f8 cc 58 3d 1d 99 3c 3c 4e 17 aa 3c
       0.035840243 0.05292985 0.011511114 0.020763066
0003f0 0f 81 96 bd 98 c7 a6 bd 9b 33 4e 3d d5 d1 a8 3d
       -0.07348835 -0.08143538 0.050342184 0.08243147

encoder.4.bias f4 [128]
000000 c1 c6 7c 3d 52 ec 85 3c 8d 28 5d bd 0b 6e fa bc
       0.061712984 0.016348038 -0.05399375 -0.03057005
000010 b5 d1 9c 3d e6 47 d5 bb 90 08 5f 3d db 1f 17 bd
       0.07657186 -0.006508815 0.054451525 -0.036895614
000020 35 0c b1 bc d1 13 6e 3d ca 40 a9 bd c6 9f 82 3d
       -0.021612266 0.058124367 -0.08264311 0.063781306
000030 bf 38 65 3d 3a 0d b4 3c cf 10 ac 3c 75 5f 87 bb
       0.05596232 0.021978963 0.021004109 -0.0041312524
000040 3b ed 95 3d 06 5e 8b bc 44 df 1c bd c2 aa b6 ba
       0.07320639 -0.017012607 -0.03829886 -0.0013936388
000050 38 a2 e0 bb 57 1f 98 3d 76 fd b0 bb 05 68 d4 3d
       -0.0068552755 0.074278526 -0.0054013086 0.10371403
000060 e4 d5 43 3c 30 8d f2 bc 9a ba 0b bd 91 5a 74 3d
       0.011952851 -0.02960834 -0.034113504 0.059656683
000070 2d 2d 8d bd 28 dc b2 3d 0c a3 2c 3d c9 e8 14 3c
       -0.06893382 0.08733398 0.04214768 0.009088703
000080 ce 31 6a 3d 61 fe 0e bc 2e b6 5c bd 94 e8 b6 3d
       0.057176404 -0.008727641 -0.053884678 0.089310795
000090 f4 ae 07 bd 2a 5c 20 bd 22 38 8d bd 67 da ac 3c
       -0.033125833 -0.039150394 -0.06895472 0.021100236
0000a0 76 bd 87 3d 97 e8 f3 bc 34 10 a2 bc d2 1e 64 bd
       0.06627934 -0.029773993 -0.019783117 -0.055693455
0000b0 20 2b d0 bb b8 5f 2d bd 18 a1 16 bd 45 93 c7 3c
       -0.006352797 -0.042327613 -0.036774725 0.024362216
0000c0 0e f4 9a bd 67 8d 5b bd 85 a0 a5 3c 55 1c f3 3b
       -0.07566081 -0.05360165 0.020218143 0.007419149
0000d0 71 69 9d bd 1a 16 0a 3b 87 c1 ca 3d cd e7 a0 3d
       -0.07686127 0.0021070302 0.09900194 0.078567125
0000e0 d0 2f 6d 3d f1 5e 1f bd be 5b 59 3d 3c 67 0d 3d
       0.057906926 -0.038908903 0.053066008 0.03452228
0000f0 d4 4e b6 bd ab 42 df bc 82 d7 4f 3b 9b 79 8d bd
       -0.08901754 -0.02725347 0.0031714146 -0.0690796
000100 73 ac 6c ba e6 82 85 3c 86 fb 29 bd 05 7a ba 3d
       -0.00090283825 0.016297769 -0.041499637 0.09105305
000110 35 59 86 3b 8d 12 5c 3d 58 ab b6 3d f4 34 f3 bb
       0.00409999 0.05372863 0.089194 -0.007422084
000120 b0 29 eb bb e2 1b 24 bd b9 26 57 3d 9d 25 46 3d
       -0.0071766004 -0.040065654 0.052527163 0.048375715
000130 e1 78 04 bd 90 70 e2 3d 63 7d 6f bd 47 40 5f 3d
       -0.03234184 0.11056626 -0.058469187 0.05450466
000140 85 48 98 3d 5e 19 8a bd bf 1d 0c 3c 50 22 38 bd
       0.07435707 -0.0674312 0.008552014 -0.044954598
000150 7b 3b 3a 3b 21 72 82 3d bd 62 b8 3d 8e 11 ad 3d
       0.00284168 0.063694246 0.09003208 0.08450614
000160 5d ef 55 bd c1 b2 ba bd 74 db c9 3c 5e fd 13 3d
       -0.052230228 -0.09116126 0.024640776 0.0361303
000170 de 88 74 bd 31 8c 4e bc 7c 13 8a 3d ba 15 c6 bd
       -0.05970084 -0.012606666 0.067419976 -0.09672113
000180 c3 31 2b bd c8 22 75 3d fd e2 cd bc 31 08 16 3d
       -0.041795503 0.059847623 -0.02513265 0.036628906
000190 b7 38 6c bd e5 c0 6c 3d a9 12 31 3d 4d 40 1d 3d
       -0.057671275 0.057801146 0.043230686 0.0383914
0001a0 a7 8d 24 3c 36 b6 8d 3c 54 3a 8f bd 20 49 84 bd
       0.010043538 0.017298799 -0.06993547 -0.0645926
0001b0 7d 58 45 bd a9 64 ae bd d8 b1 b7 3d c8 4d 2a 3d
       -0.048180092 -0.08515293 0.08969468 0.041578084
0001c0 df ae 73 3d 10 9e c1 3c fb 2a 8c 3d af dd 2b 3d
       0.059492942 0.02363494 0.068441354 0.04195946
0001d0 67 2b 04 bd fb 7b d9 3c 6c 2c 79 3d 6c 20 7a bd
       -0.032267954 0.026548376 0.06083338 -0.061066076
0001e0 ad 3e 7b 3c 02 23 86 3d c7 cf 83 bd a9 ee 0a bc
       0.015334767 0.06549646 -0.06436115 -0.008479753
0001f0 2f 25 1a bd 20 1e f7 3c a1 31 52 bd b3 21 6d 3d
       -0.037633117 0.030165732 -0.05131686 0.057893466

decoder_lstm.weight_ih_l0 f4 [512, 129]
000000 99 29 5a 3d 5f 2d 8b bd 0d cb 84 bd 37 86 e2 3d
       0.053262327 -0.06795763 -0.06484041 0.11060756
000010 73 33 48 3d 8e 63 b5 bc d3 6e 95 3d 86 d0 89 bd
       0.04887719 -0.022142198 0.07296529 -0.06729226
000020 22 5d d1 3c 02 05 60 bd 1a 86 86 bd 24 e1 8b 39
       0.025557104 -0.054692276 -0.065685466 0.0002667989
000030 25 4a 80 3d 09 7f 0f bd 54 0e 05 bd d5 c5 e8 bd
       0.06264142 -0.03503326 -0.032484367 -0.113658585
000040 9a 17 af bc 9c 44 bc 3d e3 76 cb bb b4 a4 51 3d
       -0.021373559 0.09192774 -0.0062092408 0.051182464
000050 88 6d 89 3b 67 da 15 3c 42 00 bb bc 3c 35 a5 bc
       0.0041939653 0.009146309 -0.022827271 -0.020166986
000060 ac 2f 9b 3d d3 3e 37 3b 6f ad c7 3c 33 62 94 bd
       0.07577452 0.002796103 0.024374692 -0.072452925
000070 ed 32 ca bd 95 29 ad 3d bf b1 54 bc 4c ef ee 3b
       -0.098729946 0.08455197 -0.012981831 0.00729171
000080 89 00 44 bd 89 48 24 3d b5 5d 0a bd 96 96 97 3d
       -0.047852073 0.040108237 -0.033780772 0.07401769
000090 cf 35 48 bd 0f b1 31 3d ff 16 74 3c 40 5d 18 bd
       -0.04887944 0.043381747 0.014898061 -0.037198305
0000a0 8b c3 0e 3d 8e 0f b4 3d 2a 6b d1 bd a6 11 29 3d
       0.034854453 0.08792029 -0.10225518 0.041276596
0000b0 8b 4b a2 bd ab 5d 06 bd 66 b3 5c 3d f2 4e 4d 3d
       -0.07924565 -0.032804172 0.053882025 0.050124116
0000c0 d8 b1 b7 bd 82 da 1f bd 1c 37 6d bd 46 73 d0 3c
       -0.08969468 -0.039026745 -0.057913885 0.025445592
0000d0 3d 5d 6f bd 48 f9 a2 3d b1 d8 01 bd e0 f5 a1 bd
       -0.05843853 0.07957703 -0.031700794 -0.07908225
0000e0 cc 77 ab 3c 32 31 f2 bc 5c 16 a9 bc e2 47 67 bc
       0.020931147 -0.029564474 -0.020640545 -0.014116259
0000f0 18 09 08 bd 20 c8 b0 3d 59 5a 24 bd 39 d7 a7 bd
       -0.033211797 0.08631921 -0.040125225 -0.08195347
000100 d1 4d c2 3d 88 97 3e bc 93 f3 98 3d c8 61 70 3d
       0.094874986 -0.011632808 0.07468333 0.058687
000110 a1 b8 ad 3d 38 c5 2e 3c 45 de 6e 3d 72 6c ba bd
       0.08482481 0.010667138 0.05831744 -0.091027156
000120 d7 b9 17 bd d2 f1 a6 bd 47 1a 7f 3d bf 3c 8a 3d
       -0.037042465 -0.08151592 0.06228092 0.06749868
000130 06 e0 30 3b fe 62 4d 3d 53 bd 08 3d bf de 95 bc
       0.0026988997 0.050143234 0.03338368 -0.01829469
000140 3d b9 97 3d 42 0b 8a bc a1 a7 59 3c 4b 91 a4 bd
       0.07408378 -0.016851071 0.013284595 -0.08035525
000150 46 c8 97 3d 1e 06 1c 3b 26 b0 0f bd b2 98 7f bd
       0.07411246 0.0023807357 -0.035080098 -0.06240148
000160 df d0 ca 3d fb 45 4b 3d ea c8 ec bb 52 e6 44 bd
       0.0990312 0.049627285 -0.0072260993 -0.048071213
000170 0b 72 c9 bd 4c 3f 65 3d b8 e5 8d ba 4c a4 d1 bc
       -0.09836205 0.055968568 -0.0010825908 -0.025591038
000180 a6 73 90 bd 09 ac a4 bc ce a3 e5 3c fb 85 59 3c
       -0.07053308 -0.020101564 0.02803221 0.013276572
000190 9b a7 be 3d 79 e8 d7 bc 1e cf 38 bd 08 46 4c bc
       0.09309312 -0.026355969 -0.045119397 -0.012467869
0001a0 2c 54 96 3d 15 a2 ec bc 71 d9 d2 3d 5e a3 87 bd
       0.07340273 -0.02888588 0.1029538 -0.06622957
0001b0 04 9c 97 3d 30 fb ac bd a6 63 a2 3d 06 13 e5 3d
       0.074028045 -0.08446348 0.07929163 0.11185269
0001c0 b5 33 ce 3d 56 32 cb 3d ce 82 f0 bd 8d c4 39 bc
       0.10068456 0.0992171 -0.11743699 -0.011338365
0001d0 ed d0 de 3d 97 49 26 bd 3d 18 88 bd 36 7e 5c bd
       0.10879693 -0.040597524 -0.06645248 -0.0538313
0001e0 09 2a 26 bc 81 3a b2 3d d0 1f c8 bd 7b 35 61 bd
       -0.010141858 0.08702565 -0.09771693 -0.054982644
0001f0 6f 00 49 3d 46 02 30 3d 15 21 e1 3d 2d fc 6f bd
       0.04907268 0.042970918 0.10992638 -0.058590103
000200 79 54 ec 3d 8c cf ac 3d 14 28 30 3d 28 b4 b5 bd
       0.115395494 0.08438024 0.04300697 -0.08872253
000210 bd a7 8b bb 02 62 85 bd 5c 36 1b bd 39 bc 77 bd
       -0.0042619393 -0.06512834 -0.037893638 -0.060482237
000220 a9 45 4c 3d 7e c0 b1 3c d4 59 7a 3d 9a a7 3b bd
       0.04987112 0.021698233 0.061120823 -0.045814134
000230 33 2b dd bb 72 a9 8c bb 6d 43 e9 ba 6e 70 bb bc
       -0.0067495345 -0.0042926604 -0.0017796584 -0.02288076
000240 b6 8b ca 3c c1 3b 3a bd cc d6 ff 3c 56 5a 3a 3d
       0.024724822 -0.045467142 0.031230353 0.045496307
000250 5e 15 40 bd 37 d7 2c bd ea 9b 72 3c 75 d2 76 bd
       -0.046895377 -0.042197432 0.014807681 -0.0602593
000260 f1 f9 d1 bc 4c 35 ad bd 30 18 b3 3c 3c 0b b8 3d
       -0.025631877 -0.08457431 0.02186212 0.08986518
000270 93 0f ed bc 1c 20 b7 bd 0f a6 9e 3d ee 99 65 bd
       -0.02893809 -0.08941671 0.07746517 -0.056055002
000280 4f bd 4c bd d2 62 80 3c 6f a6 c3 bd c6 78 8d bd
       -0.049985226 0.015672121 -0.09553229 -0.06907801
000290 b4 44 6a 3d a8 c9 86 bd 67 ca c3 bc b6 0f f1 3b
       0.057194427 -0.065814316 -0.023900224 0.007356609
0002a0 97 91 56 bd 52 62 a0 3c aa fa c7 3d b8 32 8d 3c
       -0.05238494 0.019578133 0.09764607 0.017236099
0002b0 de 91 b9 bc 8d a6 0c bd 3a f2 e1 bc d9 7e a9 3c
       -0.022652563 -0.034338523 -0.027581323 0.020690368
0002c0 d5 55 16 3c f4 ed ee bc ae 75 a4 3d bb 27 9d bc
       0.009175737 -0.0291662 0.08030258 -0.019183984
0002d0 35 ec b5 3b cb 8a 6c 3c 18 26 e4 bc ea 58 eb 3c
       0.0055518397 0.014437388 -0.027850196 0.028728921
0002e0 fe ac 48 3b 35 1a 2c 3d dd c1 80 3c 85 90 57 3d
       0.003062069 0.04201718 0.015717441 0.05262806
0002f0 e7 be 7d bd c5 b1 82 3d c5 6e da bd c1 0a fb 3b
       -0.061949637 0.06381563 -0.10665659 0.007661194
000300 df 03 a2 bd bf 31 99 3c 50 a2 3e 3d df 15 a2 bc
       -0.079108946 0.018700479 0.046541512 -0.01978582
000310 eb b9 17 bd 34 1b c4 3d c2 17 89 3d f9 0b 24 3d
       -0.03704254 0.09575501 0.066939846 0.04005048
000320 58 43 3b bd f4 35 fd ba 34 e3 58 bd 0f 95 27 bd
       -0.04571852 -0.0019318447 -0.052951053 -0.040913638
000330 49 24 73 3d 4d fc ab bc 25 11 fa 3b a5 be 62 bd
       0.059360776 -0.02099433 0.0076314383 -0.055357594
000340 68 30 fe 3b 71 dc 91 3d 03 c6 5a 3d 75 b7 1f bd
       0.0077572353 0.07122124 0.053411495 -0.038993318
000350 ff 32 00 3d 0c 65 0b bc de 6b f1 bc 06 8e cc bc
       0.031298634 -0.008507978 -0.02947038 -0.024970066
000360 a1 9a c1 3c 10 c5 da bc cc d6 c3 3c ae 39 bd 3d
       0.023633303 -0.026705295 0.023906134 0.09239517
000370 52 66 ca 3d bc 21 66 bd 00 4b 99 bd 9c 2b 73 bc
       0.09882797 -0.056184515 -0.07485008 -0.01484194
000380 d3 58 97 bb e0 35 b0 bd 51 6c a2 bd 25 73 be bc
       -0.004618743 -0.08604026 -0.07930816 -0.023248265
000390 a5 b2 a3 3d c9 e5 1a bc 51 fd b1 bb 3d 0a 64 bd
       0.07993058 -0.009454199 -0.005431809 -0.055673826
0003a0 19 5a 36 bc 39 e2 e6 3c 76 cc 84 bd 13 18 bc bc
       -0.011129879 0.028184043 -0.0648431 -0.022960698
0003b0 cf e8 0c 3d 76 87 87 3d 44 a3 ab bd b9 bb 9b bd
       0.03440171 0.06617634 -0.0838075 -0.07604165
0003c0 e7 5b 50 3d 97 ee 19 bd c2 36 6f 3d 87 c2 5c 3b
       0.050868895 -0.037581053 0.05840183 0.0033685283
0003d0 95 5e 91 bd 36 b0 72 bd a6 53 a6 bc fb 81 b3 3b
       -0.07098118 -0.05925008 -0.020303559 0.0054781414
0003e0 89 10 10 3d f7 a1 1e 3d e5 7d 38 3d 38 4d 1a ba
       0.03517202 0.03872868 0.045041937 -0.000588614
0003f0 18 f5 65 bc f4 11 cd bd 5a 6e 80 3c 65 ba 69 bc
       -0.014035486 -0.1001319 0.01567762 -0.014265631

decoder_lstm.weight_hh_l0 f4 [512, 128]
000000 79 08 bc bb 22 38 d3 3d 3b 72 bf 3d 8b f0 ec 3d
       -0.0057383147 0.10313441 0.093479596 0.115693174
000010 38 0e 5e bb f1 84 7a 3d 6d b6 c6 bc 9c f1 9d bd
       -0.0033882987 0.06116194 -0.02425691 -0.07712099
000020 75 bc 79 3d c9 00 d3 bd f4 a8 5d 3d 8a 70 a5 3d
       0.060970742 -0.10302884 0.054116204 0.08078106
000030 81 e1 d2 3c 72 81 98 bc 85 c6 32 bd 72 80 40 3d
       0.025742294 -0.018616412 -0.043646354 0.046997495
000040 33 3a 6d bd fb 61 e6 3b 6d d3 24 3d bc 94 d2 3d
       -0.05791683 0.007030723 0.040240694 0.10282275
000050 80 f7 9c 3b a8 ba 66 3d 45 b1 75 3d 42 1c 83 bc
       0.0047902465 0.056330353 0.05998351 -0.016004685
000060 e5 46 01 3c ad 87 08 3d e9 4d d3 bd be bb 0e bd
       0.007890438 0.033332516 -0.103175946 -0.034847014
000070 5d ae ac bc 73 f0 cb bc a2 03 9f bc 4f 7f b7 bb
       -0.021079237 -0.024894929 -0.019410912 -0.005599893
000080 0e 29 c9 3c 22 d8 8b bd 6b ad 2b bd 80 84 75 3a
       0.02455571 -0.068283334 -0.04191343 0.00093657523
000090 8b 1d 42 bd 58 83 20 bd 17 be c3 3d 38 8c 02 bd
       -0.047391456 -0.03918776 0.09557741 -0.031872004
0000a0 90 c0 53 3c 5c b9 e0 bc bd 2e c4 bd d0 c0 bb 3b
       0.012924328 -0.027432136 -0.09579227 0.005729772
0000b0 c8 ba 87 bd 0b af 38 bd 2a 4e 06 bc 1b 68 c5 bc
       -0.066274226 -0.04508881 -0.008197347 -0.024097493
0000c0 b1 a5 db bd 3a 00 94 bc 82 41 91 bc 35 52 a6 bc
       -0.107249625 -0.018066514 -0.017731432 -0.020302871
0000d0 92 6b dd bd 47 7e b0 3c fb b2 40 3d 66 c8 bc bd
       -0.10811533 0.021544589 0.04704569 -0.092179105
0000e0 f4 97 46 bd 44 89 b1 bd ef 86 82 3c b0 67 e8 3c
       -0.048484758 -0.086687595 0.015933482 0.028369755
0000f0 e0 b1 66 3c 64 17 61 bd 6c bc 4c 3d 33 ca 0f 3d
       0.014080495 -0.054953948 0.04998438 0.03510494
000100 8a 40 df bc 80 1b 9a 3d 1c 6c 12 bd c0 02 a1 3d
       -0.027252454 0.075247765 -0.035747632 0.07861853
000110 ea ea 06 3d bb b5 8b bb 36 9a e9 3c 2b 5e f9 3c
       0.032938875 -0.0042636073 0.028515916 0.03044041
000120 a2 1b db bc f3 5b cd bd 65 f1 ff 3b c9 3c 58 bd
       -0.026746575 -0.100273035 0.007810759 -0.052792344
000130 34 57 6a 3d 32 19 f8 bc 94 7c 92 3d 93 f7 02 3e
       0.05721207 -0.030285452 0.07152668 0.12789755
000140 cc bf 5f 3d 47 9a ad bd 30 86 d2 3c c9 6c d6 3d
       0.05462627 -0.08476692 0.025698751 0.10469968
000150 d0 9e 18 3b 09 7c 9d 3d 91 a3 5c bd 7e f1 a9 bd
       0.002328802 0.076896735 -0.053866927 -0.08298014
000160 c8 0e a6 3d 80 4e ce bc f9 3a 66 bd e5 01 1e 3d
       0.08108288 -0.025183916 -0.056208584 0.038576026
000170 45 61 2c 3d b4 17 13 bc 1c ef f6 3d 6e c6 a5 bc
       0.04208495 -0.008977819 0.12057325 -0.02023622
000180 66 8a 83 bd a0 54 a5 bd 33 ac 47 bc 08 36 90 3d
       -0.06422882 -0.080727816 -0.012187052 0.07041556
000190 33 21 18 3d d6 c4 d7 3d 54 44 86 3d bd 5f 91 3d
       0.037141036 0.1053559 0.06556001 0.07098339
0001a0 c0 58 86 3d 0b ca d9 3c 14 86 27 bc 2e 6c 43 bd
       0.065598965 0.0265856 -0.010224838 -0.04771059
0001b0 e5 10 05 bd d3 f1 3e bd 45 6b a3 bd ff 8c e2 3d
       -0.032486815 -0.04661734 -0.079794444 0.11062049
0001c0 db 73 08 bc 82 bb d2 bc e8 2d f9 3d d9 6d d0 bd
       -0.008328403 -0.025724176 0.12166959 -0.10177202
0001d0 99 67 98 bd db 7e aa 3d 62 8a 7d 3c 7e 5b 4e 3d
       -0.07441635 0.08324977 0.015474888 0.050380222
0001e0 bd ff bf 3d d0 6b 34 3d 0f 8f 8d bc 29 d4 49 bb
       0.0937495 0.04404813 -0.01728013 -0.0030796623
0001f0 3d 30 34 bd 0b 77 91 3d b0 1a 9e bd 36 35 4f bc
       -0.043991316 0.07102784 -0.07719934 -0.012646964
000200 08 40 79 bc 77 13 9e bd 9d bb 50 bc 39 db a4 3d
       -0.01521302 -0.077185564 -0.012740043 0.08049626
000210 ca 7d 8e 3d e6 63 14 3d 9b e3 82 3c ce a7 44 3d
       0.06957586 0.036228083 0.015977671 0.048011594
000220 fb e2 c5 3c 21 ae 8c bd f3 ce 8a bd 07 55 ec bc
       0.024156084 -0.0686915 -0.06777754 -0.028849138
000230 db e3 39 3d 65 12 51 bd 78 96 8b bb ef 9e d8 3b
       0.045383316 -0.051042933 -0.0042598806 0.0066107432
000240 15 c3 c3 bc d9 41 e7 3c 06 3c 53 3d 55 f9 81 3b
       -0.023896733 0.02822964 0.051570915 0.0039664903
000250 d3 d6 76 3c ff ad dc bc fd c7 cf bc be b6 51 bd
       0.0150658665 -0.026938437 -0.025363917 -0.051199667
000260 b0 60 cf 3c f8 a7 54 bd 1c 5b 3b 3d ab dc 04 bc
       0.025314659 -0.051918 0.045741186 -0.008109252
000270 4f ee 23 bd 3d 8c 16 bd d8 6f a1 3c c6 f9 72 3d
       -0.04002219 -0.036754835 0.019706652 0.059320234
000280 c2 5c 46 3d c3 d2 90 bc 85 ab 83 3d d1 03 34 bd
       0.048428304 -0.017678624 0.06429199 -0.043948952
000290 a7 33 24 3c 5c f8 92 bc 47 b2 eb 3c ab cb 22 bc
       0.0100220805 -0.017940693 0.028771533 -0.009936254
0002a0 c3 2e 94 3d 5a c8 75 bd 26 db 93 3d 56 04 4b 3d
       0.072354816 -0.060005523 0.072195336 0.049564682
0002b0 9b 43 c2 3c a9 b7 80 3d 9f f1 63 bc 98 a2 86 3c
       0.023713877 0.062850304 -0.013912587 0.016434953
0002c0 b3 6f 68 3c d1 55 0c bd 8a 2f fe 3c e8 db 01 3c
       0.014186787 -0.03426153 0.031028528 0.007925965
0002d0 47 49 2f 3d 0f 96 e9 bc b0 c0 01 bd 9c d9 b1 bd
       0.042794492 -0.028513936 -0.0316779 -0.08684084
0002e0 f3 13 9d 3d df f3 3b bd 23 31 b2 3d fb 6c bb 3d
       0.07669821 -0.04588687 0.08700778 0.09151646
0002f0 0f a6 95 bd b3 fc 7a bd 08 a1 34 3d 17 21 55 3d
       -0.07307064 -0.06127615 0.044098884 0.05203351
000300 06 cf da bb 69 7f c9 3d 32 e3 00 3d 97 d8 56 3d
       -0.006677511 0.09838755 0.03146667 0.05245265
000310 fd fa 3b 3d ad 35 ee bc a4 e4 b5 bd 38 67 c9 bc
       0.045893658 -0.029078329 -0.088815 -0.024585351
000320 96 e5 7e bd 72 30 ce 3d 5f db 44 bc 87 74 8d bd
       -0.06223067 0.10067834 -0.012015193 -0.069069915
000330 bb fd 0a bd ea 54 ac 3d 94 e5 96 bd 7b 62 5a bd
       -0.033933382 0.084146336 -0.07368007 -0.053316575
000340 c8 e2 0b bd 25 d9 fd 3c 27 bd de bc 2a 9f 04 bd
       -0.034151822 0.030987332 -0.027189804 -0.032378353
000350 b6 12 9f 3d cc ab 76 3d b1 05 9c bd f6 cf 68 bd
       0.07767241 0.060222432 -0.07618273 -0.056838952
000360 3d 55 94 3d b7 50 95 3d 34 10 b2 bd 53 90 91 3d
       0.072428204 0.07290786 -0.08694497 0.07107606
000370 e4 ac 4e 3d b8 8b 42 bd d2 bb 4c bd 43 4c bb bd
       0.05045785 -0.047496527 -0.049983807 -0.09145405
000380 f3 b8 48 3c 20 79 e0 3c 01 71 9f bd a7 9e 7f bd
       0.012251127 0.027401507 -0.07785226 -0.062407162
000390 bc fe cc bc 74 f1 cb 3b 1a 27 a1 bd e6 12 06 bd
       -0.02502381 0.006223852 -0.07868786 -0.032732867
0003a0 47 49 af 3d 73 2d b6 bd 5e 0e 27 3c 47 5b df 3c
       0.085588984 -0.088953875 0.0101962965 0.027265204
0003b0 59 7c a6 bd 3e 25 bb bd 37 58 3a 3d 6f 68 6f bd
       -0.08129186 -0.09137963 0.045494284 -0.058449205
0003c0 d7 23 3f bd 0a 15 cc bd 10 2c 6a 3d 00 10 5a bd
       -0.04666504 -0.099649504 0.057170928 -0.053237915
0003d0 a0 9a 32 bd c0 b4 b8 bd b6 07 c6 3c 19 dc 7a 3d
       -0.043604493 -0.0901885 0.024173599 0.061245058
0003e0 10 b5 82 3d e8 5c 55 3d 84 99 a2 bd 82 c8 30 bd
       0.06382191 0.052090555 -0.07939437 -0.04315997
0003f0 1c e5 b1 3c 32 df a2 bd 47 95 41 bd 75 c7 42 bd
       0.021715693 -0.079527274 -0.047261503 -0.0475535
