data/projectile_motion_model.pth (torch, 737593 bytes, 14 tensors)

encoder.0.weight f4 [128, 3]
0	0xbe82b985	-0.25532165
1	0xbd774990	-0.06037289
2	0x3cd14b20	0.025548518
3	0x3eb83314	0.3597647
4	0x3f016c6b	0.5055606
5	0x3f0fb6d3	0.5613834
6	0xbe9c8795	-0.3057219
7	0x3da49630	0.080364585
8	0xbdebe3d0	-0.11518061
9	0x3f05d0a0	0.5227146
10	0xbf06dc46	-0.5267986
11	0xbf05832b	-0.5215327
12	0xbc732b00	-0.014841795
13	0xbe937aa8	-0.28804517
14	0x3db9afa0	0.09066701
15	0x3e7acf1b	0.24493067
16	0xbe6fcb7b	-0.23417465
17	0xbef2f308	-0.47451043
18	0x3e11adf6	0.14226517
19	0xbf118b50	-0.568532
20	0x3e138539	0.14406289
21	0x3ead349a	0.33829194
22	0x3ecf6ad9	0.40511206
23	0x3e4fa229	0.20276703
24	0xbde8fabf	-0.11375951
25	0x3ecd9aee	0.40157264
26	0x3f08adc6	0.5339016
27	0x3e85d59c	0.26139534
28	0xbda3155c	-0.07963058
29	0xbf0ac3ab	-0.54204816
30	0x3ec074d4	0.37589133
31	0xbf114263	-0.56741923
32	0x3ec4f564	0.38468468
33	0xbf13a3c7	-0.5767178
34	0x3edeaaac	0.43489587
35	0xbeddd742	-0.4332829
36	0x3d29b1f5	0.04142948
37	0xbee27fad	-0.44238034
38	0x3e7212f2	0.2364004
39	0x3f02e957	0.511373
40	0x3ef498c8	0.47772813
41	0xbd6df40c	-0.05809407
42	0x3d2739de	0.04082667
43	0x3ea07f0a	0.31346923
44	0xbdedafb4	-0.11605778
45	0xbee8b1d4	-0.45448172
46	0x3dfb6358	0.12274808
47	0xbe99e363	-0.30056295
48	0x3e7b3914	0.24533492
49	0xbe95673c	-0.29180324
50	0x3f02993d	0.51015073
51	0xbdc485be	-0.09595822
52	0x3eb8813a	0.36036092
53	0x3d059fda	0.03262315
54	0x3cd3b220	0.025841773
55	0x3e268ad2	0.16263893
56	0x3e427e96	0.18993601
57	0xbec4c758	-0.38433337
58	0xbea51ae0	-0.32247066
59	0xbed16e58	-0.40904498
60	0xbf0c37da	-0.5477272
61	0xbf0fdc00	-0.5619507
62	0xbeb67ffe	-0.35644525
63	0xbf11944e	-0.5686692
64	0xbecd19d0	-0.40058756
65	0xbe4504ec	-0.19240159
66	0x3ef73fa4	0.4829074
67	0xbed0e532	-0.40799862
68	0x3e9b4f8a	0.3033412
69	0x3e87a1b0	0.26490545
70	0xbe809f3e	-0.25121492
71	0xbd495c0f	-0.04916006
72	0x3e6ff888	0.23434651
73	0x3ec44705	0.38335434
74	0x3ef7db49	0.4840949
75	0x3f00009b	0.50000924
76	0xbe7d848f	-0.24757598
77	0xbe108d3c	-0.14116377
78	0xbe9f1d7c	-0.31077182
79	0xbeccfccc	-0.4003662
80	0x3e544c08	0.20732129
81	0x3e958c7f	0.29208753
82	0x3e4f6c13	0.20256071
83	0xbf199cae	-0.600047
84	0xbe2456ea	-0.1604878
85	0xbe9f856d	-0.31156483
86	0xbe96fa92	-0.29488045
87	0x3ea3a83f	0.319643
88	0xbe907bbe	-0.28219408
89	0xbed16dec	-0.40904176
90	0xbe4a668e	-0.19765684
91	0xbdf79ff8	-0.120910585
92	0x3e3d4c4c	0.18486136
93	0xbec7401a	-0.38916093
94	0x3e94b710	0.29045916
95	0xbe657ca2	-0.22410825
96	0xbec2e137	-0.3806245
97	0x3e264bd4	0.16239864
98	0xbe8e4fb2	-0.27795178
99	0x3ed7e3e2	0.42166048
100	0xbf03a67c	-0.5142591
101	0xbf192648	-0.5982404
102	0xbdb101fc	-0.086429566
103	0xbefc0194	-0.49219954
104	0xbe7f021c	-0.24903148
105	0x3e2e66b3	0.17031364
106	0xbe3d664d	-0.18496056
107	0xbe9d5e50	-0.30736017
108	0x3e761f18	0.24035299
109	0xbeb7342e	-0.35781997
110	0x3e80c990	0.2515378
111	0xbef01dfc	-0.46897876
112	0x3e637778	0.22213542
113	0xbefef5a5	-0.49796787
114	0xbe02011c	-0.12695736
115	0x3e3cb793	0.18429403
116	0x3ec5fcd6	0.3866946
117	0xbef5e26c	-0.4802431
118	0xbeb81fe2	-0.35961825
119	0xbe6dcc28	-0.2322241
120	0xbdf077b4	-0.117415816
121	0x3ef67ca1	0.4814196
122	0x3e88210a	0.26587707
123	0x3edcea43	0.43147478
124	0x3e99f97a	0.30073148
125	0x3f0e5cb9	0.55610234
126	0x3d75e041	0.06002832
127	0xbed7849c	-0.4209336
128	0x3e5de954	0.21671039
129	0xbe2c5ab2	-0.16831473
130	0xbf02a5f1	-0.51034456
131	0xbe200b4c	-0.1562931
132	0x3eea422d	0.45753613
133	0xbef48d75	-0.47764173
134	0x3ef7186d	0.48260823
135	0xbeeee766	-0.46660918
136	0x3db81c48	0.08989769
137	0x3e8a610a	0.2702716
138	0xbded02b1	-0.11572779
139	0x3e55b6fd	0.20870586
140	0xbe91e4d5	-0.28494897
141	0x3dee0cd1	0.11623538
142	0x3f01f547	0.5076489
143	0x3efc627e	0.49293894
144	0x3e755a1f	0.2396016
145	0x3e856a15	0.26057497
146	0xbe653c86	-0.22386369
147	0x3ed931e4	0.42420876
148	0xbedc7af1	-0.43062547
149	0x3eef7c58	0.46774554
150	0x3e9b7f8a	0.30370742
151	0x3d724159	0.05914435
152	0x3e0a7b70	0.1352365
153	0xbe9c262c	-0.30497873
154	0xbe25c12c	-0.1618697
155	0x3f111dc6	0.56686056
156	0xbeb8211d	-0.35962763
157	0xbe3c8262	-0.18409112
158	0x3e34827c	0.17627901
159	0xbea65037	-0.32483074
160	0x3ebaa2b0	0.36452246
161	0x3ed6fed1	0.41991284
162	0x3f0b8c4c	0.5451095
163	0xbe6e0ede	-0.23247859
164	0xbeb0ec58	-0.34555316
165	0xbe5f4a7a	-0.21805754
166	0xbf123615	-0.5711377
167	0xbe3e13f2	-0.18562296
168	0x3dbead10	0.09310353
169	0xbec77a1e	-0.38960356
170	0xbf068a1c	-0.5255449
171	0x3c06edc8	0.008235402
172	0xbef5fb9d	-0.48043528
173	0xbd88de5f	-0.06683039
174	0xbef8f772	-0.48626286
175	0xbf101f6e	-0.5629796
176	0x3deecbb8	0.1165995
177	0x3e2e13d4	0.16999751
178	0xbde1a86f	-0.11018454
179	0x3e44d223	0.19220786
180	0x3deb3de0	0.11486411
181	0x3e6040e4	0.21899754
182	0xbdbcea24	-0.09224346
183	0xbe5a635e	-0.21326968
184	0xbf076029	-0.52881104
185	0xbe19b578	-0.15010631
186	0xbe9fe5ca	-0.31230003
187	0xbd859dc0	-0.06524229
188	0xbf0d746d	-0.55255777
189	0x3f074177	0.52834266
190	0x3d627227	0.055284645
191	0xbeb1b3d9	-0.34707525
192	0x3d3fa930	0.04679221
193	0x3ea1bfe0	0.31591702
194	0xbec01a58	-0.375201
195	0xbdd8adc6	-0.1058002
196	0xbee68da8	-0.4502995
197	0x3e1a48d0	0.15066838
198	0xbf0c5795	-0.5482114
199	0xbe87abb7	-0.26498196
200	0x3e5a16ec	0.21297807
201	0x3d9889cd	0.074481584
202	0x3ec92a57	0.39290115
203	0xbe1ba631	-0.15200116
204	0xbe28aaac	-0.16471356
205	0xbe7b5606	-0.24544534
206	0xbe7c4cfc	-0.24638742
207	0xbce3cca6	-0.027807545
208	0x3efb0109	0.49024227
209	0x3ec07b79	0.37594202
210	0x3efc9071	0.4932895
211	0x3d95329d	0.07285044
212	0x3ee72b88	0.451504
213	0x3dcd4ec1	0.10024787
214	0x3eb1dca6	0.34738654
215	0x3e940536	0.28910226
216	0xbddde5bf	-0.10834836
217	0xbefed2c3	-0.49770173
218	0x3f1bd7bd	0.60876065
219	0xbe8a01ec	-0.2695459
220	0xbe9ddf95	-0.30834642
221	0x3db308e8	0.08741933
222	0xbe0bd396	-0.13654932
223	0x3dd92e00	0.10604477
224	0x3eb708e6	0.35748976
225	0xbd330860	-0.04370916
226	0x3e4e22b8	0.20130432
227	0x3d83de48	0.06438881
228	0xbed58b12	-0.41707665
229	0xbe0f79fe	-0.1401138
230	0x3d9dade8	0.076991856
231	0xbe289964	-0.16464764
232	0xbe82f6b2	-0.2557884
233	0x3eb18ea2	0.34679133
234	0x3f04ffdf	0.5195293
235	0xbe7ba309	-0.24573912
236	0xbf004354	-0.50102735
237	0xbd2de2e0	-0.042452693
238	0x3ee5da6c	0.44893205
239	0xbddae1d4	-0.106876045
240	0xbf13a947	-0.5768017
241	0xbdab72f4	-0.08371535
242	0x3f12ea84	0.5738909
243	0x3d3b20b7	0.045685496
244	0x3ed1c7c3	0.4097272
245	0x3e87361d	0.26408473
246	0xbec4424d	-0.38331833
247	0x3e9fc946	0.31208247
248	0xbe3d1260	-0.18464041
249	0xbd110f50	-0.035414994
250	0x3e448704	0.1919213
251	0x3efacd4c	0.48984754
252	0xbebd8ebb	-0.37022957
253	0x3f227ec4	0.6347468
254	0xbe7e8b06	-0.2485772
255	0x3ec40b40	0.38289833

encoder.0.bias f4 [128]
0	0x3ea968bc	0.33087718
1	0x3e64abf0	0.22331214
2	0x3d6554f0	0.055989206
3	0xbed37873	-0.41302833
4	0xbeddb3b4	-0.43301165
5	0x3eb97e11	0.36228994
6	0x3e5a5cf0	0.21324515
7	0xbe8db234	-0.2767502
8	0xbe7ba709	-0.24575438
9	0xbd1f8e46	-0.038954042
10	0xbe50d415	-0.20393403
11	0xbe06db46	-0.13169584
12	0x3e4d5634	0.20052415
13	0x3e7c1480	0.24617195
14	0x3f120118	0.5703292
15	0x3ed52e98	0.4163711
16	0x3ce11dbc	0.027479999
17	0x3e8ca6a0	0.27470875
18	0x3ec78954	0.3897196
19	0x3eadaffe	0.33923334
20	0x3ebca47a	0.36844236
21	0xbeab1dba	-0.33421117
22	0xbd9d0314	-0.07666603
23	0x3e20045c	0.15626663
24	0xbf110852	-0.5665332
25	0xbed2bc83	-0.41159448
26	0x3e2d7664	0.16939694
27	0x3c8ba804	0.01704789
28	0x3e624300	0.22095871
29	0xbdcf85b6	-0.10132925
30	0xbea82f99	-0.32848814
31	0x3d281d70	0.0410437
32	0xbe3b8266	-0.18311462
33	0x3e574bd8	0.21025026
34	0x3ebefaa6	0.37300605
35	0xbe147418	-0.14497411
36	0xbe2172aa	-0.15766397
37	0xbb1f6900	-0.002432406
38	0x3f059cf0	0.5219259
39	0x3e63c190	0.22241807
40	0xbdc89416	-0.0979387
41	0x3ef79a8d	0.483601
42	0x3e4f2010	0.20227075
43	0x3e82bfa4	0.25536835
44	0xbe6d2d2d	-0.23161764
45	0xbf0d0910	-0.55091953
46	0x3f0c81cf	0.5488557
47	0xbef117c0	-0.47088432
48	0xbf0d7994	-0.5526364
49	0x3e83f6bb	0.25774178
50	0xbf02ca5d	-0.5109003
51	0xbdbf5a54	-0.093434006
52	0xbe74e09e	-0.2391381
53	0xbdf51fb4	-0.119689375
54	0xbf02a587	-0.51033825
55	0x3ed5f034	0.41784823
56	0x3e31006c	0.17285317
57	0x3efae457	0.49002334
58	0x3f01ba22	0.5067464
59	0xbdeac0ad	-0.11462531
60	0xbf04b3df	-0.5183696
61	0xbecd79b4	-0.40131915
62	0xbe831374	-0.2560078
63	0x3edd4131	0.432138
64	0xbedb3319	-0.42812422
65	0x3f0f4459	0.55963665
66	0x3e6677e4	0.22506672
67	0xbe40bb21	-0.18821384
68	0x3ea14568	0.31498265
69	0x3d8a6701	0.06757928
70	0x3ee48c3c	0.4463824
71	0x3e197495	0.14985879
72	0x3ec49ae4	0.38399422
73	0x3e00907c	0.12555116
74	0xbe7f58dc	-0.24936241
75	0xbe68ada0	-0.22722483
76	0xbe5da444	-0.21644694
77	0xbeadd34a	-0.33950263
78	0x3d82621e	0.063663706
79	0xbf013dc8	-0.50484896
80	0xbe81f5ca	-0.25382835
81	0xbec122a2	-0.37721735
82	0x3e2a931c	0.1665768
83	0xbec43b2f	-0.38326403
84	0x3ec6b889	0.38812664
85	0xbef8bc9b	-0.48581395
86	0x3e804876	0.25055283
87	0x3e609464	0.21931607
88	0x3e171c3d	0.14756866
89	0xbe6186c2	-0.22024062
90	0x3deed750	0.11662161
91	0x3ef3ad64	0.47593224
92	0xbe7d850c	-0.24757785
93	0xbe98980d	-0.29803506
94	0x3e4efe47	0.20214187
95	0x3ebe6b8a	0.3719142
96	0x3f028829	0.50989014
97	0x3eb6f04c	0.35730207
98	0xbe9d25e7	-0.3069298
99	0x3ed63533	0.41837463
100	0xbe5594c1	-0.20857526
101	0xbf03ae77	-0.5143809
102	0x3e8393ec	0.25698793
103	0xbe7176b5	-0.2358044
104	0x3dd9e80d	0.10639963
105	0xbf06461b	-0.5245072
106	0xbd77ed20	-0.060528874
107	0xbedcd18f	-0.4312863
108	0x3edfe6dc	0.4373082
109	0xbe7722ed	-0.24134417
110	0x3e8b209c	0.27173316
111	0x3eb867f2	0.36016804
112	0x3dcd1558	0.100138366
113	0xbec9be86	-0.3940317
114	0x3eb8e667	0.36113283
115	0x3e80e690	0.25175905
116	0xbeba517c	-0.36390293
117	0x3e9c6065	0.30542293
118	0xbe43fabe	-0.1913862
119	0x3ead36b9	0.33830813
120	0xbef4eb15	-0.47835603
121	0x3d5e5a30	0.05428523
122	0x3eaf7f80	0.34276962
123	0xbe82f841	-0.25580028
124	0xbe91c048	-0.2846701
125	0x3ec64c7b	0.38730225
126	0x3f0f928e	0.56083
127	0xbe4c4267	-0.19947205

encoder.2.weight f4 [128, 128]
0	0xbd598aa5	-0.053110737
1	0xbce453e0	-0.027872026
2	0x3d75812e	0.05993765
3	0x3c383038	0.011241965
4	0xbd7b66ec	-0.06137745
5	0x3d6f6dbe	0.058454268
6	0x3da25159	0.07925672
7	0xbcb42714	-0.02199129
8	0xbc056e00	-0.008143902
9	0x3d3ae7de	0.045631282
10	0x3daccfdd	0.08438084
11	0x3c8ead90	0.017416745
12	0xbc93e0d8	-0.01805155
13	0xbc417198	-0.011806868
14	0xbd029d77	-0.03188845
15	0x3da151c7	0.07876926
16	0xbbb42720	-0.005497828
17	0xbd90ec48	-0.07076317
18	0x3c92c3f0	0.017915696
19	0xbd53a2e0	-0.051669
20	0x3d4abefa	0.049498536
21	0x3cf5f678	0.030024752
22	0xbd6b4448	-0.057438165
23	0xba2a1e80	-0.000648953
24	0x3d6bf53e	0.057606928
25	0x3d9e4c1d	0.07729361
26	0xbd20282c	-0.03910081
27	0xbd199b1d	-0.037501443
28	0xbd20dc27	-0.039272454
29	0x3d8606cf	0.065442674
30	0xbd95226a	-0.072819546
31	0x3b4154e0	0.0029500052
32	0x3d1de41e	0.038547628
33	0xbc9f7120	-0.019463122
34	0x3d37963e	0.044821016
35	0x3db03a89	0.08604915
36	0xbb818b20	-0.0039533526
37	0xbda12577	-0.07868474
38	0xbd867a21	-0.06566263
39	0x3d4a4fa6	0.049392365
40	0xbd2511f3	-0.04030032
41	0xbd4577ce	-0.048209958
42	0x3d899b85	0.06719116
43	0x3da586a7	0.080823235
44	0xbd884f69	-0.06655771
45	0x3c4e1fb8	0.0125808045
46	0xbd5ff61e	-0.054678075
47	0x3d59364a	0.05303029
48	0xbd939bfe	-0.072074875
49	0x3ce18954	0.027531303
50	0x3c8fe044	0.017562993
51	0xbd1bf3b4	-0.03807421
52	0x3d1a36e2	0.037649997
53	0xbd162382	-0.036654957
54	0xbd8dc326	-0.06921987
55	0x3d310f72	0.04322762
56	0x3aa10b40	0.0012286678
57	0xbd23fa06	-0.040033363
58	0xbd24685d	-0.04013859
59	0xbda7cb47	-0.08193069
60	0xbd788a5c	-0.060678825
61	0xbd32ba48	-0.043634683
62	0xbb546c00	-0.0032413006
63	0xbcfbcc9a	-0.03073721
64	0xbd4ae2ce	-0.049532704
65	0xbd514f67	-0.051101115
66	0xbb4a4a60	-0.0030867085
67	0xbcdf8742	-0.027286176
68	0x3d1bfe52	0.038084336
69	0x3d26ba72	0.04070515
70	0xbcc757a8	-0.02433379
71	0x3d121aa6	0.035669945
72	0xbd917646	-0.07102637
73	0x3b8d7c10	0.004317768
74	0x3da0b95d	0.07847855
75	0x3ca87abc	0.020566337
76	0x3d5db10e	0.05412393
77	0x3cdc776c	0.026912414
78	0x3da0b79d	0.078475215
79	0xbdb292a5	-0.087193765
80	0x3c0bf588	0.008542426
81	0xbd66ecf7	-0.05637833
82	0xbc0b4528	-0.008500375
83	0xbd96f1b3	-0.07370319
84	0x3cef9250	0.029244572
85	0xbd8330e6	-0.06405811
86	0x3da3a38b	0.07990178
87	0xbd84c752	-0.0648333
88	0xbd67052f	-0.056401428
89	0xbd3add7c	-0.04562138
90	0x3d2c7596	0.042104326
91	0xbd5c3153	-0.053757977
92	0xbd280c71	-0.04102749
93	0x3d44c712	0.04804141
94	0xbd85354c	-0.06504306
95	0x3d948ea1	0.07253767
96	0xbbc7c090	-0.0060959533
97	0x3d8c720b	0.068576895
98	0x3c800210	0.015625983
99	0xbd585ee1	-0.05282486
100	0xbda6100b	-0.08108529
101	0xbd2b6043	-0.04183985
102	0x3d6152d6	0.05501064
103	0xbd0d17fc	-0.0344467
104	0xbd8593c8	-0.06522328
105	0xbbbd1670	-0.005770497
106	0x3bce0160	0.006286785
107	0xbbb137d0	-0.0054082647
108	0xbc111ed0	-0.008857444
109	0xbd8970fa	-0.06711002
110	0xbd6ac824	-0.057319775
111	0xbd6c66e2	-0.057715304
112	0x3c60e430	0.013726279
113	0x3d91a4cf	0.07111513
114	0x3d3ce49a	0.04611645
115	0xbd7b5208	-0.061357528
116	0xbda5e2e6	-0.08099918
117	0xbd0f774b	-0.035025876
118	0xbd3d7729	-0.046256218
119	0xbbd6f860	-0.0065603703
120	0xbd163d6a	-0.036679663
121	0x3c76bdc0	0.015059888
122	0x3c7fe430	0.015618369
123	0x3d5736e6	0.05254259
124	0x3c759ae8	0.014990546
125	0x3c28f0a0	0.010311276
126	0x3d616ae2	0.055033572
127	0xbd81e34a	-0.0634218
128	0xbc933598	-0.017969891
129	0xbd83b4e8	-0.064309895
130	0xbcfde410	-0.030992538
131	0x3ca25f18	0.019820735
132	0xbdab53f7	-0.083656244
133	0xbd4547c1	-0.048164133
134	0xbd7cd91b	-0.061730485
135	0xbdb48e89	-0.08816249
136	0xbd2e2cc6	-0.042523168
137	0xbd48fc2f	-0.049068626
138	0xbd7510a5	-0.059830327
139	0xbd9ce58c	-0.0766097
140	0xbd459dde	-0.048246257
141	0xbd6912d7	-0.056902733
142	0x3db03d67	0.086054616
143	0xbcf89cb6	-0.030348163
144	0x3d215916	0.0393916
145	0xbd201e9d	-0.039091695
146	0x3d041f8a	0.03225664
147	0xbc2e31b8	-0.010631971
148	0xba3b3d80	-0.0007142648
149	0xbcc038bc	-0.023464553
150	0x3d433ca2	0.047665246
151	0x3c7e1860	0.015508741
152	0xbd99edbd	-0.07516048
153	0xbc648810	-0.013948455
154	0x3d1a40d6	0.03765949
155	0x3d8d6517	0.06904047
156	0x3d87ef93	0.06637492
157	0x3d7ee2a6	0.062227868
158	0xbd5d0a54	-0.053964928
159	0x3a220880	0.0006181076
160	0x3ceb90c4	0.028755553
161	0x3d3d9eca	0.04629401
162	0xbcd6769e	-0.026179608
163	0x3d62892e	0.055306606
164	0xbdb39fae	-0.08770691
165	0xbd93cf90	-0.07217324
166	0x3c812f84	0.015769728
167	0x3d1cc7fe	0.038276665
168	0xbd8c04b0	-0.068368316
169	0xbd444c9c	-0.047924623
170	0xbc814ae0	-0.015782773
171	0x3d8c6587	0.06855302
172	0xbd6be5b1	-0.057592098
173	0xbd77247a	-0.06033752
174	0xbd91455d	-0.07093308
175	0x3d88149f	0.06644558
176	0x3da09ea7	0.078427605
177	0xbdac57df	-0.084151976
178	0x3ca30840	0.019901395
179	0x3da6f6cd	0.08152542
180	0x3d6c0bae	0.057628326
181	0xbd74611e	-0.05966293
182	0xbc6e4e90	-0.014545098
183	0x3d68cffa	0.056838967
184	0x3da1e91d	0.07905791
185	0xbd89da92	-0.06731142
186	0xbd13ee57	-0.03611597
187	0x3b5874c0	0.0033028573
188	0x3d444c26	0.047924183
189	0xbdad42d7	-0.08460014
190	0xbc351b08	-0.011053808
191	0x3ccc5a84	0.024945505
192	0x3d764742	0.06012655
193	0x3d701a8e	0.058619075
194	0x3d57d9fa	0.052698113
195	0xbd95a8ea	-0.073076084
196	0xbd913f9a	-0.07092209
197	0x3d04a694	0.032385424
198	0x3d8d78e1	0.069078214
199	0xbd05e793	-0.03269155
200	0x3d90c6ab	0.07069143
201	0x3d8585e7	0.065196805
202	0xbda182b7	-0.0788626
203	0x3d9081f3	0.07056036
204	0xbd2a26fb	-0.04154108
205	0xbd4806e5	-0.0488347
206	0xbc4db948	-0.0125563815
207	0x3db4a835	0.088211454
208	0xbc0f1c18	-0.008734725
209	0x3da79cfd	0.0818424
210	0xbc23e1c8	-0.010002561
211	0x3d439976	0.047753774
212	0x3d834e07	0.06411367
213	0xbd002a81	-0.031290535
214	0x3d03bb7e	0.03216123
215	0xbd8f5357	-0.06998318
216	0xbd55160a	-0.05202297
217	0xbda46a03	-0.08028033
218	0x3cd1cb04	0.0256095
219	0xbd5a8830	-0.053352535
220	0x3d385256	0.045000397
221	0xbcebb2f8	-0.028771862
222	0x3da22b89	0.0791846
223	0x3cd5b360	0.02608651
224	0x3b77fe60	0.0037840828
225	0x3be53970	0.0069953725
226	0x3cc6680c	0.024219535
227	0x3d0e9e1a	0.034818746
228	0xbd96b596	-0.073588535
229	0x3d5cd712	0.053916045
230	0xbd279aa4	-0.04091896
231	0x3c9a9064	0.018867679
232	0x3db24f71	0.087065585
233	0xbd22883d	-0.03968071
234	0x3d9cab01	0.07649804
235	0x3da72b7b	0.0816259
236	0x3d97f907	0.07420545
237	0x3d831ca9	0.06401951
238	0xbd85537e	-0.065100655
239	0x3d83e0fb	0.06439396
240	0xbd47b9dd	-0.048761237
241	0x3d67b252	0.056566544
242	0x3bd6bc70	0.006553225
243	0x3d8e15d7	0.06937759
244	0xbcdcfd50	-0.026976258
245	0xbd2e692f	-0.04258078
246	0xbcc50254	-0.024048962
247	0x3d03e4be	0.032200567
248	0x3d9ab38d	0.07553778
249	0x3d5cb64a	0.053884782
250	0xbd344e4e	-0.04401999
251	0x3c923104	0.017845638
252	0xbbe12380	-0.006870687
253	0xbd13cc83	-0.03608371
254	0x3dad71b5	0.084689535
255	0xbcd26890	-0.025684625

encoder.2.bias f4 [128]
0	0x3d5e8a2e	0.054330997
1	0x3d83046b	0.06397327
2	0xbd40529b	-0.04695378
3	0x3d095864	0.03353156
4	0x3c0988e5	0.008394455
5	0x3c8787cf	0.01654425
6	0xbd30c15a	-0.043153144
7	0x3baac540	0.0052115023
8	0x3d4e1432	0.05031223
9	0x3d876fd6	0.06613128
10	0xbd8d29ea	-0.0689276
11	0x3c9b30d8	0.018944189
12	0x3bd42de5	0.0064751976
13	0xbd9060a6	-0.07049684
14	0xbd745c50	-0.05965835
15	0xbd80076c	-0.062514156
16	0xbd63ec4f	-0.055645283
17	0xbd1a008d	-0.03759818
18	0xbda17ed9	-0.078855224
19	0x3d690421	0.056888703
20	0x3da305f4	0.0796012
21	0x3db0824d	0.08618603
22	0xbcb7280c	-0.022357963
23	0xbcb116ce	-0.02161732
24	0xbb81e970	-0.0039645955
25	0xbd3897c2	-0.045066603
26	0x3c26eee0	0.010188788
27	0x3b7ac800	0.0038266182
28	0x3cb9eee4	0.02269692
29	0x3dade257	0.084904365
30	0x3d4cc6f6	0.04999443
31	0xbc63160a	-0.013860235
32	0xbc83aafa	-0.016072739
33	0xbdcb0ca6	-0.09914522
34	0xbd02a089	-0.03189138
35	0x3d331d1e	0.04372894
36	0x3c3fbc30	0.011702582
37	0xbd929cdf	-0.07158827
38	0xbd89b866	-0.06724624
39	0xbd13e793	-0.03610952
40	0x3d39a1c4	0.045320287
41	0x3d54453a	0.051823832
42	0xbda12deb	-0.07870086
43	0xbd9e3f9f	-0.077269785
44	0xbda8fc9e	-0.08251308
45	0x3d3c368b	0.045950454
46	0x3da391a3	0.079867624
47	0x3d2fc03e	0.042907946
48	0xbc2affc6	-0.010436958
49	0xbc27a4bc	-0.010232147
50	0x3d856e65	0.06515197
51	0xbd9d3056	-0.07675235
52	0xbd8bc260	-0.068241835
53	0x3c4b0d37	0.012393287
54	0x3c978db4	0.018500187
55	0x3cab925a	0.02094381
56	0x3d556691	0.052099768
57	0x3d9dcea4	0.07705429
58	0xbdaf03ad	-0.08545623
59	0xbda4d1d0	-0.08047831
60	0xbd011051	-0.0315097
61	0x3be964f3	0.00712263
62	0x3cb9abc1	0.022664906
63	0xbd2c364d	-0.042043973
64	0xbd885f64	-0.06658819
65	0x3c69fe0c	0.014281761
66	0xbd2e49f4	-0.042550996
67	0xbd9002ff	-0.070318215
68	0xbb5b576f	-0.0033468863
69	0x3d9585e8	0.07300931
70	0x3c427ad8	0.011870109
71	0xbd88117e	-0.06643961
72	0xbd57949f	-0.05263197
73	0xbdaff8b3	-0.085923575
74	0x3d467d9f	0.048459645
75	0xbd5bc2fd	-0.053652752
76	0xbdd6dd00	-0.10491371
77	0x3d6af7ef	0.057365354
78	0x3d0e3da8	0.03472677
79	0xbd9f1aa9	-0.07768757
80	0xbd41ddab	-0.04733054
81	0x3d8d35b1	0.068950064
82	0xbca56584	-0.020190008
83	0x3bdab8e9	0.006674875
84	0x3bc61400	0.0060448647
85	0x3d4be777	0.04978129
86	0xbde18022	-0.110107675
87	0xbd84da07	-0.06486898
88	0xbda4aeba	-0.08041139
89	0x3d83cdcd	0.06435738
90	0x3daf1271	0.08548439
91	0x3d4acf71	0.049514238
92	0x3d22c0a4	0.039734498
93	0x3d1a90e6	0.037735842
94	0xbda6d084	-0.0814524
95	0xbc9f3f02	-0.019439224
96	0xbd9d1e37	-0.07671779
97	0x3c5934e2	0.013257237
98	0x3d539f12	0.051665373
99	0x3cc293a8	0.023752049
100	0xbcfa939f	-0.03058797
101	0x3d8a63cd	0.06757317
102	0xbad08200	-0.0015907884
103	0xbd5e94c9	-0.05434111
104	0xbd3f3800	-0.046684265
105	0x3c8d455e	0.01724499
106	0x3c9aae05	0.018881807
107	0xbda4f4eb	-0.08054527
108	0x3d8691a3	0.06570747
109	0x3d666401	0.056247715
110	0x3d8101c3	0.06299164
111	0x3bdfadf0	0.006826155
112	0xbb2fc821	-0.0026822167
113	0xbd8f8ff9	-0.070098825
114	0xbd299f51	-0.0414117
115	0xbc491eb0	-0.012275383
116	0xbdeac19b	-0.114627086
117	0x3d35b926	0.044366024
118	0x3dad186d	0.084519245
119	0x3d80c150	0.062868714
120	0xbdd0f0c4	-0.102021724
121	0x3c246c08	0.010035522
122	0xbced4d60	-0.02896756
123	0xbba407ea	-0.0050058262
124	0x3d3f85d4	0.046758488
125	0x3d9a23c7	0.07526355
126	0xbd1c8cb1	-0.03822011
127	0x3c55e64d	0.013055396

encoder.4.weight f4 [128, 128]
0	0xba9557c0	-0.0011393949
1	0xbcd47de6	-0.02593894
2	0xbdb263fc	-0.08710477
3	0x3d638fa3	0.055556905
4	0x3d5bf7cf	0.053703126
5	0x3caab101	0.020836355
6	0xbcbbdfdf	-0.022933898
7	0x3a96e1c0	0.001151137
8	0x3c6d3930	0.014478967
9	0x3c0b6afb	0.008509393
10	0x3c118af8	0.00888323
11	0x3c5536f0	0.013013586
12	0x3d71ebe7	0.059062865
13	0x3c762d93	0.015025514
14	0x3be989a0	0.007127002
15	0x3d8a7bab	0.06761869
16	0xbd2dbe5f	-0.04241788
17	0x3d30d2e6	0.04316988
18	0x3bac73e0	0.005262837
19	0xbcc3864b	-0.023867747
20	0xbd79e4e8	-0.061009318
21	0x3c3da6e0	0.011575431
22	0xbd420421	-0.04736722
23	0xbd4aa195	-0.049470503
24	0x3d97ef35	0.07418672
25	0x3d37319a	0.044725038
26	0xbda9e006	-0.08294682
27	0xbd8c6312	-0.06854834
28	0xbbc013bb	-0.005861727
29	0x3dad1f10	0.0845319
30	0x3bf46880	0.0074587464
31	0xbbca0778	-0.006165441
32	0x3d2f163a	0.042745806
33	0xbd5ef74f	-0.05443507
34	0x3d3d2e7e	0.046186917
35	0x3c6a0b30	0.014284894
36	0xbd25945b	-0.040424686
37	0x3d904eb4	0.070462614
38	0xbda21390	-0.079138875
39	0x3da90c7e	0.08254336
40	0xbc462507	-0.012093789
41	0xbd4e159a	-0.05031357
42	0xbba55c26	-0.0050463853
43	0x3db41b29	0.08794243
44	0x3cbf88c4	0.023380645
45	0xbda0ad7e	-0.07845591
46	0x3d83ff5f	0.064451925
47	0x3c02b118	0.007976793
48	0x3dbd1fe7	0.092346005
49	0x3d155b00	0.036463737
50	0x3dabd253	0.083897255
51	0x3b967c69	0.0045924676
52	0xbca2f37a	-0.01989149
53	0xbc9334db	-0.01796954
54	0x3da60ad2	0.081075326
55	0xbd8531bd	-0.065036274
56	0xbd3e585a	-0.046470977
57	0x3dd5b590	0.10435021
58	0xbcd76afe	-0.026296135
59	0x3d9373f5	0.071998514
60	0x3cbc07c8	0.02295293
61	0xbd641932	-0.05568809
62	0xbd07e953	-0.0331815
63	0x3d8685b3	0.0656847
64	0x3d14ed88	0.03635934
65	0x3d529830	0.05141467
66	0x3d5bad5b	0.05363212
67	0x3cd8bb29	0.026456432
68	0xbcf65fb8	-0.03007494
69	0x3d574df0	0.05256456
70	0xbb714a80	-0.0036818087
71	0xbce5a6ac	-0.028033577
72	0x3d141251	0.03615028
73	0x3ccb785c	0.024837665
74	0x3d366496	0.04452952
75	0x3d6fb4cb	0.058522027
76	0xbcb60c99	-0.022222804
77	0xbbd3cf21	-0.0064639007
78	0xbd4a5639	-0.049398635
79	0x3db0f283	0.086400054
80	0xbd882292	-0.06647219
81	0x3d743e12	0.059629507
82	0xbd9326ed	-0.07185159
83	0xbd5304f9	-0.051518414
84	0x3d6d01d1	0.05786306
85	0x3ceccbe2	0.028905813
86	0x3c9b3901	0.01894808
87	0xbb91d400	-0.004450321
88	0xbd829584	-0.06376174
89	0xbd612a76	-0.054972135
90	0xbd6d6280	-0.057955265
91	0x3d34c641	0.044134382
92	0xbbbaffeb	-0.0057067773
93	0xbda47141	-0.08029414
94	0x3a2bbb1d	0.00065510144
95	0x3cf91ac2	0.030408267
96	0xbd2f3678	-0.042776555
97	0x3cb1ad95	0.021689216
98	0x3c766230	0.015038058
99	0x3d8c92ea	0.06863959
100	0x3d330d18	0.04371366
101	0x3da97b92	0.08275522
102	0xbd889541	-0.06669093
103	0xbcdedcde	-0.027204927
104	0x3da5d6e6	0.08097629
105	0xbc69818c	-0.014252078
106	0x3db85c64	0.09001997
107	0xbd9b2d59	-0.07577009
108	0x3d56ce2e	0.052442722
109	0xbc631cbc	-0.013861831
110	0xbd05e2de	-0.03268706
111	0x3d5387fe	0.051643364
112	0xbda3cb70	-0.07997787
113	0x3e267ae8	0.16257823
114	0xbd9d731c	-0.07687971
115	0x3dab9843	0.08378651
116	0x3d4bf703	0.049796116
117	0x3de7bc5d	0.11315224
118	0x3df13ac5	0.117787875
119	0x3c061dc3	0.008185807
120	0xbd4e7c42	-0.05041147
121	0xbc232778	-0.009958141
122	0x3d181b26	0.037135266
123	0xbd460b13	-0.048350405
124	0xbd4922f6	-0.049105607
125	0xbb5aa78a	-0.0033364021
126	0xbd5c7a0b	-0.053827327
127	0x3d4ad90d	0.049523402
128	0xbd014017	-0.03155526
129	0xbd4dddb8	-0.050260276
130	0xbd8ae916	-0.06782739
131	0x3dadd95c	0.08488724
132	0x3d5bc6e1	0.053656463
133	0x3d0ab452	0.033863373
134	0x3ad8b023	0.0016531985
135	0xbc82a1f4	-0.015946366
136	0xbd032524	-0.032017842
137	0xbcebe94f	-0.028797774
138	0xbd66445b	-0.056217533
139	0xbd3657da	-0.044517376
140	0x3cea8877	0.028629525
141	0xbd988ab6	-0.07448332
142	0xbd4b7fd3	-0.04968245
143	0x3d01c744	0.031684175
144	0x3d390f5f	0.045180675
145	0x3d3e19fa	0.046411492
146	0x3dca82a4	0.09888199
147	0x3d3829a8	0.0449616
148	0x3d1d922d	0.038469482
149	0xbd82e033	-0.06390419
150	0xbd8583b0	-0.06519258
151	0x3d06bfd4	0.032897785
152	0xbc785ab8	-0.015158348
153	0x3d7853ae	0.06062668
154	0x3d836123	0.06415012
155	0xbca9f148	-0.020744935
156	0xbd869d0c	-0.06572923
157	0x3d8a3027	0.067474656
158	0xbd384035	-0.044983108
159	0x3d8e9cfd	0.06963537
160	0x3db1b68b	0.086773954
161	0xbda1bedc	-0.07897732
162	0xbc2816a3	-0.010259303
163	0x3d351557	0.044209804
164	0xbd92a81d	-0.07160971
165	0x3d58a4d5	0.05289157
166	0x3cb269a4	0.021778889
167	0x3d6a74fe	0.05724048
168	0x3da0fdd8	0.07860917
169	0x3d4eca1e	0.050485723
170	0xbd766ca6	-0.06016221
171	0xbb4e4900	-0.0031476617
172	0xbd3bbf90	-0.045836985
173	0x3c6c7301	0.014431716
174	0x3d4f2372	0.050570913
175	0xbca033ca	-0.019555945
176	0xbd348149	-0.04406861
177	0x3beeb4fb	0.007284758
178	0x3d92ac53	0.071617745
179	0x3d60b45b	0.0548595
180	0xbc8fd0d0	-0.017555624
181	0xbc963eea	-0.018340547
182	0x3d5fdadb	0.054652076
183	0x3dc6af7b	0.09701439
184	0xbd6f541a	-0.058429815
185	0x3c363505	0.011121039
186	0xbc16adc0	-0.009196699
187	0xbd229bdd	-0.039699424
188	0xbd0ba864	-0.034096137
189	0xbcde8379	-0.0271623
190	0x3dcb53cc	0.09928092
191	0x3d933bcb	0.07189139
192	0x3d8b73a1	0.06809164
193	0xbd17a142	-0.03701902
194	0x3d146731	0.036231223
195	0x3d881dc2	0.06646301
196	0xbd1c043c	-0.038089976
197	0xbd79fee4	-0.0610341
198	0xbd3088f6	-0.043099366
199	0xbd77a06e	-0.060455732
200	0x3dad6abf	0.08467626
201	0x3c3c04e0	0.011475772
202	0x3d85a968	0.06526452
203	0xbcb43cbd	-0.022001619
204	0x3ca1709b	0.019707015
205	0xbd308c50	-0.043102562
206	0xbca86dac	-0.020560108
207	0xbda08968	-0.07838708
208	0xbcf5dd1e	-0.030012663
209	0x3bd00710	0.006348498
210	0xbd502358	-0.050814956
211	0xbbd98402	-0.006638051
212	0xbc0b748f	-0.008511676
213	0xbca0c24a	-0.019623894
214	0xbd9ada04	-0.075611144
215	0xbd6ff56e	-0.05858367
216	0xba605280	-0.00085572153
217	0x3d52d74e	0.05147486
218	0xbd9d9a2e	-0.07695423
219	0xbca06a19	-0.019581841
220	0xbd932804	-0.07185367
221	0xbc70d8b7	-0.014700106
222	0x3da1e592	0.07905115
223	0xbd15434e	-0.03644114
224	0xbd47e3fe	-0.048801415
225	0x3da459fd	0.080249764
226	0x3db3fe21	0.087887056
227	0xbcba0c36	-0.0227109
228	0x3d8279ac	0.06370863
229	0x3d28cda9	0.041211758
230	0x3cc02b08	0.023458019
231	0x3cdde868	0.027088359
232	0x3bcbe006	0.006221774
233	0xbc6e632f	-0.014550014
234	0x3d16985f	0.036766406
235	0x3d869c19	0.06572742
236	0xbd69a4d6	-0.057041965
237	0x3db8281f	0.089920275
238	0xbd0c23bc	-0.034213766
239	0xbce089ec	-0.027409516
240	0xbd1847fb	-0.03717802
241	0x3d9535ce	0.07285653
242	0xbd9dfd9a	-0.07714386
243	0x3d9887ad	0.07447753
244	0x3b7e3e79	0.003879456
245	0xbc4836d6	-0.012220105
246	0xbb785ee2	-0.0037898351
247	0xbb0d88c7	-0.0021596418
248	0xbd8e8701	-0.06959344
249	0xbc8cd8e0	-0.017193258
250	0x3d462222	0.048372395
251	0x3ccc5c7a	0.02494644
252	0x3d9d422a	0.076786354
253	0xbcf460da	-0.029831339
254	0xbc242e04	-0.010020737
255	0xbc91b903	-0.017788416

encoder.4.bias f4 [128]
0	0xbbbc52c0	-0.0057471693
1	0x3cccba3d	0.02499115
2	0xbd652939	-0.055947516
3	0xbdc6a34d	-0.09699116
4	0x3d7ec5cc	0.062200353
5	0xbdb8d32c	-0.09024653
6	0xbc000bd9	-0.007815325
7	0xbd90d3fc	-0.07071683
8	0xbcb94e88	-0.022620454
9	0x3d87c27e	0.06628893
10	0xbbb9be97	-0.005668472
11	0xbc07b952	-0.00828393
12	0x3de92eb3	0.1138586
13	0x3c23e05d	0.010002223
14	0xbd473b3d	-0.04864048
15	0xbde5f2a8	-0.11227924
16	0xbd4bcc3c	-0.04975532
17	0xbd61965d	-0.05507504
18	0x3d0a31d3	0.033738922
19	0xbd3ae6c3	-0.045630228
20	0xbc96d8c7	-0.018413914
21	0xbbf4922b	-0.0074637136
22	0x3d68283d	0.056679
23	0xbc9e4c92	-0.019323621
24	0xbd9d2da4	-0.07674721
25	0xbcf7d5d1	-0.030253323
26	0xbcb66a5d	-0.022267515
27	0x3d9714d6	0.07377021
28	0x3d0faf40	0.03507924
29	0xbdadbac7	-0.084828906
30	0xbc91d70f	-0.017802743
31	0xbd503978	-0.050836056
32	0xbbc0502d	-0.0058689327
33	0x3d4e9cca	0.050442494
34	0x3c9edb1f	0.019391594
35	0x3b9ccf77	0.004785474
36	0x3bd67e5e	0.006545826
37	0xbd9e52ca	-0.077306345
38	0x3c86cc9b	0.016454985
39	0x3d7b6aa4	0.061380997
40	0x3cca0a1b	0.024663022
41	0x3d842b53	0.06453576
42	0xbd4f6f40	-0.050643206
43	0x3d974976	0.073870584
44	0xbc2960ff	-0.010338067
45	0x3ca839fb	0.02053546
46	0xbd76c392	-0.060245104
47	0xbb689a0d	-0.0035492212
48	0xbcdfe85f	-0.027332483
49	0x3ca11770	0.019664496
50	0xbcaacdee	-0.020850148
51	0x3d1e789f	0.038689252
52	0x3d985dd1	0.07439769
53	0xbd34b504	-0.044117942
54	0xbdac1ec6	-0.08404307
55	0x3c8d7c3c	0.017271154
56	0x3d8480bf	0.06469869
57	0x3d0e3985	0.034722824
58	0x3da7f505	0.08201031
59	0x3d15259d	0.036412824
60	0x3d0ace9f	0.033888455
61	0xbc17994a	-0.009252856
62	0x3c93cbb8	0.018041477
63	0xbd481eef	-0.048857626
64	0x3dab541a	0.083656505
65	0xbd433785	-0.04766037
66	0x3d8d56c8	0.06901318
67	0x3d269067	0.040665057
68	0xbd8e904a	-0.06961115
69	0xbbe97728	-0.0071248002
70	0xbd570a98	-0.052500337
71	0x3d9ef80c	0.07762155
72	0xbdcdb0d3	-0.10043492
73	0x3d0e18de	0.034691684
74	0x3d5b99de	0.053613536
75	0x3d6cd643	0.057821523
76	0xbd5d9db6	-0.054105483
77	0x3d3b48ae	0.04572361
78	0xbd3935fa	-0.04521749
79	0xbc170e1b	-0.009219672
80	0xbd48de7f	-0.049040314
81	0xbda4a1b1	-0.08038653
82	0xbc7e92d5	-0.015537937
83	0x3da38f4f	0.07986318
84	0xbd861b9e	-0.06548236
85	0xbda6f116	-0.08151452
86	0xbd1a8fda	-0.037734844
87	0x3d781e82	0.06057597
88	0x3d0c954e	0.034322076
89	0xbd549136	-0.051896296
90	0x3da8638b	0.08222111
91	0x3d8c40b1	0.068482764
92	0xbdd75934	-0.10515061
93	0xbd2c2d0f	-0.04203516
94	0xbd22e514	-0.039769247
95	0xbaef3504	-0.0018250053
96	0x3d4d7338	0.05015871
97	0x3d820c36	0.06349985
98	0xbd2cda96	-0.042200647
99	0x3c4ad777	0.012380472
100	0xbc34dd5c	-0.011039104
101	0xbd0720f2	-0.032990403
102	0x3d0f9b03	0.03505994
103	0x3d29e3d5	0.041477043
104	0x3db5b014	0.08871475
105	0xbd32a948	-0.04361847
106	0x3d9a0832	0.075210944
107	0xbd6420c8	-0.055695325
108	0xbda1bc59	-0.078972526
109	0xbd651f43	-0.055938017
110	0x3cf4d29f	0.029885588
111	0x3cc8f5eb	0.024531325
112	0x3d7d32c4	0.061815992
113	0xbdaa1b57	-0.08305996
114	0x3d881d6d	0.066462375
115	0x3d7255e6	0.05916395
116	0xbd609a5a	-0.0548347
117	0x3db6e55a	0.08930464
118	0xbca47a26	-0.020077776
119	0x3c7c988d	0.01541723
120	0x3d71c16f	0.059022363
121	0x3c8bca29	0.01706417
122	0xbca064a8	-0.019579247
123	0x3c1c4aca	0.0095393155
124	0x3cbf53ef	0.023355452
125	0xbd4b6cb9	-0.049664233
126	0x3cd99c22	0.026563708
127	0xbcd67a06	-0.026181232

decoder_lstm.weight_ih_l0 f4 [512, 129]
0	0xbc90db76	-0.017682772
1	0x3d35857b	0.04431675
2	0x3d9ec180	0.07751751
3	0xbc476ee6	-0.012172436
4	0xbcfd2527	-0.030901505
5	0xbda68bce	-0.081321344
6	0xbd15cbab	-0.036571186
7	0xbbc8a62a	-0.006123324
8	0x3c54377c	0.012952682
9	0x3c06b3fa	0.008221621
10	0x3d08c041	0.033386473
11	0x3c909179	0.017647492
12	0x3d46b6aa	0.048514046
13	0x3d5ed1ec	0.054399416
14	0xbcabbb40	-0.020963311
15	0x3d9a2057	0.075256996
16	0xbcfe6ca2	-0.03105766
17	0x3d8466fc	0.06464955
18	0xbc77b1e5	-0.015118097
19	0x3d9df82a	0.07713349
20	0xbd2505d3	-0.040288758
21	0x3c0d0e18	0.008609317
22	0x3b813bfd	0.0039439187
23	0xbd19627a	-0.03744743
24	0x3c092a61	0.00837192
25	0xbb475896	-0.0030417792
26	0x3b53df6f	0.0032329222
27	0x3d8c518b	0.068514906
28	0xbcc6ac04	-0.024251945
29	0xbd1b30a5	-0.037888188
30	0x3cecb25b	0.02889364
31	0xbd958751	-0.073012
32	0x3c69c9ad	0.014269275
33	0x3c04733d	0.008084116
34	0x3d9d528b	0.076817594
35	0xbd3012be	-0.042986624
36	0xbd19ecb9	-0.037579272
37	0xbdb4bfaa	-0.088256195
38	0x3d0183bd	0.031619776
39	0x3d166b24	0.03672327
40	0xbd4781e8	-0.048707873
41	0x3cd84dc5	0.02640427
42	0x3d80dabd	0.06291721
43	0x3db2c143	0.08728268
44	0x3dbb373b	0.09141394
45	0xbb0c54dd	-0.0021412887
46	0x3b78f33d	0.0037986778
47	0xbd331e57	-0.043730106
48	0xbd5b7f0f	-0.05358797
49	0xbd9e76bc	-0.077374905
50	0x3d6fa392	0.058505602
51	0x3d6d5bf2	0.057949014
52	0x3d0355a2	0.032064088
53	0x3c5e1fc5	0.013557379
54	0xbcef827f	-0.02923703
55	0xbd3c596a	-0.04598371
56	0xbca1d8a4	-0.019756623
57	0x3d6c16c6	0.057638906
58	0x3c98e186	0.018662225
59	0x3afaa7dc	0.0019123512
60	0x3d73ecfa	0.05955217
61	0xbd6cb117	-0.057786074
62	0xbd2deaba	-0.04246018
63	0xbcf8a060	-0.03034991
64	0x3d8afe41	0.06786776
65	0x3d30e3c7	0.043185975
66	0x3a9aeb69	0.0011819425
67	0x3cf85c95	0.030317584
68	0x3cfe3651	0.03103176
69	0xbd33af4e	-0.043868355
70	0x3be13bd9	0.0068735895
71	0xbd8e322d	-0.06943164
72	0x3d90d8d4	0.07072607
73	0x3c3be1e7	0.011467434
74	0xbd410184	-0.047120586
75	0xbbe6be49	-0.0070417267
76	0x3da29c80	0.07940006
77	0xbcf660bd	-0.030075425
78	0xbcf551cb	-0.029946228
79	0xbdb0b5ba	-0.086284116
80	0xbd8e2c23	-0.06942012
81	0x3d70b8c0	0.05876994
82	0x3c59a217	0.013283274
83	0xbaab3ffd	-0.0013065335
84	0xbdbcd5ba	-0.092204526
85	0xbbe0d62f	-0.00686147
86	0x3d7cf717	0.06175908
87	0xbd1de87f	-0.038551804
88	0x3d9caedc	0.07650539
89	0xbd6e85ff	-0.058233257
90	0x3da5a35e	0.080878004
91	0xbd8712a6	-0.06595354
92	0x3d606d31	0.054791633
93	0x3cbe361f	0.023219166
94	0x3d1d8753	0.038459133
95	0x3da823c3	0.08209946
96	0x3bffe9a1	0.007809833
97	0x3d7ca098	0.06167659
98	0xbd73eff9	-0.059555028
99	0xbd59f36f	-0.053210672
100	0x3d915095	0.07095448
101	0xbd025ddd	-0.031827796
102	0xbda69247	-0.08133369
103	0xbd7fec61	-0.062481288
104	0x3c8c3370	0.017114371
105	0x3da4c1e0	0.08044791
106	0x3d52a320	0.0514251
107	0x3d96ca60	0.07362819
108	0xbd15f1e5	-0.03660764
109	0xbd199e73	-0.037504625
110	0xbd09f028	-0.033676296
111	0x3d30398c	0.04302363
112	0xbb81dad5	-0.0039628544
113	0x3d38ee3e	0.04514908
114	0xbd86485a	-0.06556769
115	0x3c8c9bd9	0.017164158
116	0xbdaade95	-0.083432354
117	0xbcb4d9d1	-0.02207652
118	0x3bed7ce0	0.0072475523
119	0xbd224b11	-0.03962237
120	0xbd04f1f7	-0.03245732
121	0x3daf202c	0.08551058
122	0x3adb6134	0.0016737343
123	0xbda773ae	-0.08176361
124	0x3d2927b5	0.041297633
125	0xbd6f7643	-0.058462393
126	0xbd337014	-0.043808058
127	0x3d37c8de	0.044869296
128	0x3d505898	0.05086574
129	0x3da47dce	0.08031808
130	0x3da07fb6	0.07836859
131	0xbdae05ca	-0.08497198
132	0xbd6e7445	-0.058216352
133	0x3d3a4c5f	0.04548299
134	0x3c4ef42f	0.01263146
135	0x3ce21eba	0.027602542
136	0x3cafb7ec	0.021450005
137	0x3d818b06	0.06325345
138	0xb802fdd9	-3.123083e-05
139	0xbdab8a33	-0.08375969
140	0x3cac1e74	0.021010615
141	0xbd23e8ab	-0.04001681
142	0x3d0b8bd8	0.034068912
143	0xbd38fe85	-0.045164604
144	0x3be83fe8	0.0070876963
145	0x3b89751d	0.004194869
146	0x3d2e2f9c	0.042525873
147	0x3d961649	0.07328469
148	0x3d5a8c5f	0.053356525
149	0x3d20e1e0	0.03927791
150	0x3e03938b	0.12849252
151	0x3d3ef53a	0.046620585
152	0x3c554fe1	0.013019533
153	0x3bfc95ba	0.0077082785
154	0x3cb027f7	0.021503432
155	0xbdae66ac	-0.08515677
156	0x3dc250ba	0.094880536
157	0x3da46c64	0.08028486
158	0xbd6f6a41	-0.05845094
159	0x3cf62576	0.03004716
160	0x3d5ac9cd	0.05341511
161	0xbde6f7da	-0.11277743
162	0xbdb7071a	-0.089369014
163	0xbcd8805a	-0.02642839
164	0xbd96c591	-0.073619016
165	0x3d031377	0.032000985
166	0x3cbe1cc5	0.023207078
167	0x3e0ae711	0.13564707
168	0xbd9be764	-0.07612494
169	0xbda6f440	-0.08152056
170	0xbd7e5055	-0.06208833
171	0x3dac6622	0.08417918
172	0xbc478a96	-0.012179038
173	0x3d890685	0.066906966
174	0x3cb4d36d	0.022073472
175	0x3a58fa6d	0.00082770624
176	0xbded05cf	-0.115733735
177	0x3da60647	0.08106666
178	0x3c5677c0	0.013090074
179	0xbd53a61f	-0.051672097
180	0xbddfdd99	-0.10930938
181	0xbc0f5ca5	-0.0087501155
182	0x3bc49bc4	0.006000014
183	0xbccc62b4	-0.024949409
184	0xbc5c65b4	-0.013451982
185	0xbd9af142	-0.075655475
186	0xbd2d631c	-0.042330846
187	0x3d87947b	0.06620117
188	0x3dc1a3d1	0.094550736
189	0x3dd92bdd	0.106040694
190	0x3d5a1434	0.053241923
191	0x3dd04666	0.101696774
192	0xbdc8c7b2	-0.09803714
193	0x3bd9c53c	0.0066458266
194	0x3db65506	0.08902936
195	0x3dcc2050	0.099671006
196	0x3de38699	0.11109657
197	0xba6e1eda	-0.0009083577
198	0x3c903a57	0.017605944
199	0x3ccf6874	0.025318362
200	0xbd6d3f93	-0.057921957
201	0xbdca9ae0	-0.09892821
202	0x3da93d0f	0.08263599
203	0xbd229ff9	-0.039703343
204	0xbdd3cf19	-0.10342235
205	0xbd4f27e6	-0.05057516
206	0x3ce4edca	0.027945418
207	0xbde01f3e	-0.10943459
208	0xbc598c36	-0.013278058
209	0xbd6bd06a	-0.057571806
210	0x3c94033d	0.01806795
211	0x3d65c5d7	0.056096878
212	0x3c697ac4	0.014250461
213	0x3dbcc1a1	0.09216619
214	0x3c1ac0c5	0.009445374
215	0x3c691066	0.014225101
216	0x3d6288ce	0.05530625
217	0x3d5254db	0.051350456
218	0x3d0f5a4e	0.03499823
219	0x3dc60a03	0.09669878
220	0xbc107dda	-0.008819068
221	0x3cc9ce04	0.024634369
222	0xbd856252	-0.06512894
223	0xbd8aa227	-0.06769209
224	0xbb40bb8d	-0.0029408664
225	0xbd522473	-0.051304292
226	0x3c3ca04c	0.011512827
227	0x3d089aca	0.033350743
228	0xbcd5ed81	-0.026114227
229	0x3e02ecc2	0.12785628
230	0x3b5092bc	0.0031825742
231	0x3ce68e8b	0.028144142
232	0xbc4e4479	-0.012589567
233	0xbd637337	-0.0555298
234	0xbd12ec74	-0.03587003
235	0xbc883a7f	-0.016629456
236	0xbd2697af	-0.040672
237	0x3de5fa38	0.11229366
238	0xbc02bda8	-0.007979788
239	0xbd5d31df	-0.05400264
240	0x3c9428c5	0.018085847
241	0x3ddc2166	0.10748558
242	0x3c6363d3	0.01387878
243	0x3c966a04	0.018361099
244	0x3dc3bdf1	0.09557713
245	0xbddb4e66	-0.10708313
246	0x3e007b3f	0.12547015
247	0x3d031654	0.032003716
248	0xbc1091bc	-0.008823808
249	0x3d802e89	0.06258876
250	0x3dcc8131	0.09985579
251	0x3db29277	0.08719342
252	0xbc8ffbdf	-0.017576156
253	0xbd222e56	-0.03959497
254	0xbcd92ebf	-0.026511548
255	0xbe0650b1	-0.13116719

decoder_lstm.weight_hh_l0 f4 [512, 128]
0	0xbd33f362	-0.04393328
1	0x3d76ae56	0.060224853
2	0x3db33569	0.087504216
3	0xbd9f4708	-0.0777722
4	0x3d0254de	0.031819217
5	0xbcb14dae	-0.021643486
6	0xbd73cf69	-0.059523974
7	0x3d7cd446	0.061725877
8	0xbd933132	-0.07187118
9	0xbc97ee3b	-0.018546214
10	0x3c24464f	0.0100265285
11	0x3c7638b1	0.015028165
12	0x3dbec7c2	0.093154445
13	0x3cbc54ec	0.022989713
14	0x3b2c58b7	0.0026297995
15	0x3cae8b48	0.021306649
16	0x3d9e4aa0	0.07729077
17	0xbd8f1df4	-0.06988135
18	0x3d2f5419	0.04280481
19	0xbd34e22f	-0.044161018
20	0x3d5f110b	0.054459613
21	0x3d41046b	0.047123354
22	0xbc9f33fa	-0.019433964
23	0xbd49df63	-0.049285304
24	0xbd1a2174	-0.03762956
25	0x3d6ffe9a	0.058592416
26	0xbd2d5010	-0.04231268
27	0xbd529495	-0.05141123
28	0x3b582d70	0.0032986067
29	0xbdb89875	-0.09013454
30	0x3d672f74	0.05644174
31	0x3da61233	0.0810894
32	0x3b45dab7	0.0030190179
33	0x3d1354d3	0.035969567
34	0x3dca76c6	0.098859355
35	0x3d8d9a81	0.06914235
36	0xbc651e3f	-0.013984262
37	0x3d347eb3	0.044066142
38	0x3b89734d	0.004194653
39	0x3c0c2491	0.00855364
40	0xbd1d0f60	-0.03834474
41	0xbd998d16	-0.07497613
42	0xbc5c96e7	-0.013463712
43	0x3db20163	0.08691671
44	0x3d13a80d	0.036048938
45	0xbd2dc488	-0.042423755
46	0xbcbc0ce3	-0.022955364
47	0xbd8b0993	-0.067889355
48	0x3c0e6964	0.008692119
49	0x3c6933e7	0.014233566
50	0x3d611972	0.054955907
51	0xbc9193c0	-0.017770648
52	0xbd173e04	-0.036924377
53	0x3c41075f	0.011781543
54	0xbc78c784	-0.015184287
55	0xbd95814f	-0.07300054
56	0x3cb88ea9	0.022528963
57	0x3baf4db4	0.005349839
58	0xbd31292e	-0.043252163
59	0xbd94d79a	-0.07267685
60	0x3d2498f2	0.040184923
61	0x3cba4ecf	0.022742657
62	0xbbc6b455	-0.0060639777
63	0xbda5c60e	-0.080944166
64	0x3cf1ba2f	0.029507725
65	0x3d3c1dc8	0.04592684
66	0x3c874c88	0.016515985
67	0x3db62432	0.088936225
68	0x3cda192a	0.026623327
69	0xbd4c48c5	-0.049874086
70	0xbd67d5ec	-0.056600496
71	0x3d8d1ea7	0.06890612
72	0x3cd84f63	0.026405042
73	0xb986cfdc	-0.0002571334
74	0x3ccbead4	0.024892248
75	0x3d4ce0d3	0.050019097
76	0xbd51db38	-0.051234454
77	0x3c545ad8	0.012961112
78	0xbd9d4856	-0.076798126
79	0xbcd884a7	-0.026430441
80	0xbc283797	-0.01026716
81	0xbc6255fb	-0.013814445
82	0x3d9b3a34	0.07579461
83	0xbca84136	-0.020538907
84	0xbdb568d6	-0.088578865
85	0x3d9c6ed5	0.07638327
86	0x3ba8244d	0.0051312805
87	0x3dbd80cd	0.092530824
88	0xbd9428b9	-0.0723433
89	0x3d4f2e67	0.050581362
90	0x3c8f24bd	0.017473573
91	0xbca2dc10	-0.019880325
92	0x3d8370da	0.06418009
93	0xbc2a6572	-0.010400163
94	0xbd187a43	-0.037225973
95	0xbd870981	-0.065936096
96	0x3d83a36d	0.06427655
97	0xbce4e766	-0.02794237
98	0x3c78c633	0.015183973
99	0xbc8d85ec	-0.017275773
100	0x3d31e89c	0.043434724
101	0x3d467468	0.048450857
102	0xbd40b652	-0.047048874
103	0x3d794ad6	0.060862385
104	0xbcf6c6ad	-0.030124033
105	0xbd151ea2	-0.036406167
106	0xbc203d4d	-0.00978024
107	0xbd7d3746	-0.06182029
108	0x3d62e588	0.05539468
109	0x3d31a99d	0.043374646
110	0x3d9b2f0b	0.07577332
111	0xbd2a819d	-0.041627515
112	0x3c58a41f	0.013222723
113	0xbdc755f3	-0.097331904
114	0x3d3071b9	0.043077204
115	0x3d6dce7a	0.05805824
116	0xbbe2e607	-0.006924394
117	0xbd907870	-0.07054222
118	0x3d92c03d	0.07165573
119	0xbcc47d9f	-0.023985682
120	0xbdd3c46a	-0.103401974
121	0x3d80dcf5	0.06292144
122	0x3cb7ef5b	0.022453
123	0xbd2cb6c4	-0.042166486
124	0x3d5c45c3	0.053777467
125	0xbd9999b5	-0.075000204
126	0x3ccbf0a4	0.02489502
127	0xbcbf61a7	-0.023361994
128	0xbd97e960	-0.074175596
129	0x3cd3fe75	0.02587817
130	0xbc4fca02	-0.01268244
131	0x3d8b275f	0.06794619
132	0x3d0e0827	0.034675743
133	0x3cc0151f	0.023447571
134	0x3d612ced	0.054974485
135	0x3cec672f	0.028857796
136	0xbd83cc52	-0.064354554
137	0x3c6ae0c9	0.0143358195
138	0x3a95fe6b	0.001144362
139	0x3b78a830	0.0037942044
140	0x3d8e937d	0.06961725
141	0x3d17c4a7	0.037052777
142	0xbdbb9008	-0.09158331
143	0xbdfd5f60	-0.12371707
144	0xbcfd4738	-0.030917749
145	0xbdc1978b	-0.09452733
146	0xbcce9942	-0.025219563
147	0xbc2dc797	-0.010606668
148	0xbc1ded53	-0.009639102
149	0x3d1dd442	0.038532503
150	0xbd8a1dbd	-0.067439534
151	0xba340586	-0.0006867278
152	0x3e80f5b0	0.25187445
153	0xbad5731e	-0.0016284918
154	0x3a9a18d3	0.0011756666
155	0x3cde98c4	0.027172454
156	0xbd908875	-0.07057277
157	0x3d7f53e3	0.06233586
158	0x3d2ee156	0.042695366
159	0xbd54318c	-0.051805064
160	0x3b7c6a52	0.003851552
161	0xbd889bcd	-0.06670342
162	0x3db1c17c	0.08679482
163	0x3d9d1230	0.076694846
164	0xbcb2f5d4	-0.021845736
165	0x3dab54a6	0.08365755
166	0x3d63ba6c	0.055597708
167	0xbcb30bfb	-0.021856299
168	0x3d986d65	0.0744274
169	0x3c181530	0.009282395
170	0xbd20fa07	-0.039300945
171	0xbd8bfef0	-0.06835735
172	0x3ce825fd	0.028338427
173	0xbc3b66bd	-0.011438069
174	0x3d6a3c00	0.057186127
175	0xbbc43336	-0.00598755
176	0xbd71d2d5	-0.059038956
177	0x3d15853b	0.03650401
178	0x3d7baaa7	0.061442044
179	0x3d630f2e	0.0554344
180	0x3d26686e	0.040626936
181	0x3dc16d41	0.09444667
182	0xbe17c82d	-0.14822455
183	0x3b47d7db	0.003049365
184	0xbd1909cb	-0.037362855
185	0xbcba200f	-0.022720365
186	0xbd83a4a4	-0.06427887
187	0x3d8d6b33	0.06905212
188	0xbb3737f3	-0.0027956932
189	0xbd708b17	-0.058726396
190	0xbb6549da	-0.0034986646
191	0xbbd5f398	-0.006529283
192	0x3c558c3c	0.013033923
193	0xbcdc57c2	-0.026897315
194	0x3b06ac1c	0.0020549363
195	0xbd850aa6	-0.06496172
196	0xbc9f6f5d	-0.019462282
197	0x3d2fe4ff	0.042942997
198	0x3dd26e55	0.102749504
199	0x3d810260	0.06299281
200	0x3db34a22	0.08754374
201	0x3d8682ec	0.0656794
202	0xbe25bec2	-0.1618605
203	0x3dd51d34	0.10405961
204	0x3be2cc60	0.006921336
205	0xbd671099	-0.056412313
206	0xbd053afb	-0.03252695
207	0x3d847c1c	0.064689845
208	0x3d5d173a	0.05397723
209	0x3ab4ffe6	0.0013809174
210	0x3d175e1a	0.036954977
211	0x3cab6fea	0.020927388
212	0x3c84b352	0.016198788
213	0xbdd26585	-0.102732696
214	0x3d8725fe	0.06599043
215	0x3e00240e	0.12513754
216	0x3de436cf	0.111432664
217	0xbd80b2a7	-0.06284075
218	0x3d7f3d0b	0.062314074
219	0xbe0e975b	-0.13924925
220	0xbd8ffe99	-0.070309825
221	0xbce9765b	-0.02849882
222	0x3d387606	0.04503443
223	0xbdd3c87c	-0.10340974
224	0xbd87c842	-0.06629993
225	0xbc1bf42f	-0.009518667
226	0xbc144df3	-0.009051788
227	0xbbe60b17	-0.007020365
228	0x3d10032b	0.03515927
229	0xbd898259	-0.06714315
230	0x3d925537	0.0714516
231	0xbdbc89b6	-0.09205954
232	0x3d2d78b2	0.042351432
233	0x3d5cc1f6	0.053895913
234	0x3d9387bd	0.072036244
235	0xbc4fbff3	-0.012680042
236	0xbd5b8c34	-0.053600505
237	0x3cb7c231	0.022431465
238	0xbce88626	-0.02838428
239	0xbcb0866e	-0.021548476
240	0x3caf54ff	0.021402834
241	0xbda2c51f	-0.07947754
242	0xbc4b9459	-0.012425506
243	0xbdd2e5d5	-0.10297743
244	0xbbd6028a	-0.0065310644
245	0x3dd61644	0.104534656
246	0x3ccb9be5	0.02485461
247	0xbe17e5aa	-0.14833704
248	0xba7f9f36	-0.00097512023
249	0xbccc18fe	-0.024914261
250	0x3c194d94	0.009356875
251	0xbd50f98b	-0.051019233
252	0xbd8c9dec	-0.06866059
253	0xbc735a59	-0.0148530835
254	0xbb97999a	-0.004626465
255	0x3d598918	0.05310926
